gcn_model.pth (torch, 4657 bytes, 4 tensors)

conv1.bias f4 [64]
0	0x3e912e32	0.28355557
1	0x3ee459ab	0.4459966
2	0x3ed472c9	0.41493824
3	0x3eba8169	0.36426857
4	0x3eb1e100	0.34741974
5	0x3e8b2bbb	0.271818
6	0xbce4b34e	-0.02791753
7	0xbdbe0e58	-0.092800796
8	0x3e99b4a3	0.30020627
9	0xbdf813a3	-0.121131204
10	0x3f08c778	0.53429365
11	0x3ea0a10f	0.31372878
12	0x3ec20335	0.37893072
13	0xbde0a7b4	-0.10969487
14	0x3e92bfb2	0.28661877
15	0xbd043585	-0.032277603
16	0x3ded7a47	0.11595588
17	0xbe4ea8ab	-0.20181529
18	0x3f3bba9f	0.73331636
19	0x3f2eec90	0.68329716
20	0x3eb654c4	0.35611546
21	0x3e932001	0.28735355
22	0x3ecfec22	0.40609843
23	0xbde0ae7f	-0.109707825
24	0x3eaa3488	0.33243203
25	0xbdbf0676	-0.09327404
26	0xbdbd0c4f	-0.09230863
27	0x3e9ccd3d	0.30625334
28	0x3e9b9158	0.30384326
29	0x3d851c1b	0.06499501
30	0x3e8df4aa	0.27725726
31	0xbd6f589e	-0.05843412
32	0xbe1c4223	-0.15259604
33	0x3ed86b79	0.42269495
34	0xbe0aff82	-0.13574031
35	0x3eeb9454	0.46011603
36	0x3eff138b	0.49819598
37	0x3ea339d5	0.3188006
38	0x3e77cf6c	0.24200219
39	0xbd89e2c5	-0.06732706
40	0xbd23a730	-0.039954364
41	0x3e45506c	0.1926896
42	0x3ec55a4a	0.38545448
43	0x3e5ebf67	0.21752702
44	0x3e4465e2	0.1917949
45	0xbe2ed491	-0.17073275
46	0xbdd17e09	-0.102291174
47	0x3e8ea74e	0.27862018
48	0xbde31dd6	-0.11089675
49	0x3e5080c9	0.20361628
50	0x3e99c47e	0.30032724
51	0xbd494dcb	-0.049146455
52	0x3e9d2b4c	0.30697095
53	0x3e6a9b70	0.22910857
54	0x3e9affe4	0.30273354
55	0x3e9f05bf	0.3105907
56	0x3ef18590	0.47172213
57	0x3eca9d0c	0.39572942
58	0x3ecaa2eb	0.39577422
59	0x3ed909ec	0.42390382
60	0xbd7eae75	-0.062178094
61	0x3edeecd2	0.43540055
62	0x3e8f17d1	0.27947858
63	0x3e8fce34	0.28087008

conv1.lin.weight f4 [64, 3]
0	0xbec98f5c	-0.39367187
1	0xbea81c89	-0.3283427
2	0xbe65df39	-0.22448434
3	0x3ca59746	0.020213734
4	0xbe5aab9a	-0.21354523
5	0x3c7e3ec3	0.015517893
6	0xbe19e472	-0.15028551
7	0xbe98f2c5	-0.29872718
8	0xbddd386c	-0.10801777
9	0x3f2f84ba	0.685619
10	0xbe80f340	-0.25185585
11	0x3dc73ac8	0.097280085
12	0xbe981673	-0.29704627
13	0xbec26b1f	-0.37972352
14	0xbe6a42fb	-0.22877114
15	0x3f0fa64c	0.56113124
16	0xbee98ecb	-0.45616755
17	0x3db9546a	0.09049304
18	0xbcfa8954	-0.030583061
19	0x3e8b2bf2	0.27181965
20	0xbca7f9d6	-0.020504873
21	0xbbd3a2a7	-0.0064585987
22	0x3d44bdcf	0.048032578
23	0xbce5dd20	-0.028059542
24	0xbd5ff5a9	-0.05467764
25	0x3ed075b2	0.40714794
26	0x3ca86d5c	0.02055996
27	0xbaee1f2a	-0.0018167247
28	0xbc3eac01	-0.011637689
29	0xbcd86219	-0.026413964
30	0xbe3a9745	-0.18221767
31	0xbeabdce5	-0.33566967
32	0xbdb7ffa8	-0.089843094
33	0xbe42066d	-0.18947764
34	0xbe5ba90e	-0.21451208
35	0x3cc68389	0.024232643
36	0x3e7cf4a3	0.24702697
37	0xbe996762	-0.29961687
38	0x3dcb3589	0.099223204
39	0xbd5c7dc1	-0.053830866
40	0xbb97ebb4	-0.0046362523
41	0x3c9eb3c9	0.019372838
42	0x3f1a0121	0.6015797
43	0xbf128059	-0.57227093
44	0x3db14998	0.08656615
45	0xbe92c810	-0.2866826
46	0x3e305495	0.17219765
47	0xbde7ae57	-0.113125496
48	0x3bfaa75b	0.007649345
49	0x3eb5a532	0.35477597
50	0x3c4f6c0a	0.012660036
51	0xbe4fff84	-0.20312315
52	0xbe1c0fcc	-0.15240401
53	0xbea1689a	-0.31525117
54	0x3da81f8a	0.082091406
55	0xbec7636a	-0.38943034
56	0xbba2b926	-0.004965919
57	0xbdadab6c	-0.08479962
58	0xbeae5496	-0.3404891
59	0xbc90325b	-0.017602136
60	0xbecb7075	-0.39734235
61	0xbec4a38d	-0.3840603
62	0xbe4dc041	-0.2009287
63	0x3c867d79	0.016417252
64	0xbe0abdcd	-0.13548966
65	0x3c4e527e	0.01259291
66	0x3d678dce	0.05653172
67	0xbe57dc8b	-0.21080224
68	0x3d67127c	0.056414112
69	0xbde73f0f	-0.11291324
70	0xbd60f12a	-0.054917492
71	0xbe1eb1cc	-0.15497512
72	0x3f003fc8	0.5009732
73	0xbda51f27	-0.080625825
74	0x3cc286c4	0.023745902
75	0x3e5ab7c3	0.21359162
76	0xbed11038	-0.40832686
77	0x3be50d31	0.006990098
78	0xbd0ab8cd	-0.033867646
79	0xbc0c1393	-0.008549589
80	0xbc0b4d3a	-0.008502299
81	0x3daaa9cf	0.0833317
82	0xbe40314a	-0.18768802
83	0x3da1897a	0.0788755
84	0xbe94eb5e	-0.2908582
85	0xbe691fa1	-0.22765972
86	0xbdd36d4a	-0.103235796
87	0xbba94480	-0.0051656365
88	0x3e9823da	0.29714853
89	0x3bd393aa	0.006456812
90	0x3d9c2fb3	0.076262854
91	0xbe1980d5	-0.14990552
92	0x3d5de204	0.054170623
93	0xbe75a199	-0.23987426
94	0xbd77aec5	-0.060469408
95	0xbe082b98	-0.1329788
96	0xbc339223	-0.010960135
97	0x3be8299e	0.0070850393
98	0x3d741b70	0.05959648
99	0xbe0b7130	-0.13617396
100	0xbe7970d5	-0.24359448
101	0xbd5f0dc9	-0.054456506
102	0xbc32b1de	-0.010906665
103	0xbcc8fd50	-0.024534851
104	0xbd3fe6d1	-0.046850983
105	0xbeee61df	-0.46559045
106	0xbedda78e	-0.43291897
107	0xbe4f549a	-0.20247117
108	0x3c85ce7a	0.016333807
109	0xbe7266dd	-0.23672052
110	0x3c0f15c8	0.00873322
111	0x3f2450ac	0.64185596
112	0xbf2c8b61	-0.67400175
113	0x3deac949	0.11464173
114	0xbe0edbad	-0.13950987
115	0xbe1f1bc6	-0.15537938
116	0xbe20967a	-0.15682402
117	0x3b6b7541	0.0035928043
118	0x3e9b7d2f	0.30368945
119	0xbcc0f51c	-0.023554377
120	0x369ff46d	4.767024e-06
121	0xbbb20e97	-0.005433868
122	0xb971db87	-0.00023065331
123	0xbe1b880e	-0.1518862
124	0xbe03a991	-0.12857653
125	0xbd5a9144	-0.053361192
126	0xbdeb6e55	-0.114956535
127	0xbe58d6d4	-0.211757
128	0xbd1ac11c	-0.03778182
129	0xbd53dff9	-0.05172727
130	0x3eba28a0	0.3635912
131	0xbd615eb0	-0.05502194
132	0xbbd94bc8	-0.0066313483
133	0x3ecc39ab	0.39887747
134	0x3c925e7e	0.017867323
135	0x3e95aeb4	0.2923485
136	0xbd1edeaa	-0.038786568
137	0xbd87eda6	-0.06637125
138	0xbd1d747c	-0.038441166
139	0xbb27d9ef	-0.0025612076
140	0xbd0cc05f	-0.034363147
141	0xbe6806eb	-0.22658889
142	0xbe4d84a4	-0.2007013
143	0xbdab2315	-0.08356301
144	0xbd312d3f	-0.04325604
145	0xbc51afc9	-0.012798258
146	0x3b281119	0.0025644957
147	0xbd208b49	-0.039195333
148	0x3eb7c81e	0.35894865
149	0x3c167125	0.009182249
150	0xbe491c00	-0.19639587
151	0xbe3d9e7e	-0.18517491
152	0xbe4ea8d5	-0.20181592
153	0x3c8f9d39	0.017531024
154	0x3ea01f84	0.31274045
155	0xbceabcf7	-0.028654559
156	0x3cbbe70b	0.022937318
157	0xbe41d27b	-0.18927948
158	0x3db45c99	0.08806724
159	0xbc25cd9d	-0.010119823
160	0x3ec69585	0.3878595
161	0x3d3a8e06	0.0455456
162	0xbe722e8e	-0.23650572
163	0xbe5d25a4	-0.2159639
164	0xbd7191fe	-0.05897712
165	0xbe79a58b	-0.24379556
166	0xbe725e4d	-0.23668785
167	0xbde13c25	-0.109978
168	0x3e6910d6	0.22760329
169	0xbed3acf7	-0.413429
170	0x3c5f7610	0.013638988
171	0x3d9acd72	0.07558717
172	0xbe5ed0bd	-0.21759315
173	0x3da2038a	0.07910831
174	0x3eea3e22	0.4575053
175	0xbf258479	-0.6465526
176	0x3d0cb9d3	0.034356903
177	0x3d17add4	0.03703101
178	0xbe4d464d	-0.20046349
179	0x3a814c40	0.0009864643
180	0xba926f5f	-0.0011172107
181	0xba281207	-0.00064113777
182	0x3b87e7d0	0.0041475073
183	0x3cca2593	0.02467612
184	0xbe53a491	-0.20668246
185	0x3a49c4cf	0.0007696868
186	0xbd3e3107	-0.046433475
187	0x3ee339d6	0.44380063
188	0x3b2795c4	0.0025571445
189	0xbe99fbc1	-0.30074885
190	0xbe96b4b0	-0.2943473
191	0x3e0b3391	0.1359389

conv2.bias f4 [4]
0	0x3e8ce3b0	0.27517462
1	0xbe9155bd	-0.28385726
2	0xbe90b235	-0.2826096
3	0xbe69449c	-0.22780079

conv2.lin.weight f4 [4, 64]
0	0x3eb29afe	0.34883875
1	0x3e1cc228	0.1530844
2	0x3e9fca3c	0.3120898
3	0x3e640be8	0.22270167
4	0x3e98ca8d	0.29842034
5	0x3e9693a6	0.29409522
6	0xbbcd0204	-0.006256344
7	0x3e088230	0.13330913
8	0x3e2eb48e	0.17061064
9	0x3b1826a5	0.0023216393
10	0x3e83cd20	0.25742435
11	0x3e653020	0.2238164
12	0x3e3961ec	0.1810376
13	0xbdae8b1c	-0.08522627
14	0x3ec7c69d	0.39018717
15	0xbe206ca3	-0.15666442
16	0x3dc66521	0.096872576
17	0xbe1e836a	-0.15479818
18	0x3e88d2ad	0.26723233
19	0x3e93392e	0.28754562
20	0x3e913326	0.28359336
21	0x3e58c654	0.21169406
22	0x3ecb1d32	0.39670712
23	0xbe2b5878	-0.16732967
24	0x3e587cd9	0.21141376
25	0xbe70c669	-0.23513187
26	0xbbfa422a	-0.007637282
27	0x3e8e86ff	0.2783737
28	0x3e4297ec	0.19003266
29	0x3da0eef3	0.07858076
30	0x3e01637b	0.12635605
31	0xbe322b00	-0.17399216
32	0xbd8effce	-0.069823846
33	0x3ed85eac	0.4225973
34	0xbd9405d8	-0.07227677
35	0x3e9b79c8	0.3036635
36	0x3e7c8158	0.24658716
37	0x3e7e482f	0.24832223
38	0x3e8112c1	0.2520962
39	0xbb9bca3f	-0.004754334
40	0x3b87647e	0.0041318526
41	0x3e93503b	0.28772148
42	0x3e3fdc3f	0.18736361
43	0x3e0a3a7c	0.13498873
44	0x3d9c043b	0.076179944
45	0xbdb99e02	-0.09063341
46	0xbdb1e33e	-0.08685921
47	0x3eb1a5f4	0.34696925
48	0xbbc1d94a	-0.0059157955
49	0x3dfae05d	0.12249825
50	0x3e78e984	0.24307829
51	0xbd07bdf1	-0.033140127
52	0x3e69f832	0.22848585
53	0x3e2d8e6f	0.16948865
54	0x3d75670c	0.059912726
55	0x3e989204	0.297989
56	0x3ebab374	0.36465037
57	0x3e2e8743	0.17043786
58	0x3e8ac212	0.2710119
59	0x3e5ae427	0.21376096
60	0x3d8afe4d	0.06786785
61	0x3eac796c	0.33686388
62	0x3e1e68a2	0.15469602
63	0x3e83a77c	0.25713718
64	0xbe8a13bf	-0.2696819
65	0xbd164b62	-0.036692984
66	0x3d7dbe20	0.061948895
67	0x3e65b7de	0.22433421
68	0xbe229f79	-0.15881146
69	0x3eee234f	0.46511313
70	0xbb3a1e98	-0.0028399583
71	0x3bbb93e8	0.005724419
72	0xbeb58330	-0.3545165
73	0xbc11c876	-0.008897891
74	0xbd54fea3	-0.052000653
75	0x3c2cc0d2	0.010544019
76	0x3d96da17	0.07365816
77	0x3cb275a7	0.021784617
78	0x3f00f81f	0.503786
79	0x3d443005	0.047897357
80	0xbe8538b5	-0.26019827
81	0xbd97d550	-0.07413733
82	0x3dd38fab	0.10330137
83	0x3d81110c	0.063020796
84	0xbe10c11d	-0.14136167
85	0xbe195de2	-0.1497722
86	0x3e31b8f9	0.17355718
87	0xbbeb820a	-0.0071871327
88	0x3e20c788	0.15701115
89	0x3ec46ef6	0.38365906
90	0x3be8e8a7	0.0071078124
91	0x3db342b7	0.08752959
92	0xbe39e624	-0.18154198
93	0xbe4a1619	-0.19734992
94	0xbe1eb95b	-0.15500395
95	0x3d660aa3	0.056162488
96	0xbc7451fc	-0.014912125
97	0x3bd9427f	0.0066302414
98	0x3c3ad271	0.011402712
99	0xbd885ab2	-0.06657924
100	0xbb43bcb3	-0.0029867112
101	0x3eb7d69b	0.35905918
102	0xbe57a351	-0.21058394
103	0xbc864b59	-0.01639335
104	0xb9124566	-0.00013949498
105	0xbe2f7a43	-0.17136483
106	0xbe0dcf5b	-0.13848631
107	0xbeb0970a	-0.34490234
108	0xbe9d6f5c	-0.30749023
109	0x3e7bb46c	0.24580544
110	0xbc803258	-0.015649006
111	0xbd92041a	-0.071296886
112	0xbd5faa65	-0.05460586
113	0xbe875f05	-0.26439682
114	0xbe627fda	-0.22119084
115	0xbd6ecc66	-0.0583004
116	0xbd2325d2	-0.03983099
117	0xbe8352f7	-0.25649235
118	0xbdb1c2ea	-0.08679755
119	0xbd930092	-0.07177843
120	0x3eb666fd	0.3562545
121	0xbd150d84	-0.036389843
122	0x3ebd78ec	0.3700632
123	0xbd4e0832	-0.050300784
124	0x3bd19a33	0.006396556
125	0x3cae3972	0.021267626
126	0xbec50239	-0.38478258
127	0x3d83fc47	0.064446025
128	0x3ed5b9b1	0.41743234
129	0x3a1edc04	0.00060600066
130	0x3e44631b	0.1917843
131	0xbf3b21e3	-0.7309858
132	0x3e83857d	0.2568778
133	0xbf1282ed	-0.57231027
134	0xbe4d0ed9	-0.20025195
135	0x3c9dc961	0.019261064
136	0xbe27ca01	-0.16385652
137	0xbd990924	-0.074724466
138	0x3e48287d	0.19546695
139	0x3db10fc1	0.08645583
140	0xbe87f069	-0.26550606
141	0xbc47fe38	-0.012206607
142	0xbf17b78b	-0.5926444
143	0x3d4a9e2d	0.049467254
144	0xbe399088	-0.1812154
145	0x3ed0a80b	0.40753207
146	0x3d83d6df	0.06437468
147	0x3e5d0256	0.21582922
148	0x3e9cc026	0.30615348
149	0xbcaf9171	-0.021431657
150	0x3da80d98	0.08205718
151	0x3e03fdf9	0.12889852
152	0xbec85391	-0.39126256
153	0xbd11a266	-0.035555266
154	0xbbada121	-0.005298749
155	0xbda0fd02	-0.078607574
156	0x3e6a0ed9	0.22857226
157	0xbe3e7649	-0.1859981
158	0xbe40a3b4	-0.18812448
159	0x3e4bf29a	0.19916764
160	0x3c5427da	0.0129489545
161	0x3e797f23	0.24364905
162	0xbdfaece9	-0.12252218
163	0x3eb08c46	0.3448202
164	0x3d466a4a	0.04844121
165	0xbf38d67e	-0.7220229
166	0x3e5ca752	0.21548203
167	0xbe4b8a4c	-0.19876975
168	0xb91b3761	-0.00014802582
169	0x3dad116a	0.08450587
170	0x3daba309	0.08380706
171	0xbdf2bae1	-0.118520506
172	0xbe5e7ea9	-0.21728005
173	0xbe6d87c9	-0.23196329
174	0xbde9f848	-0.11424309
175	0x3e5e9652	0.2173703
176	0xbdf2b940	-0.1185174
177	0xbe0e8676	-0.1391848
178	0x3e51d5f1	0.20491768
179	0xbe46682b	-0.19375674
180	0xbd0b70e1	-0.034043197
181	0xbe559c69	-0.20860447
182	0x3d8ba8a1	0.06819273
183	0x3e7a2933	0.24429779
184	0x3d84c940	0.06483698
185	0xbddc6fd6	-0.107635185
186	0xbe686ae5	-0.22697027
187	0x3c9c2048	0.019058362
188	0xbb9ef2c1	-0.004850716
189	0x3dba4805	0.09095768
190	0xbdf0da33	-0.11760368
191	0x3e56ba86	0.2096959
192	0xbeb7c238	-0.35890365
193	0xbf00255c	-0.50057006
194	0xbef9cab2	-0.48787457
195	0xbda079c3	-0.07835724
196	0xbf1ae161	-0.6050015
197	0xbeaeee48	-0.3416617
198	0x3e396c9f	0.18107842
199	0x3dd127b0	0.10212648
200	0x3e86bfbb	0.26318154
201	0xb7ac2ff9	-2.0526337e-05
202	0xbf2cdf6e	-0.67528427
203	0xbee0c1f9	-0.4389799
204	0xbecbf25a	-0.39833337
205	0x3cb180d0	0.021667868
206	0xbeda43bb	-0.426298
207	0x3e573d4a	0.21019474
208	0x3e7ec31f	0.2487912
209	0xbbfd2136	-0.0077249063
210	0xbf585f5b	-0.845205
211	0xbf44fff0	-0.7695303
212	0xbf0226cc	-0.5084045
213	0xbe3519bb	-0.17685597
214	0xbec5b564	-0.38614953
215	0x3d0d6a41	0.03452516
216	0xbdc3b744	-0.095564395
217	0x3c8d3944	0.01723922
218	0xbd0ad851	-0.0338977
219	0xbe9a2bdd	-0.3011159
220	0xbebfeb70	-0.37484312
221	0x3e38d643	0.18050484
222	0xbe86c728	-0.2632382
223	0xbc049e1b	-0.008094336
224	0x3c613fc3	0.013748112
225	0xbf083655	-0.53207904
226	0x3c975d2f	0.01847705
227	0xbf2e4b2a	-0.6808344
228	0xbf00ed02	-0.50361645
229	0xbee16169	-0.4401963
230	0xbe72cca2	-0.23710874
231	0x3e2c9602	0.16854098
232	0xb6fe550b	-7.57969e-06
233	0xbe4626ec	-0.19350785
234	0xbedae22c	-0.4275068
235	0x3e8d1d6b	0.27561507
236	0x3e7b033f	0.24512957
237	0x3e0489c5	0.1294318
238	0xbda3e64d	-0.08002911
239	0xbe22cb42	-0.15897849
240	0xbd3dba1b	-0.046320062
241	0x3ea7a663	0.3274413
242	0xbe5315b0	-0.20613742
243	0x3e56e9f7	0.20987688
244	0xbed3cd99	-0.41367796
245	0x3eb4637f	0.3523216
246	0xbee6c2e3	-0.45070562
247	0xbedb6b82	-0.4285546
248	0xbf01a2b6	-0.506389
249	0xbf04827f	-0.5176162
250	0xbf1ad96c	-0.6048801
251	0xbed39c6d	-0.4133028
252	0x3cb30193	0.021851337
253	0xbe97bcd6	-0.29636258
254	0x3e88698f	0.26643035
255	0xbefaeb44	-0.49007618
