gcn_model.pth (torch, 147990 bytes, 22 tensors)

lin_in.weight f4 [64, 3]
-0.05088911 0.101664454 0.5456293 0.07778469 -0.0076999227 0.1976034 -0.008784843 -0.7260158
-0.032954935 -0.6033071 0.4612888 0.032358993 -0.14450952 0.28910652 0.22175103 -0.014209776
0.0048833066 -0.023125872 0.1191277 0.08164827 0.49017173 0.016731141 -0.04187606 -0.05060439
-0.76132816 -0.02166574 -0.006393465 -0.97863716 0.15015198 0.04937807 -0.21018781 0.082006626
0.12589894 -0.018867997 0.03435036 -0.00068309746 -0.047134433 0.072510034 0.2300364 0.12801614
-0.6357255 -0.00089656515 -0.9308256 -0.021988964 -0.009331288 -0.42485002 -0.098560005 -0.141305
0.054957815 -0.8484328 0.09023022 4.9437616e-18 1.9634854e-23 2.816056e-08 0.16557314 0.15832493
0.023793912 -0.17769378 -0.40275598 -0.044330772 -0.021791033 -0.007041013 0.3394321 -0.014367782
-0.010583893 0.0044148206 0.6319553 0.1494332 0.03415077 -0.8301575 -0.043501094 0.26411057
0.19284306 0.020500846 0.14609595 0.06864627 0.025215082 -0.051333856 -0.33950627 0.13577662
-0.0663231 0.10801119 -0.18474804 0.14701071 -0.6389068 -0.009283419 0.00055046065 0.0015063628
-0.8452418 -0.09822111 0.31513897 -0.98856384 0.055857763 -0.9514442 0.6261581 -0.012893972
-0.32881576 0.06568871 0.38232777 -0.05184089 0.0073244004 -0.016579358 0.014251529 0.024660742
0.01164266 -0.17457397 -0.15911016 -0.01710057 -0.06528647 -0.03894154 -0.15967028 -0.39420345
-0.074292876 -0.34781972 0.04734636 -0.90999323 0.030084545 -0.074780345 0.006481982 -0.07387508
-0.47980437 -1.0158223 -0.13146806 -0.8442053 0.17124875 -0.3360081 0.28255418 0.27508688
-0.30922928 -0.0040217275 0.15325263 -0.060664475 -0.1546859 -1.3276412 0.016595177 0.36060423
0.29243064 0.18784022 -0.23487881 -0.23444688 -0.030785656 -0.017042158 -0.005870372 0.017731007
0.30290344 -0.065160155 0.18693471 0.02200836 -0.12679711 -0.34417114 -0.7239251 -0.16424347
-0.24007693 0.4619818 -0.6998029 0.008303615 -0.076911524 0.40626 0.56435704 0.1549533
0.5426525 -0.12098903 -0.05280363 0.0016862855 0.028418515 -0.7511529 -0.020361854 0.009698358
-0.057635948 0.08643982 0.25084177 0.1575756 -1.4807327 0.013929642 -0.40754792 -0.0112556955
-0.213971 -0.29028565 -0.30601573 0.14191696 0.22050162 0.115899526 -0.22744974 -0.2989685
-0.03349675 -0.16621597 0.15351829 -0.21868698 -0.15023898 0.32176656 0.1219978 -0.072336815
00000000: 1971 50bd 7435 d03d 5dae 0b3f 944d 9f3d
00000010: a24f fcbb 8c58 4a3e 4dee 0fbc 2cdc 39bf
00000020: c1fb 06bd 5672 1abf 0c2e ec3e dd8a 043d
00000030: 4efa 13be c505 943e b412 633e 1fd0 68bc
00000040: 2504 a03b 7872 bdbc 39f9 f33d 3537 a73d
00000050: caf7 fa3e bf0f 893c 3b86 2bbd 8d46 4fbd
00000060: 67e6 42bf 5a7c b1bc 4680 d1bb f787 7abf
00000070: 71c1 193e a940 4a3d 793b 57be 17f3 a73d
00000080: a7eb 003e 0f91 9abc f7b2 0c3d e511 33ba
00000090: 0910 41bd 2480 943d a98e 6b3e aa16 033e
000000a0: e8be 22bf 7807 6bba 964a 6ebf 3322 b4bc
000000b0: 42e2 18bc f185 d9be d4d9 c9bd 42b2 10be
000000c0: 721b 613d e432 59bf 9fca b83d 8264 b622
000000d0: 8be5 bd19 bae5 f132 018c 293e ee1f 223e
000000e0: 73eb c23c 5cf5 35be 0836 cebe 2f94 35bd
000000f0: 1c83 b2bc 4cb8 e6bb 0bca ad3e d866 6bbc
00000100: 1168 2dbc 33aa 903b d3c7 213f 0405 193e
00000110: aee1 0b3d 3485 54bf 342e 32bd 8039 873e
00000120: a778 453e 64f1 a73c 2d9a 153e 6a96 8c3d
00000130: dc8f ce3c 7343 52bd c4d3 adbe 0709 0b3e
00000140: 68d4 87bd f934 dd3d 972e 3dbe fa89 163e
00000150: 658f 23bf 7b19 18bc ca4c 103a 2671 c53a
00000160: c461 58bf 2628 c9bd e559 a13e 8512 7dbf
00000170: 1ccb 643d d991 73bf e64b 203f 3d41 53bc
00000180: 8a5a a8be cd87 863d 77c0 c33e 1d57 54bd
00000190: 8601 f03b 6fd1 87bc 3f7f 693c 5305 ca3c
000001a0: dbc0 3e3c 85c3 32be c6ed 22be 7f16 8cbc
000001b0: eab4 85bd 2a81 1fbd 9b80 23be 09d5 c9be
000001c0: dd26 98bd 6d15 b2be 42ee 413d 51f5 68bf
000001d0: dd73 f63c 7026 99bd ce66 d43b d14b 97bd
000001e0: eba8 f5be 7706 82bf 909f 06be d71d 58bf
000001f0: d55b 2f3e 4109 acbe f1aa 903e 30d8 8c3e
00000200: 4d53 9ebe b2c8 83bb 42ee 1c3e 507b 78bd
00000210: fb65 1ebe 26f0 a9bf 9cf2 873c 1ea1 b83e
00000220: 78b9 953e 3059 403e 1284 70be d812 70be
00000230: 3332 fcbc ff9b 8bbc 405c c0bb 9e40 913c
00000240: 2916 9b3e b072 85bd d06b 3f3e e04a b43c
00000250: 1ad7 01be 3337 b0be 2853 39bf 712f 28be
00000260: bad6 75be e188 ec3e 4826 33bf e30b 083c
00000270: ca83 9dbd 5001 d03e b479 103f 14ac 1e3e
00000280: 46eb 0a3f 19c9 f7bd 9e48 58bd 5a06 dd3a
00000290: f2cd e83c 8e4b 40bf e7cd a6bc dde5 1e3c
000002a0: ac13 6cbd 5c07 b13d 556e 803e 805b 213e
000002b0: a688 bdbf 2739 643c 1faa d0be cf69 38bc
000002c0: 371b 5bbe 52a0 94be 18ae 9cbe ae52 113e
000002d0: 2dcb 613e bb5c ed3d 96e8 68be 6612 99be
000002e0: e333 09bd 8534 2abe e633 1d3e 7bef 5fbe
000002f0: 3fd8 19be 96be a43e fcd9 f93d 5325 94bd

lin_in.bias f4 [64]
-0.43453583 0.35184154 0.4882653 -0.53357214 -0.04474774 -0.20374264 -0.2003517 -0.21817893
-0.2944859 0.06200673 0.12370476 -0.041179445 0.023703864 0.5381633 -0.35594016 -0.5169644
-0.15397877 -8.713981e-08 -0.08880866 0.25310194 -0.096396156 0.668971 -0.7581305 -0.43944162
-0.060865697 -0.21222429 0.37066522 -0.093656644 0.159958 0.5868432 -0.23191407 -0.3456462
-0.17201135 -0.20971727 2.0215209 -0.13662963 -0.12377002 -0.31029817 -0.11637991 -0.32145768
-0.07876539 -0.16976294 -0.8684983 -0.46422285 -0.25039288 0.03216439 0.2353382 -0.07379433
-0.8180775 -0.5912727 0.47571352 0.09785932 -0.30506054 0.1551949 -0.07487253 0.1822982
0.004970868 -0.2677962 0.3018203 -0.3133039 -0.7214082 -0.2265646 -0.09659467 -0.44773054
00000000: 7b7b debe 9324 b43e e9fd f93e 2f98 08bf
00000010: 6849 37bd e9a1 50be ff28 4dbe 4c6a 5fbe
00000020: dbc6 96be c5fa 7d3d ec58 fd3d c7ab 28bd
00000030: 9b2e c23c 12c5 093f ca3d b6be c757 04bf
00000040: 9cac 1dbe 9e21 bbb3 51e1 b5bd 9496 813e
00000050: 596b c5bd af41 2b3f d714 42bf 7efe e0be
00000060: 4f4e 79bd 5351 59be d5c7 bd3e 0ecf bfbd
00000070: 08cc 233e 5b3b 163f e27a 6dbe 8af8 b0be
00000080: be23 30be 20c0 56be 9960 0140 a3e8 0bbe
00000090: 237b fdbd 67df 9ebe 9758 eebd 1a96 a4be
000000a0: c04f a1bd 56d6 2dbe e855 5ebf 9eae edbe
000000b0: 7f33 80be cfbe 033d 7ffc 703e 7b21 97bd
000000c0: 876d 51bf a65d 17bf b990 f33e 786a c83d
000000d0: e530 9cbe 69eb 1e3e c556 99bd 61ac 3a3e
000000e0: aae2 a23b 951c 89be 3188 9a3e 5e69 a0be
000000f0: 35ae 38bf 8d00 68be 6dd3 c5bd f03c e5be

conv1.bias f4 [128]
5.6455578e-05 0.00010873925 -6.714079e-05 4.6640744e-05 -5.08217e-05 -4.5664565e-06 -9.857311e-06 -4.2071115e-05
0.0002918499 -7.087736e-06 9.379054e-05 -0.0001219175 -7.3402916e-05 0.00016931235 -1.9486906e-05 0.0002675728
5.866883e-06 4.6068708e-05 0.00012543131 -3.313698e-05 -0.000105053245 -6.038134e-05 4.6226804e-05 -7.0359383e-06
-7.1752474e-05 8.411613e-06 0.00017435315 6.723785e-05 0.00013305337 0.0001307455 0.00013265676 7.238956e-05
-0.00010728497 -3.837142e-05 -3.4736513e-07 0.0003194569 -7.273467e-05 -0.00010335569 -4.010875e-05 -4.9450762e-05
6.3817046e-05 9.178257e-08 -8.175765e-06 -0.00027989395 -2.178007e-06 -2.333972e-05 7.660439e-05 1.7367249e-05
4.3418673e-05 -1.6762497e-05 0.00018749142 6.395339e-05 -3.2643657e-06 -0.00025720068 3.1239644e-05 2.6454025e-05
6.3688785e-05 -6.198765e-05 2.240371e-05 -6.153919e-05 -0.00018006295 6.6253866e-05 4.7045254e-05 -6.0005885e-05
-5.228084e-05 2.1616552e-05 -0.00019490541 1.6991227e-05 -6.337302e-05 -6.4175016e-05 -6.014381e-06 -0.00012406889
9.9221565e-05 -3.9768995e-05 1.0152216e-06 1.9304449e-05 8.978377e-05 0.0002188024 2.2566994e-05 -6.024941e-05
-1.4905163e-05 -0.0001486915 9.9259516e-05 9.537795e-05 -0.00017943041 5.179589e-05 3.4284625e-05 -1.4657571e-05
-0.00022827528 -7.2439856e-05 0.0001053454 8.149508e-05 -0.00017455351 1.5818947e-05 -3.2461357e-05 -8.876603e-05
4.2774145e-06 0.0001237135 -6.781731e-05 7.245558e-05 -0.00031912397 -6.299649e-05 6.297213e-05 -0.00019127567
3.9554696e-05 2.6236105e-05 -0.00025258056 -5.78451e-06 -0.0001805251 -9.5401825e-05 -4.6325695e-05 -0.00022139486
-2.1556234e-05 4.7897483e-05 5.5884215e-05 1.4248917e-05 0.00015243716 0.000104484025 0.00019917455 0.0001470462
-3.579994e-05 -0.0001163774 -7.256865e-05 2.3774846e-06 -3.768976e-05 3.5436307e-05 -0.00014967298 -4.6830333e-05
00000000: b7ca 6c38 f10a e438 f0cd 8cb8 1ea0 4338
00000010: 6329 55b8 9039 99b6 d460 25b7 8475 30b8
00000020: 6e03 9939 30d3 edb6 6ab1 c438 f6ad ffb8
00000030: e4ef 99b8 7089 3139 d077 a3b7 0349 8c39
00000040: 24dc c436 e639 4138 3686 0339 90fc 0ab8
00000050: 0850 dcb8 f841 7db8 a7e3 4138 4016 ecb6
00000060: d179 96b8 9a1f 0d37 91d2 3639 0c02 8d38
00000070: 3e84 0b39 ba18 0939 c719 0b39 d9cf 9738
00000080: 2efe e0b8 00f1 20b8 807d bab4 c87c a739
00000090: 2189 98b8 aac0 d8b8 713a 28b8 5a69 4fb8
000000a0: 84d5 8538 001a c533 a52a 09b7 bbbe 92b9
000000b0: e029 12b6 abc9 c3b7 aba6 a038 e2af 9137
000000c0: 721c 3638 309d 8cb7 5899 4439 b71e 8638
000000d0: 6011 5bb6 e4d8 86b9 5007 0338 96e9 dd37
000000e0: a890 8538 5eff 81b8 9aef bb37 9a0e 81b8
000000f0: 48cf 3cb9 c6f1 8a38 7552 4538 d4ae 7bb8
00000100: 2048 5bb8 3155 b537 865f 4cb9 6288 8e37
00000110: 22e7 84b8 b395 86b8 24cf c9b6 7d18 02b9
00000120: 2c15 d038 a2cd 26b8 c042 8835 fdef a137
00000130: 4b4a bc38 526e 6539 404e bd37 50b4 7cb8
00000140: 3011 7ab7 12ea 1bb9 8c29 d038 a605 c838
00000150: 7c25 3cb9 6a3f 5938 d6cc 0f38 cae9 75b7
00000160: 2e5d 6fb9 daea 97b8 e2ec dc38 57e8 aa38
00000170: 5a08 37b9 eeb2 8437 1e27 08b8 e627 bab8
00000180: b686 8f36 17b9 0139 2439 8eb8 4bf3 9738
00000190: 1850 a7b9 fc1c 84b8 e80f 8438 2c91 48b9
000001a0: 88e7 2538 9b15 dc37 ca6c 84b9 9018 c2b6
000001b0: 564b 3db9 7712 c8b8 d64d 42b8 3b26 68b9
000001c0: a9d3 b4b7 88e5 4838 3865 6a38 a20e 6f37
000001d0: 8ad7 1f39 6f1e db38 83d9 5039 6a30 1a39
000001e0: e527 16b8 a40f f4b8 ff2f 98b8 e08c 1f36
000001f0: 1215 1eb8 72a1 1438 89f1 1cb9 b06b 44b8

conv1.lin.weight f4 [128, 64]
-0.10380962 -0.1027731 0.029034726 -0.035024304 0.047105428 -0.008848725 -0.08903982 0.0052551534
-0.28800112 -0.21733442 0.0020189916 0.02419801 -0.13238676 0.025547205 -0.37369028 0.016457712
-0.04432759 -1.3689468e-35 -0.0023716865 -0.0023105387 -0.16252945 -0.003031878 -0.33633485 -0.030039666
0.011503122 -0.060244367 -0.047434464 -0.10997947 0.081851296 -0.026968978 -0.22240248 -0.049837966
0.011255532 -4.6823433e-07 0.018190715 -0.012042512 -0.0023649228 0.12292728 -0.058402594 0.020927113
-0.035762392 0.095389515 -0.01649256 -0.02027972 0.07927825 -0.11956557 -0.07548526 3.7904716e-15
-0.070385285 0.021925736 -0.17993523 -0.12355701 -0.10943377 0.13453813 0.021432774 0.14386812
-0.09633938 -0.10908093 -0.09203195 0.0008077075 -0.08034839 0.15627223 0.02140944 -0.17708722
0.06259709 -0.00325381 -0.20723028 -0.13199343 0.010111329 -0.038897697 -0.08725208 0.08999049
0.13896711 0.25387022 0.046034828 0.12381916 -0.03338033 -0.17697336 0.20194519 -0.06744776
0.03398322 8.433359e-36 -0.05142969 -0.11033732 0.017217042 0.027132496 -0.028622577 0.120326675
0.104878806 -0.05592493 -0.019100722 0.008921811 -0.049657516 -0.18381588 -0.11139418 0.21064068
0.03025568 -0.009794771 -0.101349995 -0.009213994 0.101883024 0.07896121 0.056106158 -0.06081347
0.05929932 0.031295184 -0.09732815 -0.096754156 0.11722869 -0.18313904 -0.10436887 -0.0002932002
0.10524787 0.020699872 0.26337308 -0.03748853 -0.06700375 0.16532235 0.023279365 -0.06223106
-0.042016353 0.19271499 0.17740105 0.0025456783 -0.025809966 0.10061479 -0.058521487 -0.093905784
0.044801272 0.013744211 0.013222163 -0.017791148 0.0597327 -0.046411324 0.03162145 -0.03333933
-0.013784761 0.13290577 0.07820708 -0.0051392103 0.08429683 -0.038042136 -0.013790095 -0.0029598663
0.03983242 6.9706614e-36 -0.032411676 0.04470044 0.065692656 -0.023767123 -0.1525579 0.107297584
0.024832001 -0.004748899 -0.029415319 -0.03569267 0.052100476 -0.09298866 -0.043369245 0.07794903
0.14159903 -2.2644062e-06 -0.038982898 0.00089264015 -0.024611603 -0.05334302 0.019763976 -0.015808426
-0.00024180481 -0.06406568 -0.037720744 0.0344258 0.024082528 -0.08425528 0.037240796 3.2900092e-15
-0.05561402 -0.05055128 0.022127006 -0.030118462 0.046781164 0.024323834 0.005847783 0.10449329
0.10410769 0.045739353 -0.049183063 0.036905523 -0.08357361 -0.045296878 -0.12157307 -0.041882187
0.036154363 0.017753096 -0.0932836 -0.09270821 0.081066 -0.0076191635 0.11737572 -0.026330398
0.06730384 -0.030552553 0.078172244 -0.004413923 0.03199527 -0.09957725 0.08583991 -0.040944763
0.019596258 -2.4006416e-36 -0.020253371 -0.077366814 0.08360836 -0.004881275 -0.09819861 0.114381745
0.030223154 0.0210715 -0.12870614 -0.014930283 0.07971938 -0.17172515 0.01870812 -0.017849144
0.090826154 -6.6429743e-07 -0.068759665 -0.0033136508 -0.05597794 -0.09967623 0.010952317 -0.03612003
-0.032641757 -0.15217702 -0.04907376 0.000596617 0.044123035 0.03827075 -0.04925725 2.119387e-24
-0.08305241 -0.082542874 -0.12569961 -0.11733097 0.14114407 0.05813782 0.004160152 0.09055794
0.061631516 -0.05516929 -0.15187787 0.049813382 -0.03839257 -0.036911674 -0.0901718 -0.06747689
00000000: 239a d4bd b47a d2bd 3cda ed3c a575 0fbd
00000010: 9ff1 403d 3efa 10bc 825a b6bd 6c33 ac3b
00000020: e274 93be ea8c 5ebe 0f51 043b e83a c63c
00000030: 6590 07be 5f48 d13c 5554 bfbe 53d2 863c
00000040: d990 35bd 4792 9185 4c6e 1bbb 686c 17bb
00000050: 1f6e 26be 79b2 46bb 1534 acbe bf15 f6bc
00000060: 9777 3c3c ccc2 76bd a44a 42bd eb3c e1bd
00000070: a7a1 a73d 0cee dcbc 7abd 63be e522 4cbd
00000080: 1f69 383c a361 fbb4 b204 953c f54d 45bc
00000090: d2fc 1abb 4cc1 fb3d 8f37 6fbd 566f ab3c
000000a0: 967b 12bd 945b c33d 681b 87bc a821 a6bc
000000b0: a35c a23d cbde f4bd 0498 9abd ee90 8827
000000c0: 2926 90bd 9a9d b33c f140 38be 750b fdbd
000000d0: d01e e0bd 5dc4 093e c993 af3c 2a52 133e
000000e0: 954d c5bd d365 dfbd 3f7b bcbd 55bc 533a
000000f0: b28d a4bd d405 203e da62 af3c 5a56 35be
00000100: e732 803d e03d 55bb 2d34 54be 4929 07be
00000110: fda9 253c 3153 1fbd 38b1 b2bd ef4c b83d
00000120: 654d 0e3e 47fb 813e 048f 3c3d e694 fd3d
00000130: d0b9 08bd 8138 35be b8ca 4e3e 0d22 8abd
00000140: fd31 0b3d 935b 3305 f0a7 52bd 88f8 e1bd
00000150: c10a 8d3c f844 de3c e579 eabc d56d f63d
00000160: b3ca d63d 8a11 65bd 1e79 9cbc ca2c 123c
00000170: ae65 4bbd 3b3a 3cbe a222 e4bd 31b2 573e
00000180: c3da f73c 3f7a 20bc 9690 cfbd 4bf6 16bc
00000190: 0ca8 d03d 6ab6 a13d 92cf 653d 8c17 79bd
000001a0: d8e3 723d 612f 003d fb53 c7bd 0b27 c6bd
000001b0: 9815 f03d cd88 3bbe 59bf d5bd aab8 99b9
000001c0: 328c d73d c792 a93c d6d8 863e 938d 19bd
000001d0: 4339 89bd 434a 293e 5eb4 be3c ffe5 7ebd
000001e0: 5719 2cbd 1457 453e 9fa8 353e 65d5 263b
000001f0: 6c6f d3bc 210f ce3d 3ab4 6fbd ad51 c0bd
00000200: 8a81 373d 662f 613c c5a1 583c bebe 91bc
00000210: 47aa 743d cd19 3ebd 7e85 013d d28e 08bd
00000220: 7ad9 61bc 7318 083e 092b a03d d266 a8bb
00000230: d1a3 ac3d 12d2 1bbd daef 61bc 51fa 41bb
00000240: 5227 233d e43f 1405 1bc2 04bd cf17 373d
00000250: df89 863d 45b3 c2bc 2338 1cbe d6be db3d
00000260: 7b6c cb3c a79c 9bbb 65f8 f0bc 7a32 12bd
00000270: 4f67 553d d770 bebd f3a3 31bd bea3 9f3d
00000280: 56ff 103e 34f6 17b6 88ac 1fbd 1100 6a3a
00000290: 469e c9bc 367e 5abd 10e8 a13c ac80 81bc
000002a0: fc8c 7db9 de34 83bd 1181 1abd 1102 0d3d
000002b0: b948 c53c 088e acbd ce89 183d f511 6d27
000002c0: 87cb 63bd dc0e 4fbd b243 b53c feba f6bc
000002d0: 9b9d 3f3d c742 c73c c29e bf3b 9400 d63d
000002e0: 6a36 d53d 3059 3b3d 2e74 49bd 3f2a 173d
000002f0: a428 abbd 3889 39bd 4dfb f8bd a88c 2bbd
00000300: 9916 143d f16e 913c 790b bfbd cddd bdbd
00000310: ee05 a63d 2daa f9bb ae62 f03d d9b2 d7bc
00000320: 98d6 893d 5949 fabc c518 a03d aba2 90bb
00000330: 790d 033d 28ef cbbd d6cc af3d b2b5 27bd
00000340: 5588 a03c 5839 4c84 66ea a5bc 7e72 9ebd
00000350: dc3a ab3d 1af3 9fbb 5a1c c9bd fa40 ea3d
00000360: 8c96 f73c 239e ac3c 8bcb 03be 259e 74bc
00000370: ea43 a33d b8d8 2fbe c541 993c 5e38 92bc
00000380: 1003 ba3d 2c52 32b5 ded1 8cbd d629 59bb
00000390: 2049 65bd 0d23 ccbd 5971 333c 99f2 13bd
000003a0: 5db3 05bd 4bd4 1bbe 9101 49bd 4a66 1c3a
000003b0: 5bba 343d cac1 1c3d f8c1 49bd c9fa 2318
000003c0: 6217 aabd 3d0c a9bd 66b7 00be 384b f0bd
000003d0: 1288 103e ec21 6e3d e251 883b 7176 b93d
000003e0: 5471 7c3d 32f9 61bd df85 1bbe 1e09 4c3d
000003f0: 8741 1dbd b230 17bd feab b8bd 5331 8abd

bn1.module.weight f4 [128]
0.34615648 0.36943793 0.28638756 0.26734573 0.34368777 0.51473635 0.7103165 0.4718803
0.7201961 0.38226542 0.82184815 0.5208773 0.5424038 0.44037938 1.0216503 0.6860275
0.5290638 0.3549078 0.49418855 0.44636804 0.31068885 0.5846097 0.30996335 0.40132433
0.3619094 0.10897916 0.6378617 0.5686703 0.39166343 0.69089663 0.7439569 0.33557132
0.5780499 0.49802127 0.1932986 0.6092696 0.17936921 0.3422421 0.7805244 0.3554223
0.82930183 0.43080944 0.37358597 0.51808745 0.4707154 0.3735806 0.19973083 0.5082674
0.7161484 0.6583091 0.5730456 0.4943933 0.48570317 0.9022183 0.49719694 0.3453136
0.7384135 0.38065806 0.726631 0.58258337 1.0329703 0.6150072 0.42391416 0.43536848
0.2741221 0.5112458 0.5191587 0.33819342 0.5133812 0.3028776 0.43516386 0.3890997
0.3077972 0.19679166 0.4214963 0.14962882 0.5905535 0.44277903 0.5049195 0.29622018
1.0867349 0.5721684 0.98292345 0.68927693 0.62566006 0.315454 0.18102704 0.40813276
0.72254276 0.27368337 0.6109894 0.376451 0.6962201 0.47780785 0.4332001 0.38642302
0.15560843 0.7039775 0.58260745 0.43367612 0.69708306 0.40269622 0.4334739 0.629363
0.61916894 0.57222974 0.49786642 0.3447731 0.6329426 0.3598056 0.3443158 0.6260224
0.26483655 0.5930846 0.5728189 0.27251995 0.29730722 0.64675105 0.5681265 0.46803045
0.49568722 0.81972355 0.5509828 0.28681043 0.47024778 0.38262138 0.65479416 0.4457909
00000000: 6c3b b13e f826 bd3e 64a1 923e 8ae1 883e
00000010: d8f7 af3e c3c5 033f 4dd7 353f 4b9a f13e
00000020: c65e 383f 4bb8 c33e a464 523f 3758 053f
00000030: fada 0a3f 6879 e13e 70c5 823f 809f 2f3f
00000040: ba70 073f 7ab6 b53e 4806 fd3e 5a8a e43e
00000050: 9c12 9f3e fba8 153f 84b3 9e3e 627a cd3e
00000060: 304c b93e 7730 df3d e84a 233f 6094 113f
00000070: 1c88 c83e 9ade 303f f673 3e3f 01d0 ab3e
00000080: 14fb 133f a5fc fe3e 11f0 453e 18f9 1b3f
00000090: 90ac 373e 5b3a af3e 72d0 473f e9f9 b53e
000000a0: 204d 543f 0e93 dc3e a946 bf3e 61a1 043f
000000b0: 9c01 f13e f545 bf3e 3d86 4c3e d01d 023f
000000c0: 8055 373f f286 283f 1eb3 123f 1e21 fd3e
000000d0: 16ae f83e c7f7 663f 9990 fe3e f2cc b03e
000000e0: ab08 3d3f 9de5 c23e 7d04 3a3f 2f24 153f
000000f0: 5f38 843f 1d71 1d3f 470b d93e 9ee8 de3e
00000100: bb59 8c3e 01e1 023f 96e7 043f b027 ad3e
00000110: f36c 033f c612 9b3e cccd de3e 1338 c73e
00000120: 9897 9d3e c183 493e 5dce d73e 4c38 193e
00000130: 842e 173f efb3 e23e 6842 013f 2caa 973e
00000140: 211a 8b3f a179 123f dfa0 7b3f 7474 303f
00000150: 422b 203f 3083 a13e 275f 393e c7f6 d03e
00000160: 90f8 383f 3a20 8c3e cd69 1c3f 2fbe c03e
00000170: 7b3b 323f 3ba3 f43e 67cc dd3e 3dd9 c53e
00000180: d157 1f3e df37 343f c325 153f cc0a de3e
00000190: 0974 323f 332e ce3e 4bf0 dd3e ef1d 213f
000001a0: db81 1e3f a67d 123f 59e8 fe3e 1a86 b03e
000001b0: 8708 223f 7138 b83e 294a b03e 0143 203f
000001c0: a898 873e 64d4 173f 42a4 123f bc87 8b3e
000001d0: a738 983e 7a91 253f bd70 113f b0a1 ef3e
000001e0: b7ca fd3e 67d9 513f 350d 0d3f d1d8 923e
000001f0: 51c4 f03e f3e6 c33e 97a0 273f b43e e43e

bn1.module.bias f4 [128]
-0.049240265 -0.2603503 -0.080101445 -0.18354398 -0.1447867 -0.010987998 -0.15959127 -0.08686347
-0.33761105 -0.060081027 -0.024594778 -0.24100585 -0.16319181 -0.1499918 -0.10452838 -0.202438
-0.2534409 -0.2066225 -0.27789757 -0.121877305 -0.06858272 -0.15851754 -0.123038195 -0.24238606
-0.1242552 -0.12391164 -0.07566261 -0.15732889 -0.09117014 -0.20720643 0.023453537 -0.09154023
-0.30398175 -0.34692475 -0.041532055 -0.034053527 -0.13185315 -0.17049004 -0.12941271 -0.03139818
-0.16396454 0.004216669 -0.00086841406 -0.026893446 -0.16705525 -0.07915471 0.01454253 0.052951828
-0.015219058 -0.39222753 -0.20117795 -0.13274722 -0.044432975 -0.15465927 -0.08364604 0.051467877
-0.21963939 -0.16964808 -0.046022255 -0.05915402 -0.22878474 -0.15092711 -0.22040525 -0.09695987
-0.060775533 -0.111904755 -0.052888215 -0.009957103 -0.1734922 -0.015654983 -0.045909937 -0.13761875
-0.0696254 -0.020772424 -0.13860513 -0.10184924 0.018063288 -0.21835311 -0.31290787 -0.13627121
-0.11903893 -0.07382325 -0.4253737 -0.1658954 -0.15697521 -0.102999575 -0.023704976 -0.057977617
-0.04654756 -0.067220226 -0.098218836 -0.21834712 -0.12808329 -0.012850274 -0.39251265 -0.046485867
-0.0048870957 -0.17178354 -0.05769015 0.045591913 -0.30487624 -0.10760298 -0.014464197 -0.12702505
-0.20079294 -0.14833957 -0.071977176 -0.024047963 -0.11776576 -0.094620734 -0.13310614 -0.12017835
0.03281131 -0.0616053 -0.30336848 -0.11947189 -0.06381307 -0.088670984 0.028978696 -0.11657268
0.036449358 -0.12103957 -0.04175295 0.0061748032 -0.21616781 -0.09095688 -0.20482045 0.063177176
00000000: 29b0 49bd a24c 85be 3a0c a4bd f4f2 3bbe
00000010: f742 14be 0107 34bc e56b 23be 7ae5 b1bd
00000020: 5bdb acbe 8617 76bd fd7a c9bc 3dca 76be
00000030: c11b 27be 7397 19be fa12 d6bd e84b 4fbe
00000040: 01c3 81be d994 53be 9748 8ebe cf9a f9bd
00000050: 1975 8cbd 6c52 22be 73fb fbbd 0d34 78be
00000060: 8379 febd 63c5 fdbd 00f5 9abd d31a 21be
00000070: 69b7 babd ec2d 54be a221 c03c 7279 bbbd
00000080: 7fa3 9bbe 1fa0 b1be 841d 2abd b67b 0bbd
00000090: 8304 07be f194 2ebe c484 04be 619b 00bd
000000a0: 52e6 27be fc2b 8a3b 48a6 63ba a54f dcbc
000000b0: 8810 2bbe dd1b a2bd cb43 6e3c 04e4 583d
000000c0: 5b59 79bc 0cd2 c8be 9801 4ebe e3ee 07be
000000d0: 5aff 35bd 005f 1ebe 9d4e abbd fbcf 523d
000000e0: 26e9 60be 3ab8 2dbe d581 3cbd 7c4b 72bd
000000f0: 8c46 6abe a38c 1abe eab1 61be e592 c6bd
00000100: c4ef 78bd 522e e5bd 50a1 58bd 1e23 23bc
00000110: f0a7 31be e13e 80bc 0f0c 3cbd eeeb 0cbe
00000120: c397 8ebd ee2a aabc 81ee 0dbe 5696 d0bd
00000130: 76f9 933c f597 5fbe 7635 a0be ae8a 0bbe
00000140: afca f3bd a530 97bd 95ca d9be 7ce0 29be
00000150: 1cbe 20be 71f1 d2bd f030 c2bc f079 6dbd
00000160: a7a8 3ebd c2aa 89bd f526 c9bd 6396 5fbe
00000170: 4428 03be f589 52bc 6bf7 c8be f767 3ebd
00000180: ee23 a0bb 06e8 2fbe 824c 6cbd 96be 3a3d
00000190: bd18 9cbe f45e dcbd 3dfb 6cbc db12 02be
000001a0: aa9c 4dbe 54e6 17be c568 93bd 3c00 c5bc
000001b0: 2d2f f1bd 84c8 c1bd fa4c 08be 1120 f6bd
000001c0: 2765 063d d755 7cbd 1d53 9bbe aead f4bd
000001d0: 6db0 82bd 2299 b5bd bb64 ed3c a8bd eebd
000001e0: ec4b 153d 98e3 f7bd 2405 2bbd 0156 ca3b
000001f0: 185b 5dbe 9a47 babd 74bc 51be 0963 813d

bn1.module.running_mean f4 [128]
-0.28273785 -0.30738604 -0.05277701 -0.5055057 -0.103151426 0.3389334 1.2410425 0.05969836
-0.5187634 0.746219 -0.6273411 -0.055272523 -0.53755766 0.72551435 0.1569098 -0.34455463
1.6105679 0.1077832 -0.8876981 0.38065898 -0.23270862 0.38371727 0.26160866 -0.85384476
0.008641443 -0.026828568 0.5036533 0.94083583 -0.138479 0.19117527 0.07570576 0.14884374
0.3635167 -0.71614575 0.09863817 -0.53446126 -0.0927881 0.22523803 -0.25981748 0.7228171
0.051989425 -0.6152918 0.46244276 0.047983706 -0.0941277 0.58551496 -0.16914196 -0.3241699
0.21365894 -0.91905874 0.26208293 -0.17816451 -0.079547904 -1.5138406 -0.1798684 -0.46378437
-2.5610979 0.35849917 -0.026472438 -0.22940442 -0.47529995 1.4128885 -0.30401897 -0.011673714
0.37939444 -0.49078813 0.88123006 -0.13121238 0.67309844 -0.22576058 -0.15383758 0.26123673
-0.2590799 0.5256895 0.36825284 -0.47386792 -1.871722 -0.56195956 1.0661843 -0.06258319
-0.10405786 0.11881219 -0.07206236 -0.06469508 -0.1651242 0.48231333 -0.0151644815 -0.19777976
-0.9752428 -0.09109984 -0.43574739 1.211401 0.071758576 0.051917005 -0.28614545 -0.4431825
0.030582774 -0.0015225792 -0.69669974 -0.0942918 -0.657962 0.10516995 0.24206246 1.0134187
-0.1988729 0.092740305 0.005454015 0.26235223 -0.0045443545 0.2149561 -0.4387251 0.23973326
0.5666788 -0.18777822 -0.0072154645 -1.0014875 -0.5237489 0.087084405 -0.36233005 0.20469901
-0.49292487 -0.33978117 -0.091173835 -0.0046821362 1.2416561 0.12157332 0.699408 -0.081886485
00000000: 04c3 90be b461 9dbe b52c 58bd d268 01bf
00000010: 0e41 d3bd ae88 ad3e 7bda 9e3f 4486 743d
00000020: aecd 04bf 3508 3f3f 6d99 20bf 7165 62bd
00000030: 619d 09bf 4fbb 393f f6ac 203e 7769 b0be
00000040: 1727 ce3f 70bd dc3d 2f40 63bf bce5 c23e
00000050: 2b4b 6ebe 9776 c43e 92f1 853e 9295 5abf
00000060: d794 0d3c 96c7 dbbc 6cef 003f 9eda 703f
00000070: 70cd 0dbe 73c3 433e 9f0b 9b3d 7e6a 183e
00000080: dc1e ba3e 5455 37bf cf02 ca3d 74d2 08bf
00000090: b007 bebd cca4 663e cc06 85be 8b0a 393f
000000a0: ddf2 543d c383 1dbf 4cc5 ec3e 908a 443d
000000b0: 06c6 c0bd 4fe4 153f 8d33 2dbe 99f9 a5be
000000c0: 69c9 5a3e 6f47 6bbf bc2f 863e c270 36be
000000d0: 03ea a2bd 87c5 c1bf 6c2f 38be 2575 edbe
000000e0: 07e9 23c0 348d b73e badc d8bc fee8 6abe
000000f0: 845a f3be 88d9 b43f 60a8 9bbe 1b43 3fbc
00000100: fd3f c23e 9548 fbbe 4b98 613f 8a5c 06be
00000110: 2e50 2c3f c82d 67be 9987 1dbe d2c0 853e
00000120: 1fa6 84be 9693 063f a38b bc3e d19e f2be
00000130: 9694 efbf 95dc 0fbf ba78 883f 9e2b 80bd
00000140: 4a1c d5bd ce53 f33d 6e95 93bd db7e 84bd
00000150: 5116 29be c6f1 f63e 7274 78bc c786 4abe
00000160: 83a9 79bf 8e92 babd 481a dfbe 300f 9b3f
00000170: 29f6 923d eda6 543d a881 92be d1e8 e2be
00000180: ba88 fa3c 4891 c7ba ea5a 32bf 0f1c c1bd
00000190: 3370 28bf 5863 d73d 39df 773e b4b7 813f
000001a0: 56a5 4bbe a1ee bd3d 98b7 b23b 0853 863e
000001b0: cfe8 94bb 741d 5c3e 94a0 e0be a37c 753e
000001c0: dd11 113f ef48 40be b46f ecbb be30 80bf
000001d0: 6814 06bf 4f59 b23d 5383 b9be 9e9c 513e
000001e0: a660 fcbe ccf7 adbe 59b9 babd 9b6c 99bb
000001f0: 96ee 9e3f 6ffb f83d 670c 333f 1ab4 a7bd

bn1.module.running_var f4 [128]
0.056183975 0.026069451 0.03676253 0.046230055 0.016305177 0.020029632 0.034460638 0.021073226
0.015344531 0.044283282 0.014707635 0.03705345 0.027339267 0.05089001 0.05680492 0.019120652
0.046120316 0.023356924 0.01933028 0.02095315 0.020348601 0.022905368 0.08271612 0.033649947
0.026062693 0.014678767 0.020711627 0.016000148 0.017836459 0.021236947 0.053785544 0.036579788
0.018442301 0.02945067 0.034754854 0.03088312 0.02924954 0.022539478 0.030470092 0.011444907
0.022586718 0.07871619 0.041733872 0.0163065 0.04658421 0.03925874 0.037522007 0.09979674
0.044049274 0.023268143 0.016930366 0.023337996 0.05640054 0.027483018 0.015773252 0.10037496
0.026835147 0.045221794 0.031071236 0.04131877 0.03803526 0.027664134 0.034962133 0.02859414
0.015478451 0.04521442 0.023808284 0.04233565 0.02182111 0.03596056 0.034869727 0.011735909
0.036303308 0.06431625 0.04483653 0.022570545 0.018842438 0.037534848 0.088183016 0.020698564
0.07235946 0.045288976 0.027252031 0.011021917 0.03729876 0.037257362 0.025835492 0.051692944
0.031317897 0.030274646 0.024436647 0.047974903 0.028746448 0.049033295 0.02620418 0.02725013
0.02547729 0.03337525 0.057158723 0.08312653 0.023396779 0.01735381 0.031266924 0.013468574
0.04897769 0.050403964 0.010022352 0.018641178 0.022884294 0.020270733 0.02796862 0.018823747
0.03975184 0.07839527 0.038369644 0.039331436 0.0127703 0.0520627 0.0143946875 0.039587438
0.14062323 0.04283993 0.04267686 0.031859476 0.06758661 0.020594252 0.039970312 0.049882982
00000000: 2b21 663d 9a8f d53c 4f94 163d ba5b 3d3d
00000010: 6f92 853c 2f15 a43c 9926 0d3d c2a1 ac3c
00000020: a167 7b3c 6362 353d 4bf8 703c 5cc5 173d
00000030: 99f6 df3c 0b72 503d 47ac 683d eaa2 9c3c
00000040: a8e8 3c3d 0557 bf3c 895a 9e3c f1a5 ab3c
00000050: 1cb2 a63c 0aa4 bb3c 1267 a93d 87d4 093d
00000060: 6e81 d53c 367f 703c 6eab a93c be12 833c
00000070: c41d 923c 1bf9 ad3c 3b4e 5c3d b0d4 153d
00000080: 4f14 973c 8842 f13c 1b5b 0e3d 99fe fc3c
00000090: bb9c ef3c b6a4 b83c 6a9c f93c 6b83 3b3c
000000a0: c807 b93c f435 a13d 23f1 2a3d 3695 853c
000000b0: 16cf 3e3d c6cd 203d adb0 193d 3c62 cc3d
000000c0: 036d 343d d59c be3c 8db1 8a3c 532f bf3c
000000d0: 4104 673d 1124 e13c e836 813c 6391 cd3d
000000e0: 62d5 db3c 7d3a 393d 1b89 fe3c df3d 293d
000000f0: dcca 1b3d e59f e23c 7434 0f3d 423e ea3c
00000100: 5499 7d3c c132 393d 9709 c33c 2668 2d3d
00000110: 2fc2 b23c 614b 133d 8fd3 0e3d f847 403c
00000120: c7b2 143d 3db8 833d 82a6 373d dde5 b83c
00000130: 755b 9a3c 24be 193d 4c99 b43d 0990 a93c
00000140: 3231 943d ef80 393d a73f df3c 4595 343c
00000150: 96c6 183d 2d9b 183d f4a4 d33c fbbb 533d
00000160: 3247 003d 8902 f83c 5d2f c83c 5581 443d
00000170: ac7d eb3c 23d7 483d 26aa d63c aa3b df3c
00000180: c0b5 d03c 7cb4 083d 441f 6a3d 3e3e aa3d
00000190: 9aaa bf3c 9429 8e3c bf11 003d 4bab 5c3c
000001a0: d59c 483d 6374 4e3d cb34 243c 62b5 983c
000001b0: d877 bb3c cf0e a63c 731e e53c 4234 9a3c
000001c0: d3d2 223d b38d a03d 7d29 1d3d 001a 213d
000001d0: 853a 513c b33f 553d b2d7 6b3c 7026 223d
000001e0: 89ff 0f3e ec78 2f3d eecd 2e3d 157f 023d
000001f0: d96a 8a3d 47b5 a83c e9b7 233d 1952 4c3d

conv2.bias f4 [128]
2.3510564e-05 -8.454044e-05 -5.8530524e-05 0.00010824876 0.000133092 -8.244309e-05 1.3216738e-05 8.707162e-05
0.00022121135 -1.3874611e-05 5.7462697e-05 1.5946989e-07 4.7320296e-05 -0.000112078174 -0.00016171919 -0.0002570327
3.9769337e-05 -5.4056545e-07 -3.8102902e-05 1.0479973e-05 7.517676e-05 -8.369236e-05 7.698397e-05 -3.0327683e-05
0.00021061675 -6.249394e-05 -2.3150522e-05 6.211722e-05 5.1688763e-05 1.7515209e-05 3.2893746e-05 3.389173e-05
-3.9221733e-05 -4.811539e-05 4.596323e-05 0.00017717533 6.238307e-05 -3.080904e-05 4.6183515e-05 -6.234767e-05
3.160864e-05 -5.04992e-05 -0.00013731708 3.3317592e-05 0.00014988985 5.3461365e-05 0.00010307391 -3.6789417e-05
6.554896e-05 0.00010473997 0.00016785537 -7.0907576e-05 0.00011042511 -3.3286697e-06 8.146188e-05 1.8540763e-05
-0.00019940334 -8.518053e-05 0.00023675893 -1.2425536e-05 0.0002728888 5.4436718e-05 1.2914468e-05 -0.000120232755
-3.4804716e-06 -4.2164087e-05 9.962862e-06 -4.147458e-05 3.365118e-05 4.2378826e-05 -5.863025e-05 -4.6627356e-06
-5.916763e-05 -2.8994607e-05 1.5809615e-05 0.00010897995 2.7980323e-05 -3.6331403e-07 -0.00016309092 6.561734e-05
-6.5230546e-05 4.761536e-05 -2.5512909e-05 -1.4622531e-05 -0.0001513044 4.3462533e-05 -6.078885e-05 -3.5614867e-05
-1.4815036e-05 -7.5791013e-06 -0.00011106371 9.512512e-06 -0.00013128051 7.219526e-05 2.839723e-05 -6.0734907e-05
-8.482201e-05 -0.00013879186 -0.00026696405 -0.00018719235 -3.487029e-05 3.430349e-05 -0.00017564908 -0.00032091126
-9.6647425e-05 -1.9586907e-05 7.79523e-05 1.7506862e-05 0.00014866247 1.8657363e-05 6.752036e-05 -7.552834e-05
-6.6072703e-06 0.00015191312 1.4452671e-05 6.765057e-05 8.6132524e-05 -8.177053e-05 -9.128716e-05 -4.5682744e-05
-4.3549582e-05 0.00020067961 -3.018067e-05 -5.945367e-05 -7.068309e-05 -4.943026e-05 -9.03871e-05 6.931401e-05
00000000: 8d38 c537 4e4b b1b8 ac7e 75b8 9c03 e338
00000010: 9d8e 0b39 4ce5 acb8 75bd 5d37 389a b638
00000020: f8f4 6739 00c7 68b7 1a04 7138 c03a 2b34
00000030: c879 4638 830b ebb8 2a93 29b9 58c2 86b9
00000040: 00ce 2638 601b 11b5 aed0 1fb8 24d3 2f37
00000050: 37a8 9d38 fe83 afb8 7472 a138 3468 feb7
00000060: 01d9 5c39 2e0f 83b8 5e33 c2b7 ee44 8238
00000070: 63cc 5838 a0ed 9237 64f7 0938 f826 0e38
00000080: 0482 24b8 82cf 49b8 a4c8 4038 24c8 3939
00000090: a8d3 8238 f438 01b8 2cb5 4138 a7c0 82b8
000000a0: 8593 0438 1acf 53b8 c6fc 0fb9 7ebe 0b38
000000b0: c02b 1d39 b43b 6038 6229 d838 564e 1ab8
000000c0: 5477 8938 d8a7 db38 5502 3039 37b4 94b8
000000d0: 0894 e738 1c62 5fb6 84d6 aa38 fc87 9b37
000000e0: ed16 51b9 f3a2 b2b8 7e42 7839 4577 50b7
000000f0: 8412 8f39 fb52 6438 38ab 5837 7825 fcb8
00000100: 0c92 69b6 58d9 30b8 2b26 2737 fef4 2db8
00000110: ae24 0d38 ebbf 3138 c0e9 75b8 9874 9cb6
00000120: c22a 78b8 7239 f3b7 e49e 8437 2a8c e438
00000130: 49b7 ea37 800d c3b4 6303 2bb9 0b9c 8938
00000140: 62cc 88b8 9ab6 4738 8e04 d6b7 4b53 75b7
00000150: 77a7 1eb9 8a4b 3638 88f7 7eb8 2c61 15b8
00000160: 188e 78b7 fc4f feb6 e0ea e8b8 ee97 1f37
00000170: 58a8 09b9 8967 9738 9636 ee37 9cbd 7eb8
00000180: 78e2 b1b8 a888 11b9 4ff7 8bb9 1049 44b9
00000190: b041 12b8 18e1 0f38 712e 38b9 fb3f a8b9
000001a0: 31af cab8 904e a4b7 537a a338 b3db 9237
000001b0: 47e2 1b39 6282 9c37 b899 8d38 f864 9eb8
000001c0: 05b4 ddb6 de4a 1f39 c079 7237 a0df 8d38
000001d0: 0ca2 b438 387c abb8 6c71 bfb8 799b 3fb8
000001e0: 02a9 36b8 866d 5239 7f2c fdb7 e45d 79b8
000001f0: b23b 94b8 5653 4fb8 348e bdb8 ad5c 9138

conv2.lin.weight f4 [128, 128]
0.02739979 -0.012632126 0.027628256 -0.026359368 -0.014147594 -0.00635093 0.1578653 0.016860625
-0.03228711 0.037254725 -0.0035158535 -0.11322698 -0.035306323 0.14019586 -0.118073225 -0.00090320234
-0.01262231 -0.033995174 -0.00878165 -0.087673016 -0.020069258 0.018443557 -0.06049168 -0.0384874
-0.04328619 -0.065909326 0.11450318 -0.058187533 0.0140495235 -0.06341318 0.009151915 0.0067080995
-0.03764077 0.04752535 -0.004853748 0.03380541 -0.052610032 0.008635893 0.08006399 0.122419894
-0.11648695 0.040458336 0.02813753 -0.03965048 -0.09866357 0.11015175 0.066504985 -0.037024572
0.07282223 0.008727336 0.0038175401 0.023220874 0.00049546955 0.03248769 -0.16569635 -0.09911029
-0.028260935 0.007210477 -0.14051369 0.109869406 -0.14715946 0.059206173 -0.01626059 0.09422218
-0.0032420948 0.017843097 0.032457918 -0.0658686 -0.05517147 0.037170462 -0.053503387 0.040324807
0.004110492 -0.041317813 0.028069636 -0.07739848 -0.013945757 0.013700389 0.038360987 0.07959893
0.1933827 -0.102931686 -0.1596801 0.044818364 -0.018831812 -0.06583274 -0.009919772 0.09022912
0.091162235 -0.01131456 0.072128646 0.06598646 -0.07837352 -0.022669593 -0.016849259 -0.0097742155
-0.04491312 -0.03153233 0.13257593 0.00624041 0.034120932 -0.050286755 0.051118955 0.12226101
-0.03176652 -0.033794634 0.037191592 0.05043695 -0.040115952 0.060988966 -0.10826767 -0.021833489
0.046699755 0.033902127 -0.029203244 0.081364594 -0.083326 -0.09973847 0.00789383 0.06904054
-0.025898721 0.28459167 -0.0045549134 -0.034505814 0.11824369 -0.11417585 0.17188698 0.009290782
0.011285909 0.027190007 0.031767905 0.025817877 -0.016098987 -0.05775576 -0.039802715 -0.083301656
0.16020721 0.06263923 -0.2556395 -0.019478304 -0.002412994 -0.04942792 -0.13988681 0.11692078
-0.12748145 -0.034880366 -0.04095654 0.003976565 -0.073027834 -0.097908966 0.053705294 -0.057594117
0.064657725 0.0038461133 -0.1380742 -0.08486199 -0.11570145 0.025381688 -0.010753666 -0.020639025
0.029221397 -0.0220114 -0.04396006 0.059599213 0.083807774 -0.037605464 0.068660825 -0.059175916
0.10956157 -0.030064678 -0.06444721 -0.08545309 -0.001670255 -0.035734907 -0.035216175 -0.10285975
0.048110723 0.062175583 -0.12062976 -0.070249654 -0.015366656 -0.28442863 0.043399844 0.015509346
-0.17335713 -0.07508546 -0.120611295 -0.077502206 -0.16463675 -0.114190705 0.013949361 0.075523734
0.026165437 -0.052725337 -0.04146034 0.050741572 -0.015303635 -0.004934557 -0.07442594 -0.13000052
-0.026439793 -0.028234249 -0.0008106494 0.08307945 -0.09301228 0.043268476 -0.090998165 0.035731878
-0.024726205 0.11389906 0.07902035 -0.2677193 0.0015699158 0.0058152396 0.11413442 0.05543623
-0.14562997 -0.007046181 0.03850249 -0.11141218 -0.124913126 -0.056690514 -0.06834968 -0.07576916
0.02938681 0.048935395 0.009913655 0.0017720696 0.015589725 -0.018006822 -0.021747725 0.060987927
0.040283337 -0.09836337 -0.04936797 -0.007706002 -0.07394522 -0.0071712756 0.05279926 0.006970219
0.0025207554 -0.064442806 -0.015232095 -0.0072061317 -0.05338723 -0.06882803 -0.11259586 -0.065711275
-0.04096922 0.040645286 -0.08718756 0.02604866 -0.016595773 -0.03772817 -0.042416275 0.048983153
00000000: 8675 e03c faf6 4ebc a754 e23c 9aef d7bc
00000010: 4fcb 67bc 761b d0bb 71a7 213e 4b1f 8a3c
00000020: 7d3f 04bd 6998 183d 3c6a 66bb 8ce3 e7bd
00000030: 5d9d 10bd 818f 0f3e 60d0 f1bd e2c4 6cba
00000040: cecd 4ebc 863e 0bbd e9e0 0fbc e98d b3bd
00000050: 4968 a4bc f116 973c 20c6 77bd f7a4 1dbd
00000060: dc4c 31bd 78fb 86bd a580 ea3d 0d56 6ebd
00000070: f92f 663c c5de 81bd eaf1 153c 9ecf db3b
00000080: 352d 1abd f1a9 423d 300c 9fbb 8b77 0a3d
00000090: 9e7d 57bd 907d 0d3c 97f8 a33d 48b7 fa3d
000000a0: b690 eebd a4b7 253d ad80 e63c 8b68 22bd
000000b0: 2010 cabd 3e97 e13d c433 883d 14a7 17bd
000000c0: d223 953d 1afd 0e3c b22f 7a3b b439 be3c
000000d0: 66e2 013a d011 053d 4eac 29be 56fa cabd
000000e0: 7a83 e7bc dd45 ec3b d2e2 0fbe 3603 e13d
000000f0: f8b0 16be 2c82 723d ee34 85bc 8ff7 c03d
00000100: 5379 54bb b02b 923c 98f2 043d 1ee6 86bd
00000110: 7bfb 61bd 0e40 183d 5e26 5bbd a02b 253d
00000120: 4eb1 863b de3c 29bd 4bf2 e53c 1883 9ebd
00000130: bf7c 64bc 9977 603c 6920 1d3d c404 a33d
00000140: 1d06 463e d9cd d2bd 2e83 23be 7693 373d
00000150: 2c45 9abc 51d3 86bd 8a86 22bc 0bca b83d
00000160: 44b3 ba3d b460 39bc 2fb8 933d e923 873d
00000170: 4c82 a0bd 95b5 b9bc 7507 8abc 0824 20bc
00000180: d2f6 37bd 0b28 01bd fcc1 073e 5a7c cc3b
00000190: 64c2 0b3d 7cf9 4dbd 1c62 513d fb63 fa3d
000001a0: 9c1d 02bd 3e6c 0abd 3656 183d fa96 4e3d
000001b0: a050 24bd 91cf 793d 71bb ddbd 25dc b2bc
000001c0: 3e48 3f3d f5dc 0a3d a43b efbc 7ba2 a63d
000001d0: d2a6 aabd af43 ccbd 1f55 013c 2065 8d3d
000001e0: 8e29 d4bc 00b6 913e 6241 95bb f855 0dbd
000001f0: bf29 f23d 07d5 e9bd 2403 303e 5d38 183c
00000200: 89e8 383c 94bd de3c 101f 023d 0380 d33c
00000210: 06e2 83bc 4e91 6cbd 2c08 23bd 0f9a aabd
00000220: 5c0d 243e ff48 803d 2ee3 82be f790 9fbc
00000230: 5223 1ebb ee74 4abd 7d3e 0fbe 2974 ef3d
00000240: 7f8a 02be b7de 0ebd 0bc2 27bd d84d 823b
00000250: 9e8f 95bd 7f84 c8bd 15fa 5b3d cfe7 6bbd
00000260: 456b 843d 130f 7c3b 5363 0dbe 1fcc adbd
00000270: e2f4 ecbd 42ed cf3c 2530 30bc 2c13 a9bc
00000280: b661 ef3c 4051 b4bc 770f 34bd 4e1e 743d
00000290: 69a3 ab3d 3008 1abd 0c9e 8c3d 7262 72bd
000002a0: d161 e03d 334a f6bc e6fc 83bd 0802 afbd
000002b0: 75ec daba c45e 12bd d63e 10bd 22a8 d2bd
000002c0: c00f 453d d3ab 7e3d bc0c f7bd 0ddf 8fbd
000002d0: 6dc4 7bbc a1a0 91be 09c4 313d e91a 7e3c
000002e0: 8884 31be 68c6 99bd 0e03 f7bd 7ab9 9ebd
000002f0: 8996 28be d1dc e9bd dc8b 643c 30ac 9a3d
00000300: e658 d63c 86f6 57bd 51d2 29bd 65d6 4f3d
00000310: 19bc 7abc 10b2 a1bb a16c 98bd db1e 05be
00000320: 4498 d8bc 834b e7bc c381 54ba 8f25 aa3d
00000330: 397d bebd 493a 313d 3f5d babd 975b 123d
00000340: 9c8e cabc e943 e93d 6cd5 a13d 8112 89be
00000350: a2c5 cd3a c48d be3b 4fbf e93d 1a11 633d
00000360: 0620 15be a6e3 e6bb c9b4 1d3d 122c e4bd
00000370: 74d2 ffbd 5034 68bd ebfa 8bbd dd2c 9bbd
00000380: 9bbc f03c 7b70 483d e26c 223c ca44 e83a
00000390: 0c6c 7f3c 0b83 93bc 4928 b2bc 7ace 793d
000003a0: 2400 253d bc72 c9bd 1236 4abd a182 fcbb
000003b0: 9770 97bd 05fd eabb 0944 583d 6f66 e43b
000003c0: 4233 253b 97fa 83bd 0990 79bc 6a21 ecbb
000003d0: 91ac 5abd b6f5 8cbd a998 e6bd a293 86bd
000003e0: 57cf 27bd ac7b 263d 648f b2bd 0064 d53c
000003f0: dcf3 87bc db88 1abd b0bc 2dbd 8fa2 483d

bn2.module.weight f4 [128]
0.5173299 0.36994478 0.52633166 0.45432064 0.54455113 0.5494908 0.3681379 0.33474717
0.59984505 0.45882833 0.45824537 0.71682376 0.4744584 0.5326076 0.36551428 0.37453038
0.47157335 0.465455 0.43987882 0.52877736 0.43192387 0.44903645 0.6965389 0.6090919
0.73980963 0.6034764 0.37956205 0.56408185 0.33139527 0.32063705 0.3987228 0.4030998
0.43546093 0.50330454 0.32173067 0.5779276 0.5530559 0.47929817 0.2378486 0.6243344
0.4622474 0.5832082 0.4019557 0.52561986 0.3664223 0.5057078 0.46020317 0.3881831
0.7162512 0.6739875 0.41743654 0.5096858 0.5779927 0.21079841 0.3729279 0.34528416
0.540513 0.6189656 0.5795306 0.5416715 0.32550237 0.5839571 0.50812 0.42097974
0.44056633 0.23114891 0.26389736 0.46510333 0.644846 0.32100397 0.5492036 0.53621
0.3880949 0.42817277 0.24465689 0.5610704 0.2978325 0.57600874 0.42131025 0.2838234
0.57486075 0.43096727 0.4593309 0.2721645 0.67733794 0.5813266 0.3261395 0.4391174
0.4368185 0.29744306 0.5021204 0.3574145 0.68577003 0.47450608 0.57429224 0.27786082
0.41720244 0.37651905 0.44506586 0.46949965 0.5340123 0.46281716 0.5030255 0.5856648
0.48976278 0.5405161 0.45596567 0.3785161 0.456992 0.44316196 0.69088376 0.5826517
0.35807937 0.4811577 0.56936395 0.561912 0.46088856 0.48209068 0.6635864 0.45404902
0.7859898 0.43479508 0.33788252 0.47679344 0.43083042 0.37079382 0.59985816 0.49481753
00000000: bb6f 043f 6769 bd3e acbd 063f b79c e83e
00000010: b467 0b3f 6eab 0c3f 927c bc3e fb63 ab3e
00000020: 728f 193f 8ceb ea3e 239f ea3e c381 373f
00000030: 36ec f23e f958 083f b024 bb3e 72c2 bf3e
00000040: 1072 f13e 1e50 ee3e cc37 e13e f45d 073f
00000050: 2025 dd3e 1be8 e53e 6050 323f 72ed 1b3f
00000060: 2a64 3d3f 6e7d 1a3f f555 c23e ab67 103f
00000070: a4ac a93e 8a2a a43e 6525 cc3e 1963 ce3e
00000080: bcf4 de3e 91d8 003f e2b9 a43e 10f3 133f
00000090: 1295 0d3f 9266 f53e 958e 733e 61d4 1f3f
000000a0: b1ab ec3e 224d 153f 23cd cd3e 068f 063f
000000b0: b49b bb3e 1176 013f c09f eb3e efbf c63e
000000c0: 3d5c 373f 728a 2c3f 3eba d53e c57a 023f
000000d0: 54f7 133f 8adb 573e 68f0 be3e 16c9 b03e
000000e0: 0f5f 0a3f 8874 1e3f 1e5c 143f fcaa 0a3f
000000f0: 3fa8 a63e 367e 153f 2714 023f a88a d73e
00000100: e991 e13e 4db2 6c3e 8e1d 873e 0622 ee3e
00000110: a114 253f a25a a43e 9b98 0c3f 0f45 093f
00000120: 60b4 c63e 7639 db3e 5687 7a3e 4fa2 0f3f
00000130: 807d 983e 4f75 133f fab5 d73e 4d51 913e
00000140: 132a 133f bea7 dc3e 6b2d eb3e 2559 8b3e
00000150: 0566 2d3f d2d1 143f c2fb a63e ffd3 e03e
00000160: ada6 df3e 754a 983e f68a 003f 09ff b63e
00000170: a08e 2f3f 76f2 f23e d104 133f c643 8e3e
00000180: 8f9b d53e 1bc7 c03e acdf e33e 4262 f03e
00000190: 08b5 083f 5ff6 ec3e 47c6 003f 21ee 153f
000001a0: 30c2 fa3e 435f 0a3f 5574 e93e ddcc c13e
000001b0: dbfa e93e 20e6 e23e c2dd 303f a928 153f
000001c0: 2e56 b73e 4d5a f63e d6c1 113f 77d9 0f3f
000001d0: 96f9 eb3e 97d4 f63e cce0 293f 1d79 e83e
000001e0: a136 493f 769d de3e f0fe ac3e 451e f43e
000001f0: ce95 dc3e b0d8 bd3e 4e90 193f b958 fd3e

bn2.module.bias f4 [128]
-0.007986565 -0.14769429 -0.16229692 -0.06260327 -0.24178348 0.06362342 0.13125786 0.14109272
-0.17603612 -0.017081924 -0.028241681 -0.16366906 -0.18127088 -0.37117448 -0.17140216 -0.09810244
-0.07499343 -0.09384793 -0.13369443 0.007282712 -0.22287428 -0.121177845 -0.06855657 -0.026558427
-0.036249623 -0.10758246 -0.14375456 -0.23455964 -0.18812403 -0.11331334 -0.09448129 -0.19391748
-0.15369408 -0.07782977 -0.004726951 -0.06882599 -0.33044326 -0.24148284 -0.15787737 -0.2495259
-0.17731532 -0.112145156 -0.16632757 0.04941575 0.1176713 -0.06944665 0.023807932 -0.20594129
-0.108238965 0.032946393 -0.11238353 -0.08511452 -0.13264684 -0.11434508 -0.14880247 -0.30446824
-0.17898771 -0.16072172 -0.28515473 0.001183541 -0.15237837 0.031376753 0.008740597 -0.14400236
-0.08233361 -0.108563624 -0.2424455 -0.16718905 0.18582968 -0.079583496 0.17169987 0.037872065
-0.13675018 -0.13817017 -0.10744805 -0.22741331 -0.1970397 -0.3485725 -0.11601152 -0.291975
-0.024135195 0.010716853 -0.014309165 -0.10995934 -0.053885873 -0.020241274 -0.23972353 -0.13396534
-0.030607099 0.2253991 0.05247645 -0.13575421 -0.25478005 -0.03748346 -0.058177188 -0.25471058
-0.12276594 -0.1608677 0.11108763 0.007913614 -0.14202748 0.06318232 -0.09077566 -0.19802624
-0.116011456 -0.28347138 -0.092522174 -0.104295716 -0.21262392 -0.047561336 0.0050721727 -0.15931892
-0.20067616 0.043285415 0.039790493 -0.05395231 -0.395195 0.026626674 -0.15364167 -0.043634776
0.11781265 -0.20606667 -0.1244135 -0.27084395 -0.04529189 0.016494643 -0.06861788 -0.08527004
00000000: 15da 02bc 2c3d 17be 2a31 26be 2536 80bd
00000010: 1796 77be ff4c 823d 7668 063e 9c7a 103e
00000020: d042 34be 64ef 8bbc 195b e7bc dd98 27be
00000030: 139f 39be 950a bebe 0c84 2fbe efe9 c8bd
00000040: 2896 99bd 5833 c0bd 31e7 08be d1a3 ee3b
00000050: 2839 64be 172c f8bd 6367 8cbd 0f91 d9bc
00000060: 7c7a 14bd 3154 dcbd 6534 13be 6730 70be
00000070: 96a3 40be d310 e8bd 687f c1bd 4e92 46be
00000080: fb61 1dbe 3765 9fbd 8ae4 9abb a4f4 8cbd
00000090: dc2f a9be 4747 77be 9baa 21be b883 7fbe
000000a0: 2692 35be 5cac e5bd c651 2abe 2b68 4a3d
000000b0: a7fd f03d 0c3a 8ebd da08 c33c 46e2 52be
000000c0: 64ac ddbd ccf2 063d 5629 e6bd 8550 aebd
000000d0: 93d4 07be c12d eabd ad5f 18be 43e3 9bbe
000000e0: 8e48 37be 3c94 24be cdff 91be 0c21 9b3a
000000f0: 1309 1cbe e984 003d b934 0f3c 5b75 13be
00000100: 869e a8bd 9b56 debd a243 78be 9b33 2bbe
00000110: 234a 3e3e acfc a2bd 17d2 2f3e bd1f 1b3d
00000120: 3d08 0cbe 7b7c 0dbe b90d dcbd 09df 68be
00000130: c6c4 49be 1878 b2be 7397 edbd bf7d 95be
00000140: 2cb7 c5bc bd95 2f3c fd70 6abc 5d32 e1bd
00000150: 6fb7 5cbd 07d1 a5bc 167a 75be 362e 09be
00000160: bdbb fabc 06cf 663e 8cf1 563d 2703 0bbe
00000170: 8872 82be 4288 19bd 344b 6ebd 6d69 82be
00000180: b66c fbbd 81ba 24be e981 e33d 1aa8 013c
00000190: a76f 11be bb65 813d 97e8 b9bd 64c7 4abe
000001a0: 6a97 edbd 2923 91be 447c bdbd fe98 d5bd
000001b0: 16ba 59be adcf 42bd 7834 a63b 8024 23be
000001c0: 0d7e 4dbe 0c4c 313d 5bfb 223d 19fd 5cbd
000001d0: 0057 cabe 2f20 da3c 3e54 1dbe 61ba 32bd
000001e0: c247 f13d 2403 53be 81cc febd 0fac 8abe
000001f0: fd83 39bd c61f 873c 8887 8cbd 0fa2 aebd

bn2.module.running_mean f4 [128]
0.07779865 -0.5025443 0.07689134 -0.5952502 -0.12635148 0.025949312 -0.16994059 -0.059584614
-0.053325407 -0.21534173 -0.25618333 -0.06062325 -0.09890696 -0.43073553 -0.47934312 -0.32117477
0.19736597 0.27608153 -0.13210672 -0.25768682 -0.077413216 -0.41998217 -0.15827954 0.3284202
-0.36783904 -0.09204423 -0.36609066 -0.041809168 0.003685272 -0.22545548 -0.13649073 -0.1522615
-0.44033468 -0.6880888 -0.32856542 0.3673583 0.42942852 -0.16973911 -0.031050272 0.43697876
0.06919204 -0.29774612 -0.49111345 -0.0035286357 -0.15582345 -0.48272318 -0.368204 0.13039197
-0.3844301 0.30854106 -0.19137503 -0.32655984 0.268461 -0.028253868 -0.09438658 0.17643642
0.05078765 -0.14815302 0.31880316 -0.25708178 -0.45751953 -0.51016897 -0.2730348 -0.108960725
0.14235611 -0.16055441 -0.06934372 -0.12896156 -0.29971945 0.1647017 -0.40942043 -0.17228927
0.21341917 -0.04801777 -0.18239039 0.5003339 0.050559185 -0.7608675 0.019444289 -0.10886306
-0.1999068 -0.2582034 -0.34989902 0.0032530534 -0.37875432 -0.059508637 -0.24228857 -0.18714379
0.14748435 -0.15637177 -0.43050858 -0.21800724 -0.68890816 -0.3325935 -0.14171232 -0.20894855
0.292591 -0.3804537 -0.3906705 -0.1926474 -0.17011894 0.30454284 -0.38244772 -0.19732635
-0.017620303 -0.7756061 -0.19148979 -0.28703254 -0.08394089 -0.6002956 0.14995086 0.28597823
-0.09198937 -0.25054562 0.3699941 0.08664502 -0.059833825 -0.27806628 -0.18717086 -0.3046416
0.12111427 0.21647374 0.1150483 0.13064075 -0.017134015 -0.3395948 -0.4969631 -0.3034978
00000000: e654 9f3d bea6 00bf 3579 9d3d 5162 18bf
00000010: 4862 01be a793 d43c e804 2ebe ff0e 74bd
00000020: be6b 5abd 8b82 5cbe 762a 83be 1650 78bd
00000030: bb8f cabd 5e89 dcbe 766c f5be 0571 a4be
00000040: 4e1a 4a3e 8f5a 8d3e fc46 07be 87ef 83be
00000050: d28a 9ebd e707 d7be 0814 22be b126 a83e
00000060: 6655 bcbe af81 bcbd 3c70 bbbe 1740 2bbd
00000070: 9b84 713b cddd 66be 3ac4 0bbe 70ea 1bbe
00000080: 8c73 e1be 9626 30bf ba39 a8be 6316 bc3e
00000090: 0ede db3e 17d0 2dbe 245d febc aebb df3e
000000a0: 8eb4 8d3d 2e72 98be 3973 fbbe af40 67bb
000000b0: 2f90 1fbe 7e27 f7be 3c85 bcbe 7985 053e
000000c0: 06d4 c4be 18f9 9d3e d1f7 43be da32 a7be
000000d0: b873 893e a874 e7bc c04d c1bd c0ab 343e
000000e0: b606 503d 6db5 17be 2b3a a33e 39a0 83be
000000f0: 0040 eabe 6f9a 02bf 38cb 8bbe cd26 dfbd
00000100: cdc5 113e 6068 24be 1504 8ebd 800e 04be
00000110: d474 99be 90a7 283e 8e9f d1be 996c 30be
00000120: 8e8a 5a3e 48ae 44bd 8cc4 3abe e215 003f
00000130: 2617 4f3d 36c8 42bf a149 9f3c 99f3 debd
00000140: 5eb4 4cbe 3c33 84be f725 b3be 2e31 553b
00000150: 16ec c1be 54bf 73bd 7f1a 78be 9fa2 3fbe
00000160: 2306 173e ec1f 20be 9f6b dcbe 4a3d 5fbe
00000170: 495c 30bf b249 aabe 091d 11be 9cf6 55be
00000180: 7dce 953e d4ca c2be f705 c8be 5c45 45be
00000190: a933 2ebe 0aed 9b3e 30d0 c3be eb0f 4abe
000001a0: 7458 90bc 1f8e 46bf e615 44be eef5 92be
000001b0: 34e9 abbd f9ac 19bf b88c 193e bd6b 923e
000001c0: ec64 bcbd 8447 80be de6f bd3e f272 b13d
000001d0: 5014 75bd b45e 8ebe b8a9 3fbe fcf9 9bbe
000001e0: c20a f83d 4bab 5d3e 719e eb3d b0c6 053e
000001f0: a25c 8cbc 5fdf adbe f371 febe 1064 9bbe
