gcn_model.pth (torch, 4657 bytes, 4 tensors)

conv1.bias f4 [64]
0	0xbd0238fc	-0.031792626
1	0x3ee5bc5d	0.44870272
2	0xbe34cd39	-0.17656411
3	0x3e830e59	0.25596884
4	0xbb334623	-0.0027355037
5	0x3e5d030d	0.21583195
6	0x3e9afe78	0.3027227
7	0xbc984fdf	-0.018592773
8	0x3e04884e	0.12942621
9	0x3e9b1537	0.30289623
10	0x3eeae31f	0.45876405
11	0x3ea30f7b	0.31847748
12	0xbdb3883c	-0.08766219
13	0xbd3c3f2c	-0.045958683
14	0x3e9405f1	0.28910783
15	0x3ee7c79c	0.45269477
16	0x3ec3f90a	0.3827594
17	0x3e89dac3	0.26924714
18	0x3ecbee39	0.39830187
19	0x3ca2a042	0.019851808
20	0xbdb48e0d	-0.088161565
21	0xbdc6135f	-0.096716635
22	0xbe07d716	-0.13265643
23	0x3e825b83	0.25460443
24	0x3ef3a615	0.47587648
25	0x3ea74cf6	0.32675904
26	0x3e826520	0.25467777
27	0xbe1cca56	-0.1531156
28	0x3e9fce25	0.31211963
29	0x3e903bf3	0.28170738
30	0xbcdbc253	-0.02682606
31	0x3e9923d7	0.29910156
32	0x3d52585f	0.05135381
33	0x3e805228	0.2506268
34	0x3e9d724f	0.30751273
35	0x3ef2feed	0.47460118
36	0x3eda01f3	0.42579612
37	0x3e829731	0.25505975
38	0x3e91b9c9	0.28462055
39	0x3eb8f1e6	0.36122054
40	0x3e93a27c	0.28834903
41	0xbdf8c6f0	-0.12147319
42	0x3e7a6237	0.24451528
43	0xbde9fb96	-0.11424939
44	0x3ef5432c	0.4790281
45	0x3ebe19aa	0.37128955
46	0x3e95ab5d	0.29232302
47	0xbe013bbc	-0.12620443
48	0x3e6d8f6a	0.2319924
49	0x3e953931	0.29145196
50	0x3ec7fef5	0.39061704
51	0xbda8d5fe	-0.08243941
52	0x3e96d763	0.29461202
53	0x3eb48153	0.35254917
54	0x3ee94de5	0.4556724
55	0xbd63ae74	-0.055586293
56	0xbe08d1d8	-0.13361299
57	0xbdf50d4d	-0.119654275
58	0xbd3c121b	-0.045915704
59	0x3f09240a	0.53570616
60	0x3ea8cb40	0.32967567
61	0x3eadb8ea	0.3393014
62	0x3ea41844	0.32049763
63	0x3f046bab	0.5172679

conv1.lin.weight f4 [64, 3]
0	0xbe91f337	-0.2850587
1	0xbe35be9e	-0.17748496
2	0x3e5f7423	0.21821646
3	0xbed63eb1	-0.41844705
4	0xbeb2d5f1	-0.3492885
5	0xbe08e859	-0.13369884
6	0x3e6e9c1b	0.23301737
7	0xbf0cab1a	-0.5494858
8	0xbd22b4a0	-0.03972304
9	0xbd935c31	-0.071953185
10	0x3eab229c	0.33424842
11	0xbce04bff	-0.027379988
12	0xbd4d3466	-0.0500988
13	0x3e877089	0.26453045
14	0x3c2e1cfb	0.010627027
15	0x3b5ff99a	0.0034175874
16	0x3e9f3511	0.31095174
17	0x3bf4d7f2	0.0074720317
18	0xbe8c1a87	-0.2736399
19	0xbe846c99	-0.25864103
20	0xbda92c48	-0.08260399
21	0xbd721a6d	-0.059107233
22	0x3e5f4870	0.21804976
23	0xbdfb40d0	-0.122682214
24	0x3d34e0be	0.044159643
25	0x3ebeb7f6	0.37249726
26	0x3c90deb9	0.017684327
27	0x3db10386	0.0864325
28	0xbea2732e	-0.317285
29	0x3e52bda4	0.20580155
30	0xbeb3dbd9	-0.35128668
31	0xbee0994e	-0.43866962
32	0xbe5bb958	-0.21457422
33	0x3e9d35a0	0.30704975
34	0xbed2f8e8	-0.41205525
35	0xbb5baa24	-0.003351816
36	0xbd9449a4	-0.07240608
37	0x3eade37b	0.33962616
38	0xbb3adfbc	-0.0028514704
39	0xbf2ce721	-0.67540175
40	0xbe23b75a	-0.15987912
41	0xbe522e3c	-0.2052545
42	0xbdc953d6	-0.098304436
43	0x3eaf2b93	0.34212932
44	0xbd87265e	-0.06599115
45	0xbe3649ba	-0.17801562
46	0xbe9e5da0	-0.30930805
47	0xbe071e70	-0.13195205
48	0xbe2b18d0	-0.16708684
49	0xbea139fb	-0.31489548
50	0xbe179427	-0.1480261
51	0xbd6dbeb5	-0.0580432
52	0x3ec88c57	0.3916957
53	0xbda4e146	-0.0805078
54	0xbe2ca9bc	-0.16861624
55	0xbea1cbef	-0.316009
56	0xbe298c8b	-0.16557519
57	0x3e98e563	0.29862508
58	0xbedadb9f	-0.42745683
59	0x3de3df0c	0.11126527
60	0xba943de4	-0.0011309949
61	0xbc3eb9a8	-0.011640944
62	0x3d5faaa5	0.0546061
63	0x3da8dcb7	0.08245223
64	0xbe81bd12	-0.25339562
65	0xbe5e1331	-0.21687008
66	0xbc59847a	-0.013276214
67	0xbc72eb42	-0.014826598
68	0xbd1646bc	-0.03668855
69	0x3e5cf6ae	0.21578476
70	0x3e46cad5	0.19413312
71	0x3cf22718	0.029559657
72	0xbd4cd5cc	-0.05000858
73	0xbe85d518	-0.2613914
74	0x3d53b2f0	0.05168432
75	0x3edc1603	0.42985544
76	0xbf0cbd25	-0.5497611
77	0x3d3a0503	0.045414936
78	0x3de3908a	0.11111553
79	0xbe1a1725	-0.15047891
80	0x3d5a88ed	0.05335324
81	0x3e70e41a	0.23524514
82	0xbe89dcb7	-0.26926205
83	0xbb85fa60	-0.004088685
84	0x3d4e1978	0.050317258
85	0x3e885669	0.26628426
86	0x3d199f18	0.03750524
87	0xbeaa09ea	-0.3321069
88	0xbe906187	-0.28199407
89	0x3dd43a12	0.103626385
90	0xbdc039ee	-0.09386049
91	0x3ea0def4	0.314201
92	0xbac659c9	-0.0015132959
93	0x3ed5486b	0.41656813
94	0xbf0ae3cb	-0.54253834
95	0x3d2827cf	0.04105359
96	0x3d2412ff	0.04005718
97	0x3ea73151	0.32654813
98	0x3a4d46ac	0.00078306603
99	0xbccab2df	-0.024743496
100	0x3ead48ed	0.338447
101	0x3b99cfac	0.004693946
102	0x3eea4bfe	0.45761102
103	0xbef77b42	-0.48336226
104	0x3d3a7a3f	0.04552674
105	0xbedb1eb9	-0.42796877
106	0xbeac4815	-0.33648744
107	0xbe04ae3d	-0.12957092
108	0x3d35b549	0.04436234
109	0xbe649a2b	-0.22324435
110	0xbc2b1942	-0.010443034
111	0x3ec6608f	0.38745543
112	0xbdc4fa1b	-0.09618016
113	0x3da10636	0.07862513
114	0xbedcbcfe	-0.4311294
115	0xbec26ba6	-0.37972754
116	0xbe83e57e	-0.25761026
117	0xbe0a2c3c	-0.13493437
118	0xbe723fc9	-0.23657145
119	0xbdb9daf0	-0.09074962
120	0x3f1b6425	0.60699683
121	0xbf1a2f29	-0.6022821
122	0x3dd2c866	0.10292129
123	0xbd503b3f	-0.05083775
124	0xbab5b860	-0.0013864152
125	0x3c52e95c	0.01287302
126	0xbe3d7886	-0.18503007
127	0xbe56eff5	-0.20989974
128	0xbde89b20	-0.11357713
129	0xbe1af33f	-0.15131854
130	0xbd8a2710	-0.06745732
131	0xbe33a281	-0.17542459
132	0x3c1f9cd5	0.0097419815
133	0xbe69ae1a	-0.2282032
134	0x3b5ae9e2	0.0033403565
135	0xbee489ab	-0.44636282
136	0xbebe7d52	-0.37204987
137	0xbe78d1ca	-0.24298778
138	0x3e22afb9	0.15887345
139	0xbe72f514	-0.23726302
140	0x3d938fe6	0.07205181
141	0x3dd0ce30	0.10195577
142	0xbe44d0be	-0.19220254
143	0xbdb76ae3	-0.08955934
144	0xbc5e47fc	-0.013566967
145	0x3ec5c3ee	0.38626045
146	0x3c4cba92	0.012495654
147	0x3ecd35f3	0.40080222
148	0xbef1842b	-0.4717115
149	0x3d8d447d	0.06897829
150	0x3e4516b5	0.19246943
151	0xbe9cab0e	-0.30599254
152	0x3d83ffe4	0.06445292
153	0xbc2c8ee9	-0.010532119
154	0xbb8231c9	-0.00397322
155	0x3d5542bd	0.0520656
156	0x3d1f526e	0.03889697
157	0xbe2306ab	-0.15920512
158	0x3d6e08a7	0.05811372
159	0x3c9c21a7	0.019059015
160	0xbe37b164	-0.17938763
161	0x3d0df30d	0.03465562
162	0x3d077d0f	0.03307825
163	0xbe70feea	-0.23534742
164	0xbabe6202	-0.0014525058
165	0xbcae3a80	-0.02126813
166	0x3cabd5ef	0.020976035
167	0x3d574067	0.052551653
168	0x3e224ad3	0.15848856
169	0xbe319ad0	-0.17344213
170	0xbda86a8b	-0.082234465
171	0xbd50d684	-0.050985828
172	0xbcb0e92b	-0.021595558
173	0xbd5bd253	-0.053667378
174	0xbb6caee6	-0.003611499
175	0xb94797e7	-0.00019034707
176	0x3cca7371	0.02471325
177	0x3d217dcb	0.039426606
178	0xbe88dff4	-0.26733363
179	0xba09913c	-0.0005247777
180	0xbe521eb1	-0.2051952
181	0xbeb0a058	-0.34497333
182	0xbe50a991	-0.20377184
183	0x3f23cb11	0.6398173
184	0xbe8aa4c6	-0.27078837
185	0x3d149aa6	0.036280297
186	0x3cb6f09f	0.022331534
187	0xbe46daf3	-0.1941946
188	0x3db1bac7	0.08678203
189	0xbd02e19b	-0.031953435
190	0xbe81794a	-0.2528785
191	0x3b47b9d1	0.0030475745

conv2.bias f4 [4]
0	0x3e8d2e23	0.27574262
1	0xbe918edb	-0.28429303
2	0xbe86965a	-0.26286584
3	0xbe7a3579	-0.2443446

conv2.lin.weight f4 [4, 64]
0	0x3cb5540c	0.022134803
1	0x3e3e62dc	0.185924
2	0xbe8853e2	-0.26626498
3	0x3dd063ec	0.101753086
4	0xbd1417a8	-0.036155373
5	0x3e28be44	0.1647883
6	0x3e9e2458	0.30887103
7	0xbdcf7a67	-0.10130768
8	0x3d936e30	0.07198751
9	0x3e88f05b	0.26745877
10	0x3ecf0eca	0.4044097
11	0x3ebdecaf	0.37094638
12	0xbda35834	-0.07975808
13	0xbd32f932	-0.043694682
14	0x3e3a9ffe	0.18225095
15	0x3e72203a	0.23645106
16	0x3ea77492	0.32706124
17	0x3de8c6a0	0.1136601
18	0x3e697054	0.22796756
19	0xbd6d7672	-0.057974286
20	0x3e0b3031	0.13592602
21	0xbe1cc243	-0.1530848
22	0x3d050883	0.03247882
23	0x3e4afe0f	0.19823478
24	0x3d88b542	0.06675197
25	0x3ec907ab	0.39263663
26	0x3ead20a4	0.33813965
27	0xbd982fd0	-0.074309945
28	0x3ded1f8c	0.11578283
29	0x3e2f33f9	0.1710967
30	0xbdf2f428	-0.11862975
31	0x3eb32e21	0.3499613
32	0x3db17eb6	0.08666746
33	0x3e2edfe5	0.17077596
34	0x3e795023	0.24346976
35	0x3e3f3559	0.18672694
36	0x3e739918	0.2378887
37	0x3e739e66	0.23790893
38	0x3e1d272f	0.15346979
39	0x3ecb53c4	0.39712346
40	0x3e8edc54	0.27902472
41	0xbd94dfea	-0.07269271
42	0x3ea097e2	0.31365877
43	0xbddd5f02	-0.10809137
44	0x3e18a810	0.14907861
45	0x3e6eb221	0.23310138
46	0x3ea6b900	0.3256302
47	0xbe44fc44	-0.19236857
48	0x3e27aee5	0.1637531
49	0x3ec536cd	0.38518372
50	0x3e86d224	0.263322
51	0x3dd1c53e	0.10242699
52	0x3e5abb36	0.21360478
53	0x3ebf2f74	0.3734089
54	0x3edc7cdc	0.4306401
55	0x3b129ab0	0.0022370033
56	0xbe0d6c91	-0.13810946
57	0xbcf925d4	-0.030413546
58	0x3cb9f89f	0.02270156
59	0x3eb0c906	0.3452837
60	0x3e8f4495	0.2798201
61	0x3eaa0d3c	0.33213222
62	0x3e932c74	0.28744853
63	0x3ebbb57f	0.36661908
64	0x3b37ada8	0.0028027091
65	0xbe6fce60	-0.2341857
66	0x3f01f5b7	0.50765556
67	0xbea703fe	-0.32620233
68	0x3c0c236d	0.008553368
69	0xbe1e28a7	-0.15445195
70	0xbdf0d8f7	-0.11760133
71	0xbe6090d4	-0.21930248
72	0xbe37fddb	-0.17967932
73	0x3e31360f	0.17305778
74	0x3d5b3130	0.053513706
75	0x3eb0f1d8	0.34559512
76	0x3ddee35e	0.108832106
77	0xbe88587a	-0.26630002
78	0xbe96d3fd	-0.2945861
79	0xbe0bc18f	-0.13648055
80	0xbdb3c0b5	-0.0877699
81	0xbecd28b4	-0.40070117
82	0xbe1370ad	-0.14398451
83	0x3eb9db1c	0.3629998
84	0xbd23f344	-0.040026918
85	0x3d461c2d	0.048366714
86	0x3cbf0b1d	0.023320729
87	0x3d152df0	0.036420763
88	0xbdf76e48	-0.12081581
89	0x3ec6a6f0	0.38799238
90	0x3d83f8ee	0.06443964
91	0x3e934831	0.28766015
92	0xbe7ab2ce	-0.24482271
93	0xbdc5a7cf	-0.096511476
94	0x3d951dd8	0.07281083
95	0x3ecae269	0.39625862
96	0xbd45de16	-0.0483075
97	0xbe855ae1	-0.26045898
98	0x3e8351c3	0.25648317
99	0xbe5e6106	-0.21716699
100	0xbc412f22	-0.0117910225
101	0x3e627bf5	0.22117598
102	0xbe958d0d	-0.29209176
103	0xbcd474ec	-0.025934659
104	0x3ec6e150	0.38843775
105	0x3d5de869	0.05417672
106	0xbe2faabc	-0.17154974
107	0x3d1c8a65	0.03821792
108	0xbde63eff	-0.11242484
109	0xbe8d5adb	-0.2760838
110	0x3e2804be	0.16408059
111	0x3e1b278d	0.15151806
112	0xbe9f42fe	-0.31105798
113	0x3edc2711	0.42998555
114	0x3e2e354a	0.17012516
115	0xbcf99fe8	-0.030471757
116	0x3c8a0a1d	0.016850526
117	0xbb37ef47	-0.0028066204
118	0x3e17c441	0.14820959
119	0xbd928d34	-0.071558386
120	0x3e71baff	0.2360649
121	0x3d08419a	0.033265688
122	0xbbc6af83	-0.006063403
123	0x3e3606f6	0.17776093
124	0xbdfcff44	-0.123533756
125	0x3eb32e51	0.34996274
126	0xbd2d6139	-0.042329047
127	0x3dd9bee4	0.106321126
128	0x3e8a1a93	0.269734
129	0x3e392efe	0.18084332
130	0xbc53fa0d	-0.012938035
131	0xbd82cbe4	-0.06386545
132	0xbe220f7a	-0.15826216
133	0xbe2512e6	-0.1612049
134	0x3e5d1768	0.2159096
135	0xbd55466e	-0.05206912
136	0xbe81536a	-0.25258952
137	0xbd9365f0	-0.071971774
138	0x3ed22aab	0.41048178
139	0xbe364cff	-0.17802809
140	0xbe62db48	-0.22153962
141	0x3f0d5c5c	0.55219054
142	0x3d5a282f	0.05326098
143	0x3e312b34	0.17301637
144	0x3e73d0ce	0.23810121
145	0xbd91d01a	-0.0711977
146	0x3e1c4558	0.15260828
147	0xbe8952f7	-0.2682111
148	0x3d8aa162	0.067690626
149	0x3e72c321	0.23707248
150	0xbb99e26b	-0.0046961806
151	0xbea382c9	-0.3193572
152	0xbd0ac077	-0.033874955
153	0xbea85209	-0.32875088
154	0xbe281d01	-0.16417314
155	0xbe2dab3b	-0.1695985
156	0xbe788537	-0.24269567
157	0x3e040336	0.1289185
158	0xbe5dbaf5	-0.2165335
159	0xbea6d0aa	-0.32581073
160	0xbe1a7882	-0.15085033
161	0xbe0efb58	-0.13963068
162	0xbead932a	-0.3390134
163	0x3ddb33a9	0.10703213
164	0xbd863153	-0.065523766
165	0xbef2814d	-0.47364274
166	0x3e93a5d9	0.2883747
167	0x3e88e630	0.2673812
168	0xbf1fc9c1	-0.6241723
169	0xbe14c6fe	-0.14529034
170	0x3e4e302e	0.20135567
171	0x3e68737d	0.22700305
172	0xbc5b155d	-0.013371793
173	0x3e892d3a	0.26792318
174	0xbe132cd2	-0.14372566
175	0x3d22cfd5	0.039748985
176	0xbe222733	-0.15835266
177	0xbea327ba	-0.31866246
178	0xbdb8b809	-0.09019477
179	0xbca9420e	-0.02066138
180	0xbcff30d6	-0.031151216
181	0x3e00c5c7	0.12575446
182	0x3e10659c	0.14101261
183	0xbdc57531	-0.09641493
184	0x3cc441d9	0.02395718
185	0x3c04cf0e	0.008106006
186	0xb977b47b	-0.0002362299
187	0x3e15cbf4	0.14628583
188	0x3e749327	0.23884259
189	0xbecf0f4e	-0.40441364
190	0x37eded20	2.8363022e-05
191	0x3e5feccf	0.21867679
192	0xbeb308ac	-0.34967554
193	0xbf2d8aaf	-0.6778974
194	0xbd84214b	-0.06451663
195	0x3e808c08	0.25106835
196	0x3e4c15b4	0.19930154
197	0x3e80a6d0	0.25127268
198	0xbf1259e3	-0.57168406
199	0x3dce7c07	0.1008225
200	0x3e6bcb87	0.23026858
201	0xbf114c70	-0.5675726
202	0xbf110314	-0.5664532
203	0xbef04505	-0.46927658
204	0x3e2ee65e	0.17080066
205	0xbea02124	-0.31275284
206	0x3e9ec4da	0.3100956
207	0xbeef40bf	-0.46729085
208	0xbf0454a1	-0.51691633
209	0x3e6f3635	0.23360522
210	0xbf04e000	-0.51904297
211	0xbd01aed4	-0.03166087
212	0xbd3d4f1a	-0.046218015
213	0xbe715c9c	-0.23570484
214	0x3d11600d	0.03549199
215	0x3e829ae8	0.2550881
216	0xbf1c0d5b	-0.6095788
217	0xbf0185e2	-0.50594914
218	0xbe81051c	-0.2519921
219	0x3d676d97	0.056500997
220	0x3e571cb7	0.21007048
221	0xbef33cd2	-0.4750734
222	0x3e434096	0.19067606
223	0xbf001f6c	-0.50047946
224	0x3e87e8b5	0.2654473
225	0x3e7794c7	0.24177848
226	0xbee2b50e	-0.4427876
227	0xbf1f3e36	-0.622043
228	0xbeddb977	-0.4330556
229	0xbe53bf38	-0.20678413
230	0xbeee7d10	-0.4657979
231	0xbea73ba4	-0.3266269
232	0xbea16ba8	-0.31527448
233	0xbd865a1d	-0.065601565
234	0xbe9c8a79	-0.30574396
235	0x3c812934	0.015766717
236	0xbf202da0	-0.6256962
237	0xbf00f465	-0.50372916
238	0xbe82cfa4	-0.25549042
239	0xbd9e468c	-0.077282995
240	0x3e8a268b	0.2698253
241	0xbec3da60	-0.38252544
242	0xbec96514	-0.3933493
243	0x3d27f565	0.04100551
244	0xbe836299	-0.25661162
245	0xbf129e0e	-0.5727242
246	0xbf134b67	-0.5753693
247	0x3d0326c4	0.03201939
248	0xbc46ef11	-0.012141959
249	0xbc5adfb9	-0.013359004
250	0x3b5dc9f5	0.00338423
251	0xbed58c19	-0.4170845
252	0xbf14ad10	-0.5807657
253	0xbe4412a7	-0.1914774
254	0xbf0b7664	-0.54477525
255	0xbf140b47	-0.5782971
