result/cnn_gat/model.pth (torch, 107620 bytes, 30 tensors)

conv1d_1.weight f4 [64, 12, 3]
000000 44 04 c7 bd bc 39 d3 38 69 a8 f5 bd 9a 37 5d 3d
       -0.097176105 0.00010072018 -0.11995012 0.054008104
000010 0b 8a 1e bd 68 17 0e be 26 de da bc 51 05 1b 3c
       -0.038705867 -0.13876116 -0.026717257 0.009461717
000020 61 a1 29 bd 46 02 03 bd 9f ec d1 3c fa 75 d7 bd
       -0.04141367 -0.03198459 0.025625525 -0.10520549
000030 12 cc 0e bd b2 09 54 3d f8 43 e2 3d d4 68 2a bd
       -0.034862585 0.05176706 0.1104812 -0.04160388
000040 b2 14 e0 3c 17 04 f4 bd 59 d0 bc 3b 61 f5 79 bc
       0.027353618 -0.119148426 0.0057621417 -0.015256257
000050 64 f9 4e bd bb e4 e8 3c 0b 83 0d bd 02 18 14 bd
       -0.050530806 0.02842938 -0.0345488 -0.036155708
000060 86 c1 a3 3e f6 c1 11 3e 00 f1 38 3e 5c 53 b3 bd
       0.31983584 0.14234146 0.18060684 -0.08756134
000070 08 a2 af bd 48 29 3c be 28 7b 70 3d 3f da 74 3d
       -0.08575827 -0.18375123 0.0587112 0.05977845
000080 44 47 77 bc dc e6 18 3e 28 58 04 3e 05 ae 8f 3d
       -0.015092675 0.14931816 0.12924254 0.070156135
000090 51 00 20 be 61 33 2d bd 73 e4 37 be 24 e8 19 3e
       -0.1562512 -0.042285327 -0.1795824 0.15029961
0000a0 b8 10 65 3e 7e b2 af bc 11 ce 57 bc b5 5f 81 3b
       0.22369659 -0.021447416 -0.013171689 0.0039481767
0000b0 bf fc d5 3c 17 68 91 bc c7 0d ad 3c 0c b0 43 be
       0.026121495 -0.01774983 0.021124734 -0.19110125
0000c0 e5 e5 69 3d c8 b0 07 3e ee 18 e2 bb ef df 86 bc
       0.05710401 0.1325103 -0.0068999445 -0.016464202
0000d0 45 e9 0d 3d d6 9a 58 be 3c 96 be bc 72 58 16 3c
       0.03464629 -0.21152815 -0.023264997 0.00917636
0000e0 01 e6 99 3c 93 34 c6 3c 5e 90 d9 bd 9a a4 02 3b
       0.018786432 0.024194991 -0.10623239 0.0019934536
0000f0 59 a3 1f 3d 1b f5 6a 3e 39 c2 01 3e 12 8c ce 3c
       0.03897414 0.22945063 0.12671746 0.025213275
000100 bf 71 7b 3d f3 3e 32 3e 63 3b 03 3b 2d 57 63 3d
       0.061387774 0.17406826 0.002002441 0.05550306
000110 ea e7 bd bc 37 cb cb bc 7d 03 74 3d 64 bb 52 3e
       -0.023181874 -0.024877174 0.05957364 0.20579296
000120 a5 c1 28 bd 1d 20 1a be b6 3d b9 bb 66 08 26 3d
       -0.0412003 -0.15051313 -0.0056531085 0.040535353
000130 a2 f5 27 3d 7f d1 ab 3d 3b 7f 8b bc 5d 16 9a 3b
       0.041005738 0.083895676 -0.017028442 0.004702373
000140 e4 d4 8d bc d0 63 7c bd 62 a9 0c be 53 ab cc 3c
       -0.017313428 -0.061618626 -0.1373649 0.024984038
000150 06 ec ad bd 70 44 d5 bc 87 1f 97 3c 1d 32 7a bd
       -0.084922835 -0.02603361 0.01844765 -0.061082948
000160 7d 7e 0d be 45 0a d4 3c ef 0e d9 bc 99 46 10 3d
       -0.13817783 0.025883803 -0.026496379 0.035223577
000170 fd 51 9e 3c 2b 49 f1 3c 99 0b ca 3c 90 6c 18 3d
       0.019326204 0.029453835 0.024663733 0.03721291
000180 12 3e da bd b7 7d ff bd e8 a2 91 be 1b 9c 32 bd
       -0.1065637 -0.1247515 -0.284446 -0.043605905
000190 b9 6a 1c bd bd 69 d7 bb 02 60 11 3d 31 ca e5 bc
       -0.038187716 -0.0065738843 0.03549195 -0.028050514
0001a0 73 02 41 3c ee 63 56 bd b6 bb 86 bd ce 90 1e be
       0.011780369 -0.052341394 -0.06578772 -0.15484926
0001b0 51 2a 5f be 53 a8 8f bd ed de 5b be 5e 33 10 3e
       -0.21793486 -0.07014527 -0.21471758 0.14082095
0001c0 b6 c2 02 3e a7 81 2c 3e 91 6a 4a 3c bd d6 c7 3c
       0.12769589 0.16846333 0.012354509 0.024394387
0001d0 bd 64 05 bd f6 c6 40 bd 4e 09 4c bd 45 23 2b be
       -0.032566775 -0.047064744 -0.04981356 -0.16712673
0001e0 72 ef 96 bd 88 b5 7c ba e2 d7 a7 3d 09 ad 3a bd
       -0.07369889 -0.00096400874 0.08195473 -0.045575175
0001f0 f2 43 4d bd 5d ce 28 be 66 3c 65 3d c8 d7 a3 3b
       -0.050113626 -0.16484971 0.055965804 0.0050000884
000200 8c 5c 52 bd a2 64 d9 bc 34 83 ec 3b 3e b9 0c bc
       -0.05135779 -0.026537243 0.007217789 -0.008589087
000210 2a a6 88 3e 46 98 90 3e ec a6 91 3e d3 e1 0e bd
       0.26689273 0.28241175 0.28447664 -0.03488333
000220 bb f1 1b 3d e4 56 fe 3c 3a fc ad 3c 9c cd 93 3c
       0.03807233 0.031047292 0.021238435 0.018042378
000230 cd e7 a7 3d 52 f2 84 3d c8 47 15 3d 6f c7 d4 3d
       0.08198509 0.064915314 0.03644541 0.103896014
000240 6e 59 4e 3d 6f af e5 3d a7 cf 3c be 1d ee 4e be
       0.050378256 0.11215102 -0.18438588 -0.2020802
000250 1f a5 ba be ee 36 c2 bd 3b 0a e7 3a 2c 8a 5e bb
       -0.36454102 -0.09483133 0.001762695 -0.0033956869
000260 60 61 f4 3c 1e 6a ad 3d 0d be 55 3d 32 04 f6 bd
       0.029831588 0.08467506 0.0521832 -0.12012519
000270 f0 75 04 3d a7 b9 c3 3c d0 25 ec bc d3 11 9b 3d
       0.032339036 0.023892237 -0.028826624 0.07571759
000280 38 8b 24 3c ab 2e 1b be c2 e4 f1 3b 5a f2 84 bc
       0.010042958 -0.15154521 0.0073820064 -0.016228843
000290 76 9c 3d 3c bf f3 c7 bc 7f 5b 4e bd f6 72 30 3e
       0.011572948 -0.02440822 -0.050380226 0.17231354
0002a0 17 f6 12 bb ad 2c d8 3d 7c ad 83 3e 63 ca 94 3c
       -0.0022424513 0.10555396 0.25718296 0.018162912
0002b0 8a 0a 04 be 14 1d 99 be 14 ed 93 3c 4b 33 04 3c
       -0.12894645 -0.29904997 0.018057384 0.00806887
0002c0 6f 72 0e 3d 0c 7a 6e bc ac ae b1 3c 3b 62 1c 3e
       0.0347771 -0.014555465 0.021689735 0.15271847
0002d0 80 e9 50 be 12 61 e1 bd 73 81 f5 bd 61 53 fe 3d
       -0.20401573 -0.11004843 -0.11987581 0.12418247
0002e0 8f 48 91 3d 22 6d fd 3d 43 e7 1e bc cf ca 4a bd
       0.070939176 0.12374331 -0.009698692 -0.04950982
0002f0 50 d6 09 3c 14 87 0d be 1a ac dc bd f0 c1 e3 bd
       0.0084129125 -0.1382106 -0.10775013 -0.11120975
000300 77 c4 2c 3e d0 12 d7 3d 6d 74 ef 3d a8 0e 0c be
       0.1687182 0.10501635 0.11692128 -0.13677466
000310 80 de d8 bd ca 0d f0 bd 09 b2 a2 3c bd 12 4e b9
       -0.105893135 -0.1172138 0.019860284 -0.00019652671
000320 dd 3e af 3c 11 00 69 3c 73 72 e3 bc 74 70 b0 bc
       0.02139228 0.014221207 -0.027764535 -0.021537997
000330 6b cd a1 3d b4 53 0a 3e 4c a7 11 3e 91 1d 51 3e
       0.079005085 0.13508493 0.14223975 0.20421435
000340 d6 2f 85 3c 0d ce 44 3d 50 cb c2 bb c6 4e a6 bc
       0.016258162 0.048048068 -0.005944647 -0.020301234
000350 a9 b1 3e bd 16 fb ec 3d c2 34 5e 3d 3b 60 84 3d
       -0.04655615 0.11571328 0.054249533 0.06463667
000360 a8 20 aa 3d 96 b9 02 3e b0 29 35 be 2b b1 a3 be
       0.0830701 0.12766108 -0.17691684 -0.31971106
000370 5c f0 ba be cd ed a4 3d 0e a1 64 bc c8 b3 a6 3b
       -0.36511505 0.080531694 -0.013954414 0.0050873496
000380 fc 3c 4f 3d 1e dc 9e 3d c5 ea 68 3d cd f8 e3 bd
       0.05059527 0.07756828 0.05686452 -0.11131439
000390 50 4e 4a bb e8 0d d0 3d 8a 33 20 3d 66 97 9a 3c
       -0.0030869432 0.101589024 0.03911165 0.01887102
0003a0 79 70 88 3d 5f 0b f3 bd ba f5 62 3d 9f 6c ce 3c
       0.066620775 -0.11867403 0.055410124 0.025198279
0003b0 c3 46 46 3d 93 d7 18 bd f3 75 62 3c d1 b7 0a bd
       0.048407327 -0.037314963 0.013822067 -0.033866707
0003c0 77 6e e9 3b 6b 5d 89 3c 23 ba fc 3d 94 02 49 3d
       0.007123764 0.016768178 0.1234019 0.049074724
0003d0 6a 72 c1 bc b2 27 87 bd 6f 7c 10 bd 5a 80 72 b8
       -0.023614127 -0.06599368 -0.03527492 -5.7816833e-05
0003e0 d2 bd 54 3d 07 1b 90 3c 0c 3d f2 3c 52 45 4a 3d
       0.05193884 0.017591013 0.029570125 0.049382515
0003f0 5f 3e 0f bc ea 8d b5 be 4f 06 7b bc 9f e2 c8 3d
       -0.008742898 -0.35459834 -0.015321328 0.098088495

conv1d_1.bias f4 [64]
000000 2a c1 32 b8 24 ba 34 38 aa f3 ab 37 bd 42 d5 b6
       -4.2618405e-05 4.30887e-05 2.0498253e-05 -6.355664e-06
000010 2a df 5a 36 30 fe de 37 b0 0a f0 35 a0 20 15 b8
       3.261443e-06 2.6582828e-05 1.7884504e-06 -3.5554753e-05
000020 b7 fd ef b7 71 6d 9d 36 a1 b0 58 36 a1 62 38 b7
       -2.8609165e-05 4.6917053e-06 3.228932e-06 -1.09902185e-05
000030 bd c4 4f 38 16 22 c2 37 08 ea 9f 37 dd 55 18 37
       4.9535873e-05 2.3142475e-05 1.9063256e-05 9.079898e-06
000040 58 1b 08 b8 01 48 d0 b6 a1 c6 c2 b5 78 1b 83 b7
       -3.2450393e-05 -6.2072654e-06 -1.4511935e-06 -1.5629208e-05
000050 84 0f d9 37 a3 ed e4 b7 4a 31 a5 35 20 de 62 b7
       2.587564e-05 -2.7290376e-05 1.2307803e-06 -1.3522367e-05
000060 27 bf 8e 36 bb a6 98 38 e0 d7 1c 37 be c2 9a 35
       4.254183e-06 7.278981e-05 9.348587e-06 1.1530572e-06
000070 02 bc 06 38 95 9c 98 38 3f 3b 7a b7 69 e0 09 b7
       3.2123186e-05 7.2770905e-05 -1.49149555e-05 -8.218086e-06
000080 ad 10 10 b7 57 52 3c 38 ed d6 2a b8 1a e1 fc 37
       -8.5869515e-06 4.4899378e-05 -4.0731324e-05 3.0145562e-05
000090 ad 08 9c b6 e1 e4 e4 37 af 65 af b7 32 64 fa b7
       -4.6501723e-06 2.7286298e-05 -2.0908976e-05 -2.984898e-05
0000a0 db 6d fc 37 b9 8b 9c 37 a8 d3 cb b8 ec 68 bc 37
       3.0091896e-05 1.8661713e-05 -9.719218e-05 2.2460204e-05
0000b0 a8 da fc b7 14 1f 4a 38 0a 4e ac b7 de 1f c0 b6
       -3.014256e-05 4.8189497e-05 -2.0540338e-05 -5.7257557e-06
0000c0 f4 27 01 b7 7a d5 9c b7 2c 04 ab 37 12 be 22 38
       -7.6983015e-06 -1.8696057e-05 2.0386731e-05 3.8800827e-05
0000d0 55 ec 1e 38 5c d2 cc b8 a6 a9 12 b8 5d 08 42 b8
       3.7890237e-05 -9.7666605e-05 -3.496711e-05 -4.6260993e-05
0000e0 d0 38 09 38 f1 fb f2 37 bc 45 88 36 81 be 28 35
       3.2716256e-05 2.8965967e-05 4.061234e-06 6.2862097e-07
0000f0 07 a6 53 36 b9 78 7f b8 d2 4b 48 38 70 44 b0 b7
       3.153809e-06 -6.090917e-05 4.775433e-05 -2.1012704e-05

bn1d_1.weight f4 [64]
000000 e2 2e 57 3e 51 d1 7f 3e d6 e1 93 3d 7d b7 45 3e
       0.21013978 0.24982192 0.07220809 0.19308276
000010 72 0a 92 3e 47 37 82 3e 19 e7 a7 3e 37 21 eb 3e
       0.28523594 0.25432798 0.327935 0.45923778
000020 e1 4c a1 3e 69 02 15 3e d2 b7 0f 3e 38 64 50 3e
       0.31503966 0.145517 0.14034966 0.2035073
000030 fe bf b6 3e 53 cc b7 3e 63 8c 88 3e 78 4d ab 3e
       0.35693353 0.35898075 0.26669607 0.3345754
000040 86 ef 26 3e 1f 1e ac 3d 15 52 1f 3e f5 be a6 3d
       0.16302308 0.08404183 0.15558656 0.08141891
000050 f4 85 23 3e f3 7e 82 3e 99 39 29 3e e5 1b 7b 3e
       0.15969068 0.2548748 0.16525878 0.2452236
000060 b1 e2 7c 3e d8 3f 59 3d c5 9d dc 3d ce 6b ea 3e
       0.24695851 0.0530394 0.1077228 0.45785373
000070 79 7f 77 3e d4 e6 00 3e 07 01 90 3d 93 da b6 3d
       0.2416972 0.12588054 0.07031446 0.089284085
000080 7b c0 b7 3e ea 88 5e 3e d8 ce e0 3d e9 c0 7d 3d
       0.35889038 0.21731916 0.10976952 0.06195155
000090 12 b7 01 3e c9 c8 08 3e a9 b6 b3 3d c2 5a 9a 3d
       0.12667492 0.13357843 0.08775074 0.07536842
0000a0 03 50 c8 3d c6 f2 d6 3e 48 76 87 3e c0 bb b8 3d
       0.09780886 0.41982096 0.2645743 0.090201855
0000b0 e4 a2 99 3e b0 b7 02 3f 2f 2b 6d 3e 4d 34 57 3e
       0.30007088 0.51061535 0.23161004 0.21016045
0000c0 ad b1 49 3e eb d4 9e 3e bd b1 36 3e 34 be fb 3d
       0.19696684 0.3102182 0.1784124 0.12292138
0000d0 b5 29 aa 3d c6 39 54 3e a3 02 3a 3e a6 94 80 3e
       0.08308736 0.20725164 0.18165068 0.2511341
0000e0 45 3b 3c 3e 2a 30 14 3e b9 69 c2 3e e1 2a f1 3d
       0.18381985 0.14471498 0.37971285 0.117757566
0000f0 e1 d7 05 3e 3c 20 c5 3d 24 ad 1a 3e 8a 43 cf 3e
       0.13070633 0.09625289 0.1510511 0.40481216

bn1d_1.bias f4 [64]
000000 bf 74 8f bd b1 db 02 be 90 71 de 3d 6a ee 88 3c
       -0.070046894 -0.12779118 0.10861504 0.016715247
000010 d8 72 f3 bd 49 31 60 bd f4 88 06 be 68 74 3f be
       -0.11887139 -0.054734502 -0.13138181 -0.18696749
000020 6e 89 2a be ab 3e de bc b3 4c 8f bd 7c c5 96 bc
       -0.16653988 -0.027129492 -0.06997051 -0.018404715
000030 39 e1 21 be 23 95 dc bd c6 56 0f be f0 3f 12 be
       -0.15808572 -0.10770633 -0.13997945 -0.14282203
000040 1f d1 e2 bd 13 82 41 3d ef 7a 3f bc 55 6d 1e bd
       -0.11075043 0.04724319 -0.0116870245 -0.038678486
000050 80 83 53 bd 6c ce 5e bd ef 19 22 be 07 6c 67 bd
       -0.05163908 -0.054396078 -0.15830205 -0.056499507
000060 d0 01 a5 bd 2e 47 d0 3d a9 e9 ea 3c 66 7c 0f be
       -0.08056986 0.101698264 0.028675871 -0.14012298
000070 17 4d ee bd 2f c9 00 be 91 0c 62 3d 57 e3 bd bd
       -0.116357975 -0.12576745 0.055187766 -0.09271877
000080 50 40 b6 bd 49 e5 a7 bd 66 9b 19 bd 65 c3 c2 3d
       -0.088989854 -0.081980295 -0.037501715 0.09509925
000090 32 e5 1b 3d 15 c6 6a 3d 95 d6 db 3d 0c fc 74 bc
       0.038060375 0.057317812 0.10734288 -0.014952671
0000a0 fc 87 6c be d7 d2 26 be fe 15 8e be 1a 0d 31 bd
       -0.23098749 -0.16291367 -0.27751154 -0.043225385
0000b0 e5 9e ad bd 42 a5 53 be ca 36 a9 bd 8d 0c aa bc
       -0.08477572 -0.2066851 -0.08262403 -0.020757938
0000c0 46 2a f7 bd 96 93 8d bd 86 a9 85 bc 73 a7 05 bd
       -0.1206861 -0.069129154 -0.016316187 -0.032630395
0000d0 51 79 e2 3d b0 7d 2f bd f8 46 0b bd c5 33 ae bc
       0.110582955 -0.042844474 -0.034003228 -0.02126492
0000e0 29 70 8c be 1c ce 22 bd 9e 60 39 be c6 70 5f be
       -0.2742932 -0.039747342 -0.18103263 -0.21820363
0000f0 4e 9e 15 3d c6 7c 9c bd ac 91 9b bd d4 b8 27 be
       0.036527924 -0.07640986 -0.07596144 -0.163791

bn1d_1.running_mean f4 [64]
000000 0b 36 0d bb 00 a6 8e bb 9c 6b 1f ba f5 7b bc bb
       -0.0021547105 -0.004353285 -0.00060814037 -0.0057520815
000010 40 6f 04 bb 3b 55 c2 bb 58 6f 50 bb f7 98 37 bb
       -0.0020207912 -0.0059305704 -0.0031804647 -0.0028014758
000020 69 cd be ba 5e 04 27 ba 03 69 11 bb 7c fd 1b bb
       -0.0014557067 -0.0006371195 -0.0022187836 -0.0023802212
000030 d5 f8 3d bb 73 91 b4 bb 39 39 0d bb 20 01 d1 ba
       -0.0028987427 -0.005510503 -0.0021549 -0.001594577
000040 e4 ff 83 bb 37 aa 97 bb 94 cb 20 bb f6 fa 36 b9
       -0.0040283073 -0.0046284455 -0.0024535405 -0.00017450363
000050 dc 1d 1c bb d1 bb 9d bb 1d 4e 07 bb 39 07 ac bb
       -0.0023821509 -0.004813649 -0.0020645924 -0.0052498844
000060 d2 04 06 bb 61 56 14 39 26 9c 0a bb aa db 6b bb
       -0.002044965 0.00014146559 -0.00211502 -0.0035989084
000070 e0 0b b1 ba 2a 96 13 bb db f1 27 bb 12 ea 74 3a
       -0.0013507567 -0.0022519925 -0.0025626335 0.00093427405
000080 e8 20 b7 bb 0c 45 be ba 02 13 ca ba b3 3a e3 39
       -0.0055886395 -0.0014516427 -0.0015417042 0.00043340548
000090 af 5a 17 3a 14 6e e0 ba f0 fb 9c ba dd 99 09 bb
       0.0005773706 -0.001712265 -0.0011976939 -0.002099625
0000a0 7b db 17 3b 50 6c 61 bb f4 00 06 bc 68 b5 fe ba
       0.0023171592 -0.0034396835 -0.008178938 -0.0019432725
0000b0 52 87 9d bb bf 7a 2b bb ff 36 9a ba f9 20 fb ba
       -0.004807391 -0.0026165692 -0.0011765658 -0.0019159607
0000c0 9e 35 29 bb 04 03 0b bb 70 3d 05 bb a8 da bb bb
       -0.0025819312 -0.0021211514 -0.002033081 -0.005732853
0000d0 48 81 4d ba e9 d0 2f bb d6 02 a4 ba 91 a9 e1 ba
       -0.0007839394 -0.00268274 -0.0012513052 -0.0017216672
0000e0 96 f0 c3 bb ae 01 ce ba 66 ec 0d bb a0 04 81 bb
       -0.005979608 -0.0015717053 -0.0021655797 -0.003937319
0000f0 38 2d c5 b9 01 7d 11 3b 77 73 c5 ba e2 0a 2e bb
       -0.0003760846 0.0022199752 -0.0015064318 -0.002655678

bn1d_1.running_var f4 [64]
000000 ae cd e5 3e b2 3a c9 3e ab 8d a4 3e 32 c1 2e 3f
       0.44883484 0.39302593 0.32139334 0.6826354
000010 92 b4 c0 3e 07 28 54 3f 11 0b b6 3e 82 c0 52 3f
       0.37637764 0.82873577 0.35555318 0.82324994
000020 a8 fa 59 3e bf eb 6a 3e a9 58 9a 3e 25 4a 77 3e
       0.21287024 0.22941492 0.30145767 0.24149378
000030 d6 42 5e 3f e5 67 7d 3f 80 93 a9 3e f9 ce 43 3e
       0.86820734 0.98986655 0.33120346 0.19121923
000040 de dc ea 3e cd bd 8e 3e 12 5f 4d 3e 9f e9 8e 3e
       0.45871633 0.27879182 0.20055798 0.27912614
000050 2e d9 b2 3e ae 45 37 3f fc a1 b6 3e b2 78 82 3f
       0.3493132 0.715907 0.3567046 1.0193083
000060 4d ca 89 3e f1 7a 51 3e 85 13 7d 3e fb 8f 4e 3f
       0.26912156 0.20457055 0.24714477 0.80688447
000070 f5 36 d9 3d f5 81 1e 3e 46 79 13 3e 7e cb 53 3e
       0.10606185 0.15479262 0.14401731 0.20683095
000080 c4 4d 59 3f 52 ea 6e 3f 5f 7c 03 3e 00 11 7b 3e
       0.84884286 0.93326294 0.12840413 0.24518204
000090 c2 61 58 3e cc 0d b6 3e b7 99 be 3e 97 47 f7 3d
       0.21131042 0.355574 0.3722665 0.120742016
0000a0 6f 7b d2 3e 88 a8 35 3f 32 f8 a5 3e 02 4f 8e 3d
       0.41109797 0.70960283 0.3241592 0.06948663
0000b0 49 60 68 3f d7 9b 50 3f 83 51 0b 3e fa 09 9f 3e
       0.9077192 0.8148779 0.13605313 0.310623
0000c0 27 33 f6 3e 87 da 17 3f a4 8f 12 3f a4 11 0a 3f
       0.480859 0.5931782 0.5725043 0.5393317
0000d0 74 ed de 3e bf cd a7 3e 7b b8 b7 3e 40 5e c0 3e
       0.43540537 0.3277416 0.35882935 0.37571907
0000e0 bf 1f 98 3e 1f c1 c5 3e 86 e3 76 3e f5 2c 50 3e
       0.2971172 0.38623902 0.24110231 0.2032965
0000f0 bd 74 6c 3e 57 0e a8 3e 61 39 f3 3e 1a 68 41 3f
       0.23091407 0.3282344 0.47504714 0.7554947

conv1d_2.weight f4 [64, 64, 3]
000000 63 47 c8 a9 0a b8 8d aa 1e 6d be 2a 63 86 de 27
       -8.894168e-14 -2.5174334e-13 3.3826495e-13 6.176308e-15
000010 4f 5f 90 2a 42 3b 5f aa 74 bb cd 29 79 a6 22 ab
       2.5645672e-13 -1.9826938e-13 9.136347e-14 -5.778499e-13
000020 e7 2e 6d 28 0a 2a 6a a9 c2 32 72 a8 10 87 c6 a8
       1.3166313e-14 -5.19949e-14 -1.3444705e-14 -2.204099e-14
000030 79 67 05 2b e0 45 2c 2a 1d 17 39 a8 60 74 32 29
       4.739469e-13 1.5300912e-13 -1.0274575e-14 3.962488e-14
000040 44 6b 23 aa 30 55 55 2a 76 91 3d 29 e9 da 61 a7
       -1.4514523e-13 1.8947756e-13 4.2092598e-14 -3.1343694e-15
000050 23 a2 82 a7 4d f0 32 a6 9c 3f bd a7 c8 fd f8 a8
       -3.6258037e-15 -6.2081824e-16 -5.2527003e-15 -2.7643591e-14
000060 36 64 40 a8 a7 2a d5 28 3c d7 82 29 4a 87 1c 2a
       -1.0679871e-14 2.3666248e-14 5.810497e-14 1.3902521e-13
000070 97 78 cc 28 c3 25 c0 29 84 d8 da aa d4 3b d1 aa
       2.2700847e-14 8.5330634e-14 -3.8874817e-13 -3.7167372e-13
000080 e4 3a ce 2a c7 92 34 ab 2e 4a 90 2a 49 58 33 aa
       3.6633814e-13 -6.415254e-13 2.563101e-13 -1.5929024e-13
000090 54 c5 95 a8 8b 94 02 28 58 99 d5 28 39 8d 58 27
       -1.66279e-14 7.24866e-15 2.3714253e-14 3.0052579e-15
0000a0 8d e7 24 2a a1 8d 85 a9 9d b3 cf a9 2d a3 0c a9
       1.4646461e-13 -5.930955e-14 -9.2238046e-14 -3.1227777e-14
0000b0 b5 53 a3 a9 ff 08 53 28 1e 00 e5 a7 e7 1d bf 28
       -7.253175e-14 1.1714804e-14 -6.3560395e-15 2.1218228e-14
0000c0 ad 8a 69 a7 8d fa ab 28 81 89 19 aa 99 71 02 28
       -3.2410422e-15 1.9093473e-14 -1.3636836e-13 7.241082e-15
0000d0 5f cc 74 27 ed ca e2 a7 14 06 cc 28 01 96 b6 27
       3.3972592e-15 -6.2947613e-15 2.2651186e-14 5.0677782e-15
0000e0 18 97 a8 29 ab b8 86 2a e8 a5 92 2a 80 de 8c 2a
       7.486909e-14 2.393132e-13 2.604993e-13 2.5023386e-13
0000f0 51 ac dd 28 84 ac 14 26 9e 40 85 28 19 22 af a7
       2.461066e-14 5.1581617e-16 1.479399e-14 -4.8609226e-15
000100 ca 27 e6 2a 74 d0 ed 2a d9 dd a6 29 f2 82 71 29
       4.0883817e-13 4.22443e-13 7.410365e-14 5.3626327e-14
000110 1d 07 ff 28 f1 fd ae aa f6 ea b7 aa aa 6c 26 2a
       2.8313772e-14 -3.1084816e-13 -3.2670367e-13 1.4781462e-13
000120 0e 92 ac 29 91 16 f5 a7 2f 1e 99 29 8c cf 9f a9
       7.663671e-14 -6.8025627e-15 6.799801e-14 -7.097022e-14
000130 39 89 19 a9 bc 6b 99 a9 e7 bd ef aa d7 b7 73 29
       -3.4091846e-14 -6.813254e-14 -4.25867e-13 5.4116295e-14
000140 72 03 ee aa 19 0e c8 a8 d5 3c 1c a8 45 80 eb a7
       -4.2279683e-13 -2.2210574e-14 -8.6729304e-15 -6.5364673e-15
000150 65 45 4f 28 fe 54 ea a9 39 6c b7 a9 8a c5 dd 29
       1.1505856e-14 -1.0406431e-13 -8.145606e-14 9.848639e-14
000160 4a f1 32 29 c1 79 a5 29 29 fb b0 aa 5c 91 85 a7
       3.9733225e-14 7.348593e-14 -3.1438158e-13 -3.7072515e-15
000170 97 9c 69 26 9b c4 d2 a7 29 9a 07 29 a1 cb 01 29
       8.1050333e-16 -5.849987e-15 3.0109734e-14 2.8820374e-14
000180 fc ca 7a a9 9a 50 25 aa 98 6e cd 2a 2b da 4f aa
       -5.5687212e-14 -1.4682908e-13 3.6492055e-13 -1.8460986e-13
000190 cd c7 02 aa ff 3e 94 aa e5 4d 8e 2a a7 32 61 aa
       -1.1615639e-13 -2.6333794e-13 2.5278317e-13 -2.0001588e-13
0001a0 ec 0c 37 aa 19 b3 10 29 43 11 83 a8 04 5c 40 29
       -1.6258148e-13 3.2129766e-14 -1.4551408e-14 4.2712375e-14
0001b0 b7 a7 3a a9 69 5b ed 28 42 db 2c 2a 31 35 51 2a
       -4.1445766e-14 2.6351929e-14 1.5352739e-13 1.8581383e-13
0001c0 37 ee 3d a8 6c 31 21 a9 d3 1f a8 aa 21 e5 a1 2a
       -1.0543262e-14 -3.5792048e-14 -2.9864877e-13 2.8758335e-13
0001d0 d8 9c c0 aa df e1 f2 28 f5 a8 90 aa 82 1f 0a 2a
       -3.4214884e-13 2.6965353e-14 -2.5696776e-13 1.2267794e-13
0001e0 6b fc 54 aa 16 eb 4a aa 50 e1 34 aa 82 28 4e a9
       -1.8916958e-13 -1.8022766e-13 -1.6065383e-13 -4.5776324e-14
0001f0 f5 26 ee a8 f2 a7 20 a8 1c f8 08 2a ba de 85 a9
       -2.6440203e-14 -8.9182015e-15 1.2165307e-13 -5.9450234e-14
000200 59 92 7b a8 c6 bd 71 a8 f4 f4 87 aa b7 ad e8 27
       -1.3965033e-14 -1.3419338e-14 -2.4150788e-13 6.4581277e-15
000210 43 54 6b 29 8e 6f 34 2a 6d fe 0c 2a 60 94 8d a9
       5.2253568e-14 1.6025915e-13 1.252277e-13 -6.287397e-14
000220 71 57 e1 a9 0c 0e d1 a8 68 40 3d a9 4d db 83 a9
       -1.0007176e-13 -2.3209753e-14 -4.2022294e-14 -5.855611e-14
000230 67 d1 3c a9 a1 20 ca a9 4b 89 64 29 ba fa b0 a9
       -4.1926013e-14 -8.976262e-14 5.0745253e-14 -7.859464e-14
000240 c1 fe 5b aa cd 35 24 2a 26 97 ce a8 01 96 9f a7
       -1.9539493e-13 1.4584792e-13 -2.2936144e-14 -4.4294e-15
000250 06 51 87 a9 cb bc 96 27 b7 82 4f 2a b7 0d bf 2a
       -6.0092597e-14 4.1838053e-15 1.8430644e-13 3.3937932e-13
000260 5f 97 00 ab 78 f7 b3 28 5f 18 44 2a b3 41 7b 29
       -4.5684805e-13 1.9980315e-14 1.7416752e-13 5.579018e-14
000270 61 eb d7 28 0f 8d 14 29 ce 6d 05 a9 72 26 a1 28
       2.3971874e-14 3.298495e-14 -2.9627173e-14 1.7891264e-14
000280 ca 74 c3 29 a0 60 51 2a e7 d5 54 2a ae 9e 92 aa
       8.679999e-14 1.8596453e-13 1.8903595e-13 -2.6044916e-13
000290 fb 17 a2 2a 9e 34 9c 2a 67 f8 5c 29 58 11 64 a9
       2.879362e-13 2.7747677e-13 4.9065268e-14 -5.0641213e-14
0002a0 f1 99 09 2a 10 75 08 a9 41 bc 0e a9 6c 07 b9 aa
       1.2221454e-13 -3.0299602e-14 -3.1693618e-14 -3.2867751e-13
0002b0 32 39 7d 2a 15 50 9f a8 4a f8 b1 a7 9e 69 9b a8
       2.2490758e-13 -1.7687276e-14 -4.9396564e-15 -1.7254261e-14
0002c0 7f e1 94 26 cd 1a 41 26 ec 05 d7 a8 86 98 2d a9
       1.0330684e-15 6.699665e-16 -2.3872363e-14 -3.854601e-14
0002d0 19 2a c2 aa 01 6b c0 aa 1c 77 fc 29 32 ec 84 2a
       -3.4490534e-13 -3.41803e-13 1.121171e-13 2.3611804e-13
0002e0 65 be 70 2a 3e 94 83 2a f9 fa 85 aa 13 d7 71 aa
       2.1382338e-13 2.3373138e-13 -2.3799693e-13 -2.1479719e-13
0002f0 0f 99 28 aa 18 69 96 29 4d 9a 09 2a 0b 93 f1 28
       -1.49745e-13 6.679569e-14 1.2221578e-13 2.6820145e-14
000300 d8 1b 00 80 a9 1b 00 00 b6 1b 00 80 c2 1b 00 80
       -9.988e-42 9.923e-42 -9.941e-42 -9.958e-42
000310 7f 1b 00 80 af 1b 00 00 6c 1b 00 00 b8 1b 00 80
       -9.864e-42 9.931e-42 9.837e-42 -9.944e-42
000320 b4 1b 00 80 91 1b 00 00 ef 1a 00 00 54 0c 00 00
       -9.938e-42 9.889e-42 9.662e-42 4.422e-42
000330 9e 1b 00 00 a5 1b 00 80 90 9c 02 09 97 1b 00 80
       9.907e-42 -9.917e-42 1.5721796e-33 -9.897e-42
000340 f2 1b 00 80 89 1b 00 00 81 1b 00 00 9c 1b 00 80
       -1.0025e-41 9.878e-42 9.867e-42 -9.904e-42
000350 b2 1b 00 80 64 1b 00 80 ca 1b 00 00 73 1b 00 00
       -9.935e-42 -9.826e-42 9.969e-42 9.847e-42
000360 dd be 00 08 82 1b 00 00 99 1b 00 00 c2 0d 00 80
       3.8742958e-34 9.868e-42 9.9e-42 -4.935e-42
000370 6d 1a 00 00 60 0e 00 80 c0 d3 a7 15 91 8f 2b 0f
       9.48e-42 -5.157e-42 6.7784845e-26 8.458601e-30
000380 39 c0 3a 82 c7 1b 00 00 e6 1b 00 80 72 1b 00 00
       -1.3720287e-37 9.965e-42 -1.0008e-41 9.846e-42
000390 9e 1b 00 00 30 1c 00 00 aa 1b 00 00 59 1c 00 80
       9.907e-42 1.0112e-41 9.924e-42 -1.0169e-41
0003a0 b0 1b 00 80 ea 23 00 00 d3 1b 00 00 f3 1b 00 80
       -9.932e-42 1.2884e-41 9.981e-42 -1.0026e-41
0003b0 f5 1b 00 00 e3 1c 00 80 bf 1f 00 80 a2 1b 00 00
       1.0029e-41 -1.0363e-41 -1.1388e-41 9.913e-42
0003c0 e4 89 3d 00 77 2f 57 00 15 d8 36 80 60 1b 00 00
       5.651431e-39 8.006715e-39 -5.036632e-39 9.82e-42
0003d0 fe b6 10 01 79 15 00 80 e8 1b 00 80 5d 1b 00 80
       2.6579913e-38 -7.703e-42 -1.0011e-41 -9.816e-42
0003e0 f0 1f 00 00 12 23 00 80 7f 83 00 80 66 1b 00 80
       1.1457e-41 -1.2581e-41 -4.7172e-41 -9.829e-42
0003f0 a1 1b 00 00 ec 1b 00 00 e1 1b 00 80 a9 1b 00 00
       9.911e-42 1.0016e-41 -1.0001e-41 9.923e-42

conv1d_2.bias f4 [64]
000000 c6 d3 40 2b ec f6 1a 2e 19 ca 80 b1 f4 c9 a0 31
       6.8506e-13 3.5234857e-11 -3.748266e-09 4.6795723e-09
000010 ea 39 46 32 3c 08 d7 a9 47 96 56 b7 85 d9 b4 37
       1.1538285e-08 -9.5493464e-14 -1.2790383e-05 2.1558963e-05
000020 ba be f5 b7 d0 88 ba 38 12 2b 79 36 d5 97 fe 38
       -2.929509e-05 8.8946545e-05 3.7128962e-06 0.00012139945
000030 e8 aa d5 b7 2c 1b 4f 32 96 92 e4 b7 03 51 74 37
       -2.5471163e-05 1.2055164e-08 -2.7247977e-05 1.4562395e-05
000040 14 d7 ac 38 9e 81 9f 35 63 b5 da 34 13 cc 02 38
       8.2416605e-05 1.1884147e-06 4.073764e-07 3.1184474e-05
000050 61 44 05 b8 92 fd 8e b5 e5 d5 88 b2 1c fc 89 b8
       -3.1773354e-05 -1.0653623e-06 -1.5929752e-08 -6.579628e-05
000060 51 82 a0 b7 79 c0 f8 2b b8 c5 83 2f cc f7 92 29
       -1.913417e-05 1.7674882e-12 2.396925e-10 6.5266884e-14
000070 eb 41 2f ac 51 6d e6 38 75 9f eb 38 9a 05 56 b1
       -2.4905588e-12 0.000109876164 0.000112353744 -3.1144283e-09
000080 bb 04 3b b7 f2 9f 7d b4 dc 16 84 b8 61 03 14 b8
       -1.114717e-05 -2.3620649e-07 -6.2985084e-05 -3.5289097e-05
000090 40 b6 29 38 5f de 0b ae 0a 92 3b 33 b5 2e 69 b8
       4.0462473e-05 -3.1802446e-11 4.3672152e-08 -5.559503e-05
0000a0 a1 0d 95 ad 44 41 14 ab d6 8e f9 b8 0d 54 0b b9
       -1.6945391e-11 -5.2670737e-13 -0.000118998505 -0.00013287384
0000b0 f4 5f a8 37 70 dc 09 b2 3a 26 be 2c 89 6e 58 b7
       2.0071842e-05 -8.024571e-09 5.404369e-12 -1.2900339e-05
0000c0 71 b9 91 2c 83 39 87 2d 61 5f b3 b4 0b c6 91 b7
       4.141736e-12 1.5373263e-11 -3.3410745e-07 -1.7377568e-05
0000d0 82 51 61 b7 87 f7 15 b8 f7 6e e8 37 49 1f 23 38
       -1.3430023e-05 -3.5754896e-05 2.7708227e-05 3.8891365e-05
0000e0 52 04 52 b8 d2 63 90 31 49 aa 29 30 7e 3c 90 b5
       -5.0071925e-05 4.2023e-09 6.172383e-10 -1.0746442e-06
0000f0 d0 4b 8d 27 df a2 3a 2e 9d 08 63 b8 3b 18 f0 2d
       3.9217558e-15 4.2436162e-11 -5.412904e-05 2.7295602e-11

bn1d_2.weight f4 [64]
000000 8d 17 5d ac 1c 4c 12 39 8a 4a 21 91 71 c1 b1 38
       -3.1419062e-12 0.00013951998 -1.272363e-28 8.476049e-05
000010 ad 57 11 39 50 39 01 00 ad f3 ac 3e 0b 51 25 3f
       0.0001386094 1.12395e-40 0.3377966 0.64576787
000020 93 1b 00 00 58 84 6e 3f fc 9e 93 35 b6 09 50 3f
       9.892e-42 0.9317069 1.0998624e-06 0.8126482
000030 ed 9f 05 b7 5d 1b 00 80 25 7f dc 3e 92 52 92 3b
       -7.964653e-06 -9.816e-42 0.43065754 0.0044654096
000040 df 96 3b 3f 1b 52 fa 3b f6 3c 7a 26 9c 52 76 3f
       0.73277086 0.0076391823 8.681879e-16 0.962198
000050 88 d6 0d 3f 52 84 c5 9c 9b 8f 89 13 0b cf 9f 2a
       0.55405474 -1.307057e-21 3.4725268e-27 2.838774e-13
000060 67 8f 76 3f 74 1b 00 00 f3 2c 57 bb 1e 17 38 97
       0.96312565 9.848e-42 -0.0032833188 -5.9482785e-25
000070 90 1b 00 00 64 07 58 3f f1 16 3a 3f 7e 1b 00 80
       9.888e-42 0.8438628 0.72691256 -9.862e-42
000080 d4 cd 14 3e 05 79 c5 bb 6c c4 1d 3c 63 3c b3 a7
       0.14531642 -0.0060263895 0.00962935 -4.974795e-15
000090 42 b5 31 3f 7b 1b 00 00 67 b7 b0 37 50 d0 63 3f
       0.694172 9.858e-42 2.1066238e-05 0.88989735
0000a0 57 22 97 1d ad 42 9f ba 32 71 83 3f e3 bc 7f 3f
       4.0004874e-21 -0.0012150608 1.026892 0.99897593
0000b0 01 f7 16 bc dd b2 71 2d 7d 06 57 2a ea 3f ae 3d
       -0.009214164 1.373898e-11 1.9098087e-13 0.085082844
0000c0 37 32 39 83 7f 1b 00 00 ce 6b 9b 3d a3 d8 7a 3d
       -5.4424258e-37 9.864e-42 0.075889215 0.061241757
0000d0 6a da 9a 3d 1f 70 4a 3e c9 62 81 3e 61 fd ed 3e
       0.075611904 0.19769333 0.2527068 0.46482375
0000e0 4d d4 33 3f 1b f8 ad 2b 4f dc 45 a7 5a 47 81 3f
       0.7024582 1.2361252e-12 -2.7458672e-15 1.00999
0000f0 81 1b 00 00 20 41 87 2f d3 6a 91 3f c7 a0 ec 23
       9.867e-42 2.460263e-10 1.1360725 2.5655263e-17

bn1d_2.bias f4 [64]
000000 fe d8 7d bc 94 5a 03 b7 ef b4 9c a4 69 81 e0 ba
       -0.0154936295 -7.829298e-06 -6.796073e-17 -0.0017128411
000010 a2 f1 b6 b6 0b 21 82 a8 d7 ca c1 3d 8b d7 d4 be
       -5.4521524e-06 -1.444723e-14 0.09462517 -0.41570696
000020 b1 cc f8 80 e2 ce 8d 3e ef fa fa b3 02 37 36 3d
       -2.2848632e-38 0.27696902 -1.1687177e-07 0.044486053
000030 23 2a b9 b7 19 9c 14 96 95 a2 27 be 7c 9c 9c ba
       -2.207334e-05 -1.20046e-25 -0.16370614 -0.0011948491
000040 53 44 a3 be 4a 22 36 bb dc 0a 72 a5 b4 57 4d bc
       -0.31888065 -0.0027791434 -2.0993833e-16 -0.012533117
000050 22 51 06 bf 26 eb 18 a5 4c 46 33 8c d6 b0 17 b0
       -0.5246755 -1.326357e-16 -1.3810813e-31 -5.518478e-10
000060 36 68 18 bf df fc 18 8d 9e 5c 20 bc cb bb 53 34
       -0.59534013 -4.7143e-31 -0.009787707 1.9719225e-07
000070 a7 7a 10 00 eb 85 2a be b8 f4 b9 bd e2 1b 00 80
       1.513367e-39 -0.16652648 -0.090798795 -1.0002e-41
000080 01 31 5c bd 5f 56 fb 3e 3c cb 19 bc c0 5d 77 aa
       -0.05375767 0.49089333 -0.009386834 -2.1970533e-13
000090 84 31 9a be aa 1b 00 80 b2 76 8e b7 32 8d de be
       -0.30115902 -9.924e-42 -1.6982991e-05 -0.43467098
0000a0 e9 f5 25 b0 fe 48 2a ba 9f 69 a3 3e 58 a3 75 3e
       -6.037611e-10 -0.0006495862 0.3191652 0.23988092
0000b0 a8 f0 4f 3e 58 7a 98 9c 01 32 d6 a8 00 a8 a5 3b
       0.20306647 -1.0090141e-21 -2.3780458e-14 0.0050554276
0000c0 22 8a 22 9d 97 1b 00 80 85 63 c4 bd ee 3d 43 bd
       -2.1511934e-21 -9.897e-42 -0.09589294 -0.047666483
0000d0 b1 cc c9 bc 58 5a d7 bd b9 78 0c 3f ea af ad bd
       -0.024633737 -0.105152786 0.5487171 -0.084808186
0000e0 3a 30 e0 bd 2a 2b 25 9d be db 77 bd 33 90 dd be
       -0.109466985 -2.1859883e-21 -0.060512297 -0.43274078
0000f0 5f 1b 00 80 e7 d1 b9 a2 45 3c ea be 4a 11 22 ba
       -9.819e-42 -5.0366593e-18 -0.45749107 -0.0006182386

bn1d_2.running_mean f4 [64]
000000 fe f4 0a a9 c4 24 df ab fa 25 70 2f 81 1f 6f af
       -3.0854652e-14 -1.5855308e-12 2.1841365e-10 -2.1748116e-10
000010 da 7c e5 30 b6 fc 0a 28 d2 3f 8b 3c b3 64 9d bd
       1.6697428e-09 7.715337e-15 0.016998205 -0.076852225
000020 2a 48 eb 35 21 46 fc bd df 9f 36 b3 bb 28 1d be
       1.7529867e-06 -0.123180635 -4.252058e-08 -0.15347569
000030 10 d3 d8 35 07 0b 15 b0 09 a2 72 bd 6b 15 b3 b8
       1.6154681e-06 -5.4221555e-10 -0.05923656 -8.5393745e-05
000040 89 ea e9 bc 2b f8 37 ba 89 4e c0 b2 b6 b6 97 bd
       -0.028554218 -0.0007017876 -2.2387455e-08 -0.07407896
000050 0b 50 23 3e cf 4c 2a 33 03 45 48 30 cf f6 95 36
       0.15948503 3.9651066e-08 7.285765e-10 4.4692783e-06
000060 23 e0 b2 bd 33 94 b9 a9 56 0f a3 2e bd 5e 6c a7
       -0.08734157 -8.241359e-14 7.415106e-11 -3.2802937e-15
000070 1f 91 9e a9 b3 e2 f2 3c b7 c4 69 be a5 c6 15 2f
       -7.041784e-14 0.029649114 -0.22828947 1.3622044e-10
000080 e6 b0 2b 3c b6 e0 21 3d ab 07 4f 3a c4 85 fd 35
       0.010479188 0.03952094 0.0007897566 1.88889e-06
000090 88 72 98 bd 43 08 f6 2b 1a 49 4a b0 b6 0e 1f bd
       -0.0744372 1.7481644e-12 -7.3591055e-10 -0.03883239
0000a0 43 18 6b 2c 8b bd fe 28 dc db 2e be 92 d2 97 bd
       3.3408977e-12 2.8281866e-14 -0.17076057 -0.0741321
0000b0 1b 1f f4 3c d4 03 cb 2f 02 54 93 aa a9 25 3b bc
       0.029799988 3.6928205e-10 -2.6170738e-13 -0.011422553
0000c0 5d 76 79 aa 59 4e 4e ab 3b 9c bc bc 80 e8 cc bb
       -2.2156708e-13 -7.329463e-13 -0.023023715 -0.006253302
0000d0 97 22 84 bc 57 d3 06 bc 7c c8 74 3d 7a fd 91 bd
       -0.016129775 -0.008229098 0.05976151 -0.07128425
0000e0 93 e7 98 3d dd f3 16 ae d2 a9 fb ad ab e7 f5 bd
       0.07466044 -3.4322645e-11 -2.8610812e-11 -0.12007078
0000f0 b7 68 5b a5 54 77 c6 ab a5 f1 43 bd 58 68 cd ab
       -1.9030701e-16 -1.4101866e-12 -0.047837872 -1.4595087e-12

bn1d_2.running_var f4 [64]
000000 e1 2b 6b 17 2d 98 9e 06 37 02 20 0d 37 c4 51 0a
       7.598798e-25 5.9656597e-35 4.9306473e-31 1.0099888e-32
000010 79 b7 37 24 3d 4e 4b 00 1c c8 fa 3a ce 50 31 3c
       3.9837207e-17 6.915729e-39 0.0019133124 0.010822488
000020 a3 2a 0d 19 16 c5 77 3c af 7b 90 17 c1 62 59 3c
       7.2981396e-24 0.015122673 9.337004e-25 0.013268174
000030 8f 25 9b 18 f8 61 27 0b 6b 2c 34 3b 0b c5 88 31
       4.0104485e-24 3.2236734e-32 0.0027492295 3.980522e-09
000040 8d 77 a3 3b ad 46 19 35 5c 38 56 13 e3 00 07 3c
       0.004988617 5.709979e-07 2.7038385e-27 0.0082399575
000050 35 df 1c 3c ff 2d 20 15 9a e3 b5 0b 37 d7 43 1a
       0.009574701 3.2348027e-26 7.006112e-32 4.0498904e-23
000060 db 4d 3f 3c b6 c3 81 02 b6 e2 57 22 e3 10 00 00
       0.011676277 1.906718e-37 2.9257953e-18 6.058e-42
000070 80 49 7a 05 d1 45 13 3c fe 3e 15 3c 6a 48 11 0d
       1.1768443e-35 0.0089888135 0.009109257 4.476874e-31
000080 a2 7e e0 3a 53 2b 91 3a 74 8b 78 35 cf 78 1f 19
       0.0017127583 0.0011075534 9.259013e-07 8.2445044e-24
000090 60 97 d1 3b 99 7e 33 06 f8 d3 41 21 08 9d 3f 3c
       0.006396219 3.3759167e-35 6.567148e-19 0.011695154
0000a0 4a 49 fb 08 3f 61 57 00 5e c7 96 3c 77 b0 79 3c
       1.5123743e-33 8.024573e-39 0.018405613 0.015239826
0000b0 38 77 2a 3a a7 e0 ea 0a 43 9c 51 00 c7 46 25 39
       0.00065027503 2.2617885e-32 7.494731e-39 0.00015761993
0000c0 e0 d1 43 03 78 64 ad 00 48 3f 3e 3a c8 53 24 39
       5.7546274e-37 1.5923582e-38 0.00072573544 0.0001567147
0000d0 2d 4b a0 39 22 7e 54 3a ab 54 a0 3b d4 50 99 3b
       0.00030573588 0.00081059535 0.0048929057 0.004678825
0000e0 7a ee 20 3c b9 c5 c3 0e 0c 73 b0 10 f8 86 4c 3c
       0.009822482 4.826161e-30 6.959702e-29 0.012483351
0000f0 50 0b 00 00 02 6f c0 07 68 3c 49 3c 46 67 1f 06
       4.058e-42 2.8954194e-34 0.012282468 2.998045e-35

gat_layers.0.att_src f4 [1, 4, 16]
000000 b9 1c fc be 6b ae 8a bd 58 50 53 bd eb 48 f1 3c
       -0.49240664 -0.06771549 -0.051590294 0.029453715
000010 d2 20 db bd 8b db a2 3e c8 c4 77 3d 34 fb 0c 3e
       -0.10699619 0.31808123 0.0604904 0.13767701
000020 e3 56 6e be 2e 63 e6 bf ce 2f 04 3d 55 cd ba be
       -0.23275332 -1.7999017 0.032272153 -0.3648478
000030 52 62 24 bf bf a1 cf be 48 ec d5 3d 25 de e9 3d
       -0.64212525 -0.4055309 0.10445458 0.11419324
000040 39 13 27 be a5 1e 9f be e6 f9 0d be d1 1b 9f bf
       -0.16315927 -0.31078067 -0.1386486 -1.2430364
000050 99 10 0f 3d bb 7a 4c 3e d8 6f 4d 3e 61 0e 37 be
       0.034927938 0.19968693 0.20062196 -0.17876579
000060 1d 03 82 3e 7b ed 5e 3e 50 20 5b 3e 32 a8 b6 be
       0.25393 0.21770279 0.21399045 -0.35675198
000070 93 77 55 bf 26 0b 63 be 65 ce 31 be 1b b0 81 3e
       -0.8338558 -0.22172222 -0.1736389 0.2532967
000080 cb 0a 5f 3e 51 8d f1 3c d1 3e 60 3e a3 41 c7 bd
       0.21781461 0.02948633 0.21898963 -0.09729316
000090 de 58 3e be 95 3e 83 3e c5 23 9e be 06 eb 2d be
       -0.18588588 0.25633684 -0.30886665 -0.16984186
0000a0 15 32 b2 bd d4 bd a4 3e ec a6 eb bd 27 53 56 3e
       -0.08700959 0.32176077 -0.11506447 0.20930158
0000b0 c3 94 95 3e 07 fc b5 3f 80 73 bd be e1 4a a2 be
       0.2921506 1.4217538 -0.37002182 -0.31697753
0000c0 ff 57 d1 3e ee a3 ed 3e 46 5a 23 be 82 f3 b6 be
       0.40887448 0.4641413 -0.15952405 -0.35732657
0000d0 dd 2a f7 3e 1f 10 3c be 82 a5 a1 bf 12 8b 21 be
       0.4827489 -0.18365525 -1.2628634 -0.15775707
0000e0 75 9e 8b 3f 50 cd ed bd 97 9c b4 3e a2 f6 bb be
       1.0907732 -0.11611426 0.3527572 -0.36711603
0000f0 ef cf 90 be 85 e6 0a be a2 0a d5 3e e6 9e c9 3e
       -0.2828364 -0.13564499 0.41609675 0.39379042

gat_layers.0.att_dst f4 [1, 4, 16]
000000 cd d9 e4 3d 7b dc 65 3d 5d db 62 3c 0c 99 cc bc
       0.11174355 0.05611847 0.013846246 -0.024975322
000010 40 78 56 bc 9e 6f 3d bc 59 fd 95 bd 81 6b 5a bc
       -0.013090193 -0.011562256 -0.07323713 -0.013331295
000020 74 9d 26 bc e0 91 16 bb 1c 13 29 3d b9 b6 e5 3d
       -0.010169376 -0.0022975132 0.04127799 0.11216492
000030 2b f0 d8 3d 2f eb ce 3d 9a ef 8b 3b 7d 02 5f bb
       0.105926834 0.101034515 0.004270506 -0.0034028583
000040 fb 77 06 3d 8a 98 00 3e 43 0c 8c bd 53 49 03 3d
       0.032829266 0.12558189 -0.06838276 0.03205235
000050 78 0d a2 3c a8 54 3c bd af 6b 03 bd 9c cb 15 bd
       0.019781813 -0.045979172 -0.032085117 -0.03657113
000060 05 89 86 bd c0 f1 41 ba 46 c2 24 bd 07 51 02 3e
       -0.06569103 -0.0007398389 -0.040224336 0.12726222
000070 cd 1d b4 bc fc e9 e1 3d cc 2f c4 3c f2 c3 21 bc
       -0.021986866 0.11030957 0.023948573 -0.009873377
000080 c4 46 85 3b 38 96 c0 bc f1 64 13 bd 43 78 98 bb
       0.004067274 -0.02350913 -0.035984937 -0.004653008
000090 f7 0d 00 bd 16 5b c6 bc 06 c9 ca 3d 68 0e 86 bc
       -0.031263318 -0.024213355 0.099016234 -0.016364291
0000a0 cd 93 42 3c 60 f9 86 3c 14 b6 1e bd 8a 32 f7 bb
       0.011876059 0.016476333 -0.038747862 -0.0075438665
0000b0 50 53 57 bd 07 f3 9a bd 5d ef ee 3d ca f8 bf 3d
       -0.052569687 -0.07565885 0.11666749 0.093736246
0000c0 51 17 90 bd d3 6c de 3b 6c 26 22 bc 52 ec c5 3d
       -0.07035697 0.006787875 -0.009896856 0.09664215
0000d0 84 d6 87 3c 24 23 1d bd 68 c4 18 3d fc 11 6b 3c
       0.016581781 -0.03836359 0.037296683 0.0143475495
0000e0 eb 75 3a bd cc ff de 39 1d 50 aa bd 7f 4a d5 3d
       -0.04552261 0.00042533723 -0.08316062 0.104145996
0000f0 19 d6 4f 3d ad fc a5 bb 92 f4 83 bd c6 11 8c bd
       0.05074129 -0.0050655217 -0.064431325 -0.068393275

gat_layers.0.bias f4 [64]
000000 f6 54 c2 37 ea 15 27 37 fc 83 06 b8 e3 85 cc b8
       2.3166165e-05 9.959078e-06 -3.207101e-05 -9.7524164e-05
000010 05 9b db b7 cf f9 10 b8 77 0e db b7 e5 cf b8 37
       -2.6179021e-05 -3.4564928e-05 -2.611357e-05 2.2031318e-05
000020 9c 84 b2 38 6d 14 06 38 39 4f d5 36 ab be 03 b8
       8.512402e-05 3.1967113e-05 6.3571174e-06 -3.1410407e-05
000030 67 ab 4f b8 1c 66 8a 38 bf b3 c3 36 17 b1 06 b8
       -4.9512277e-05 6.599372e-05 5.832378e-06 -3.2113017e-05
000040 83 0c 92 b8 c0 e3 bf b6 57 eb 8f 37 1e 87 d4 35
       -6.964153e-05 -5.718757e-06 1.7156517e-05 1.5834555e-06
000050 51 6d 90 37 1a 38 ab 37 55 5f 66 37 79 88 83 b8
       1.7217042e-05 2.0410913e-05 1.37312645e-05 -6.271987e-05
000060 8c 08 88 37 94 e6 22 38 59 4a 8c b8 82 48 9e 37
       1.6216443e-05 3.8838552e-05 -6.6895685e-05 1.8868832e-05
000070 f5 e8 bc b7 01 13 21 37 11 5d 3a b7 0f 54 20 38
       -2.2519826e-05 9.6007725e-06 -1.1108133e-05 3.822526e-05
000080 3d 8b d3 37 3f 27 58 b8 ce 7d 39 b8 57 45 2e 38
       2.5217998e-05 -5.1534964e-05 -4.4224602e-05 4.154941e-05
000090 0e 80 8c b7 bb a0 fc 37 a6 04 21 b8 a9 ea a2 b8
       -1.674893e-05 3.0115587e-05 -3.838972e-05 -7.768471e-05
0000a0 8c 8a 60 b8 50 9e 31 38 bc e1 21 b6 3a e9 05 b8
       -5.3534794e-05 4.234753e-05 -2.4122264e-06 -3.192688e-05
0000b0 d2 26 2e b8 83 8b 32 36 46 8d 1b b7 26 9e d7 37
       -4.1520987e-05 2.6605273e-06 -9.271613e-06 2.570364e-05
0000c0 87 76 7f b7 c5 ab 77 38 e9 82 62 b8 4f 1d 79 38
       -1.5226781e-05 5.9049362e-05 -5.400452e-05 5.9393522e-05
0000d0 d4 df c4 b7 cf b0 31 b8 46 e5 24 38 96 71 cc b7
       -2.3469249e-05 -4.2364754e-05 3.9314175e-05 -2.4371588e-05
0000e0 e5 56 5e b8 4f 49 71 38 9b c9 2c 36 4d d6 1c b8
       -5.300985e-05 5.752715e-05 2.5747347e-06 -3.739288e-05
0000f0 b4 8e ec b8 f3 cc a0 b8 e3 4e 01 b8 fe 7b b8 b6
       -0.000112799375 -7.667569e-05 -3.0829466e-05 -5.498062e-06

gat_layers.0.lin.weight f4 [64, 64]
000000 d2 92 30 35 82 13 00 80 b6 88 cb 21 bb 61 03 80
       6.577876e-07 -6.998e-42 1.3792002e-18 -3.10566e-40
000010 da 55 af b4 78 8d 59 11 4f ce 65 bd 29 b2 01 be
       -3.2658755e-07 1.7161875e-28 -0.056104954 -0.12665619
000020 a2 4f 13 00 d0 76 43 3e 7c 1b 00 80 29 a3 ed bd
       1.773441e-39 0.19088292 -9.86e-42 -0.11603386
000030 b4 6f 00 80 8f 28 6a 94 d4 8c 4e bd 39 79 00 38
       -4.0072e-41 -1.182198e-26 -0.050427273 3.0630476e-05
000040 62 8f cc 3b 76 6f 70 39 49 f3 2f 83 e1 51 8b 3e
       0.0062426785 0.00022929706 -5.1707156e-37 0.27210906
000050 a0 2f 1a bd 75 1b 00 80 55 4a 89 07 66 dd 90 28
       -0.037643075 -9.85e-42 2.0657157e-34 1.6083228e-14
000060 3b d8 69 be da 54 61 8b fe 4e e2 32 c0 d4 57 b3
       -0.22836392 -4.339726e-32 2.6345784e-08 -5.0252083e-08
000070 d4 11 13 00 6e 00 5d 3e 42 9e aa bc 83 1b 00 80
       1.75127e-39 0.21582195 -0.020827416 -9.87e-42
000080 7c 6f 76 bc ea 58 b3 3d 77 19 03 b9 7c a0 5e 8e
       -0.015041228 0.087571934 -0.0001250262 -2.7440883e-30
000090 d9 ec 53 bd d7 1b 00 80 7d ce d1 b3 99 9d 12 be
       -0.051739547 -9.987e-42 -9.769881e-08 -0.14317931
0000a0 c1 02 75 b1 f6 8a 52 a9 cf 15 04 3d b0 f1 17 3e
       -3.5653758e-09 -4.6749896e-14 0.03224736 0.1483829
0000b0 0e d4 33 3d 97 6a 00 93 14 6f aa a5 29 be 97 bb
       0.043903403 -1.6208424e-27 -2.9565569e-16 -0.004630823
0000c0 43 a2 ea 19 c2 16 00 00 df 2f ee ba c3 88 99 bc
       2.426057e-23 8.164e-42 -0.0018172226 -0.01874197
0000d0 e2 a9 6c 3c b9 69 f6 3b 30 f1 b9 3d 7e bb 03 be
       0.0144448 0.0075199273 0.09079206 -0.12864491
0000e0 42 a9 0c 3e ef 4e a0 92 dc 28 63 bb 85 f0 41 be
       0.13736442 -1.0116878e-27 -0.0034661805 -0.18939407
0000f0 70 21 00 00 40 62 e8 20 b0 f7 54 be 1c 81 cc 3a
       1.1995e-41 3.9367345e-19 -0.2079761 0.0015602442
000100 55 40 87 36 7a 1b 00 80 9c 65 0f 23 0e 3f bd 20
       4.0308028e-06 -9.857e-42 7.773562e-18 3.2059571e-19
000110 6c 51 d6 33 b2 d0 a4 10 87 a3 49 3d a2 a1 bd 3d
       9.979962e-08 6.500814e-29 0.049228217 0.09259345
000120 b7 e6 11 80 75 0c e0 3d 9b 1b 00 00 52 16 74 bd
       -1.643968e-39 0.10939876 9.903e-42 -0.0595916
000130 f3 d8 00 80 85 b1 26 93 0d ad b8 3c ee b9 15 38
       -7.7827e-41 -2.103967e-27 0.022543455 3.569753e-05
000140 a6 e9 c5 bd 6e 4c 02 ba 94 1b 00 00 7e a8 2b 3d
       -0.096637055 -0.00049704954 9.893e-42 0.041908734
000150 36 21 8e 3b 79 1b 00 00 4a 65 80 06 a4 c5 88 17
       0.004337455 9.855e-42 4.829708e-35 8.838686e-25
000160 a9 4b 6f bd 6f b9 22 0d 4a 01 b8 30 1a 94 87 b2
       -0.058421765 5.014331e-31 1.3388128e-09 -1.5783417e-08
000170 f2 e4 0b 80 98 ed 7c 3d 7b da bc 3d e3 1c 00 80
       -1.09232e-39 0.061750025 0.09221359 -1.0363e-41
000180 6f c9 35 bb 28 bc d7 3d f0 d7 96 38 80 1b 00 00
       -0.0027738472 0.10533935 7.192779e-05 9.865e-42
000190 53 ee 98 bb 63 1b 00 00 2a c0 3b 30 5e db 98 bd
       -0.0046670823 9.825e-42 6.8303285e-10 -0.07463716
0001a0 ba 6e 0d 30 be 83 07 2a 7e ba 14 be 27 f2 c6 bd
       5.1452853e-10 1.2036116e-13 -0.14524266 -0.09714156
0001b0 de 0e 2a 3d 14 8d ad 0d e2 d4 2f 26 32 b3 29 bc
       0.041518085 1.06959115e-30 6.100383e-16 -0.010357665
0001c0 42 b9 05 97 78 1b 00 00 0b ba 25 3b 73 18 40 bb
       -4.3208446e-25 9.854e-42 0.0025287892 -0.0029311448
0001d0 71 46 08 bc c3 cd a8 bd a1 54 90 3d 20 a6 c6 bc
       -0.008317576 -0.08242371 0.07047392 -0.024249136
0001e0 bf 58 da 3d cd ad b3 8e b0 df 01 3d 19 93 e2 3c
       0.10661458 -4.429427e-30 0.031707466 0.027658032
0001f0 c2 1b 00 80 aa 41 1d 21 43 f8 64 3c 0a b8 e8 ba
       -9.958e-42 5.3280575e-19 0.013975206 -0.0017755043
000200 3b 5a 21 34 ee 84 91 00 e8 05 c4 22 16 11 00 80
       1.5027119e-07 1.3363833e-38 5.313216e-18 -6.129e-42
000210 20 d2 77 33 8f 5a 08 0f 68 9f 89 bd 21 6f a7 bc
       5.7700277e-08 6.722759e-30 -0.067198575 -0.020438733
000220 ff d5 01 00 12 9f 5c 3d 92 1b 00 80 e6 7d cc b9
       1.68603e-40 0.05386264 -9.89e-42 -0.00039003714
000230 5c 26 02 00 c7 eb e2 92 f7 2d b8 bd 3b b9 48 37
       1.97432e-40 -1.4320729e-27 -0.08993142 1.1964056e-05
000240 40 b1 69 3e 52 7e 48 b9 61 1b 00 80 e1 92 82 3d
       0.22821522 -0.00019120544 -9.822e-42 0.06375671
000250 c8 11 fd 3c 5d 1b 00 80 12 13 84 07 c0 76 32 1d
       0.030892268 -9.816e-42 1.987236e-34 2.3619496e-21
000260 c9 7e ed bd 03 bb 59 8c 11 0b a4 2d 6a 97 21 b2
       -0.11596448 -1.6773349e-31 1.8649556e-11 -9.405861e-09
000270 61 61 08 80 06 ac 87 bb 9d 71 a5 bd 73 1c 00 80
       -7.69617e-40 -0.00414038 -0.08078311 -1.0206e-41
000280 d2 d1 60 3b e6 15 0e 3d 60 30 37 39 8e 1b 00 80
       0.003430475 0.034688853 0.00017470261 -9.885e-42
000290 ef 99 30 bd ee 1b 00 00 fb 13 11 af 20 b6 8e bd
       -0.043115553 1.0019e-41 -1.3194772e-10 -0.06968331
0002a0 be fb 7f b0 cd ef 24 34 c7 69 cb 3b e5 28 13 3c
       -9.3126207e-10 1.5360929e-07 0.006207678 0.008981918
0002b0 2c 21 52 3c 92 82 ca 99 c9 03 fc a5 32 a6 72 3c
       0.012825292 -2.0939047e-23 -4.3717597e-16 0.014810132
0002c0 98 1c 2d 9a b9 1b 00 80 26 50 92 bb e8 72 bc bb
       -3.579866e-23 -9.945e-42 -0.004465121 -0.0057510026
0002d0 cc b1 2a 3c 75 6b cc 3d 67 22 fd 3d 0b 92 c9 3b
       0.010418367 0.09981433 0.12360077 0.006151443
0002e0 70 62 90 3d c9 ca 2e 90 a0 c5 da bb 7f 1f b2 3c
       0.070500255 -3.447167e-29 -0.0066763908 0.021743534
0002f0 d4 1b 00 80 93 d4 d7 a0 3f 12 1b bd 85 32 b6 38
       -9.983e-42 -3.6563087e-19 -0.037859198 8.687846e-05
000300 22 07 43 b6 72 3d 47 86 e0 37 97 23 35 9b 07 80
       -2.9061416e-06 -3.7472883e-35 1.6395117e-17 -6.98526e-40
000310 64 87 9b b1 b9 ab 70 91 53 a6 7e bd b1 18 27 3d
       -4.526486e-09 -1.8985578e-28 -0.062170338 0.040795032
000320 cc 52 e7 80 16 36 eb 3c 5d 1b 00 80 68 cf 82 bd
       -2.1243702e-38 0.028712314 -9.816e-42 -0.06387216
000330 3d 00 00 00 9c f4 40 95 aa 59 c5 bc 76 58 73 36
       8.5e-44 -3.8967054e-26 -0.024090607 3.6261313e-06
000340 31 b6 e8 3d 86 14 e5 b9 85 d4 02 80 1e 12 95 bd
       0.11362875 -0.00043693575 -2.59909e-40 -0.07278846
000350 c9 5f f5 bd 6d 1b 00 00 16 81 6f 06 d9 53 a4 a1
       -0.1198116 9.839e-42 4.504574e-35 -1.1135267e-18
000360 00 57 94 bd ca 58 06 0d 5c a0 9f 33 24 9f 0e b3
       -0.072431564 4.1398814e-31 7.433184e-08 -3.320669e-08
000370 a5 87 14 80 bd f9 7c 3d 0b 09 b4 3d 72 1d 00 00
       -1.88537e-39 0.061761606 0.08790787 1.0563e-41
000380 a9 99 8f 3c 27 3a 40 3c fe 9d 1e bb e2 c4 22 05
       0.017529326 0.011732615 -0.0024203057 7.653365e-36
000390 68 33 24 bc 69 1b 00 00 44 9f 4e ac ba fd d7 bd
       -0.010022022 9.833e-42 -2.936277e-12 -0.105464414
0003a0 8d f3 53 31 9f 1b 00 00 e7 64 20 be 2a 07 55 be
       3.0842984e-09 9.909e-42 -0.15663491 -0.20803514
0003b0 dc b0 8e 3b f1 1a 00 80 c4 02 0a 26 72 e4 cd bb
       0.0043545794 -9.665e-42 4.7882116e-16 -0.0062833363
0003c0 36 c7 10 1b be 1b 00 80 e5 27 5b 3a 08 2a c7 3a
       1.1975769e-22 -9.952e-42 0.0008360132 0.0015195021
0003d0 6e 32 d0 3b cf 4e 29 3d 8b cd fd 3b aa 43 2b bb
       0.006353668 0.041334923 0.00774545 -0.002613286
0003e0 74 40 aa 3d 7b c5 cd 07 df d1 3b bd f9 a3 b1 3d
       0.08313075 3.096104e-34 -0.045854446 0.086738534
0003f0 6b 1b 00 80 b4 50 0a a2 45 dc 9d 37 2c df d2 bb
       -9.836e-42 -1.8745211e-18 1.881843e-05 -0.0064352956

gat_layers.1.att_src f4 [1, 4, 16]
000000 87 27 2d be f4 74 45 3e 7e 40 29 3f 3e e2 11 3e
       -0.1690961 0.19282895 0.6611403 0.14246461
000010 9d e1 28 3e f6 a4 1c 3f 5a 46 32 3e 8c af 3b 3e
       0.16492315 0.6118921 0.1740965 0.18328685
000020 95 e2 71 3e cf 99 16 bf 80 8b 8e be 3d e5 ea be
       0.2362159 -0.58828443 -0.27840805 -0.4587802
000030 b0 c0 be bd 2f f3 27 3e 65 63 2d 3e f3 0b 0b 3e
       -0.09314096 0.16401361 0.16932447 0.13578777
000040 2f fa 8f 3f 48 58 f9 3d 8e 86 9a 3d 54 91 4c 3e
       1.1248225 0.121750414 0.075451955 0.19977313
000050 05 47 65 bd 51 12 01 bd 4c c0 81 3d 0d f1 d5 3c
       -0.055975933 -0.03151161 0.06335506 0.026115919
000060 49 d9 e9 3d 90 ec 1c bd bb e1 32 3e 62 99 f0 3d
       0.11418397 -0.03831154 0.17468922 0.117480054
000070 65 39 04 3f 6c 05 02 be 07 8c 08 3e 82 f4 35 3d
       0.5165008 -0.12697381 0.13334666 0.044422634
000080 b8 de d5 3e ae 3d 45 3e a6 e9 51 bf 08 9a 4b bc
       0.41771483 0.1926181 -0.81997144 -0.012426861
000090 77 3b 64 3e 1c c3 f5 3d b9 aa 92 bd 1b 5e 3c 3f
       0.22288309 0.12000105 -0.07161469 0.73581094
0000a0 bb e3 01 bc 81 ec 57 3e a8 04 89 3b d8 72 c6 3d
       -0.00792783 0.21086313 0.0041814633 0.096898735
0000b0 4b 86 d8 bd 7e 7a 8f 3e 8c 68 a0 bd 54 5b 44 3e
       -0.10572489 0.28023142 -0.07832441 0.19175464
0000c0 ed 15 43 3e 70 ea b1 3e b8 0e 02 3d f8 b5 15 3e
       0.19051333 0.34749174 0.03175232 0.14620197
0000d0 bd a5 7b be 7a 21 7e 3e 23 f9 3b 3e de a4 92 3f
       -0.24574943 0.24817458 0.18356757 1.1456563
0000e0 6b ef 42 3e 52 0e d6 bd f1 c4 96 be 4c fc cd bc
       0.19036643 -0.1045195 -0.2944713 -0.025144719
0000f0 6f 5c 08 bc 90 df f3 3e 28 15 94 3e 5f cd b2 3c
       -0.008322819 0.47631502 0.2892239 0.021826444

gat_layers.1.att_dst f4 [1, 4, 16]
000000 0d e1 1c 3e 04 4b eb bd ec 1f 13 3d df a6 ce bd
       0.15320225 -0.114889175 0.035919115 -0.10090422
000010 9f 8b fc bd de 2e 7f bd c3 20 0b 3b 2a 49 ff bd
       -0.12331318 -0.062300555 0.0021229244 -0.12465127
000020 0b a2 03 be 33 8a 19 be ef f5 ac 3e fd 6d 15 3f
       -0.12854783 -0.14994125 0.33781382 0.58370954
000030 e2 83 0e 3d 08 86 43 bd da 89 9b bd 2e b9 90 bd
       0.034793742 -0.047735244 -0.075946525 -0.0706657
000040 7f cd f3 3d 5c 66 88 bd a9 cf d0 bc 7c ce 1e be
       0.1190443 -0.066601485 -0.025489645 -0.15508455
000050 23 f7 a2 3c 4b a3 67 bd 4c f0 0f bd fc fb 12 be
       0.019893235 -0.056552213 -0.035141274 -0.14353937
000060 8e 22 dc bd 5c cc 22 3e 73 79 64 be 39 d0 0c bd
       -0.10748778 0.1589827 -0.22311954 -0.034378264
000070 60 46 35 bf 65 18 d7 bb 0d 16 d9 bd 2b 1e 17 bd
       -0.7081051 -0.0065641874 -0.10599909 -0.036894005
000080 ae ee 9a bd 48 d9 fe bd 53 2c d4 be 90 92 23 3d
       -0.07565056 -0.12443787 -0.41440067 0.039934695
000090 ef 5b 52 be 09 e3 59 bd 05 20 77 3c 2d 07 13 bf
       -0.20542882 -0.053195033 0.015083318 -0.57432824
0000a0 ea a6 03 be 99 d2 cc bd 84 36 0a 3d 84 33 9a bd
       -0.12856641 -0.10001106 0.033743396 -0.07529357
0000b0 55 74 f0 3d 3d ad f6 bd 7e 45 be 3d 4c 41 db bd
       0.117409386 -0.12044761 0.09290598 -0.10705814
0000c0 de d3 67 bd f4 42 84 bd e4 70 03 3d c8 3c d2 bd
       -0.056598537 -0.06458083 0.032090083 -0.10265499
0000d0 e7 20 15 3d 5f 4c 24 be 64 92 ed bd 1d 2d e2 3c
       0.03640833 -0.16044758 -0.116001874 0.027609402
0000e0 9a 75 2b be 01 32 da bc f6 46 90 3e 19 63 89 bd
       -0.1674408 -0.026635172 0.2817914 -0.067083545
0000f0 3c a0 9d 3d 9b e3 ff be cc 08 97 bd 53 e4 96 3d
       0.07696578 -0.49978337 -0.07374725 0.07367768
