result/ngc_model.pth (torch, 348419 bytes, 31 tensors)

causal_weight f4 [129, 129]
00000000: 9bfb 3a39 f3ea b23a 0385 c239 1536 08ba
00000010: 2a4f 4339 482b 8738 a894 e4b8 bbf1 8db4
00000020: 8fe7 4939 500e ad38 b687 033a 46ad 4739
00000030: 3a8c d4b9 bd82 35b9 c667 09ba e792 0c3a
00000040: 4a46 303a 574b 113a 6255 44b9 e42e 9b38
00000050: 3f81 40b9 174a 0dba 00e9 243a 4e55 d238
00000060: 3518 b5b8 d2cb 5439 6f43 edb8 b69e de39
00000070: 73be 50b9 e63f 143a 6227 8bb9 25f0 b33a
00000080: 4c3d 5d3a adf7 0c3a cdb4 6fb9 9c1c e4b8
00000090: 84d6 32ba 4f2c 38b9 0af7 4eb9 e19d 2e3a
000000a0: 182c 17b9 e0a6 a7b9 ee47 1cb9 f092 4139
000000b0: 137b a239 57e5 d439 8d41 9ab9 b37d 8b39
000000c0: 7a7c fc39 47b6 6039 fdfd f238 e88d 44ba
000000d0: bc35 66b9 f995 d4b9 5d92 3a3a cdd1 1fba
000000e0: 602e 18b8 ea19 71b9 5367 81b9 f880 3f38
000000f0: a70d 95b9 3199 ed39 d7b6 293a 2e23 26b9
00000100: 4482 f639 6d10 e5b9 7adc 09ba 4b73 05b9
00000110: 5b7e c0b9 1ec2 d239 5d9c 40ba 1b29 ddb6
00000120: 92cb aeb9 4db6 2ab9 f4dc f337 7855 e737
00000130: e15b dbb9 b455 4bba 21c2 66ba 62af 35b9
00000140: fdef 9839 7e02 39b9 1ca8 9b39 3d55 e4b9
00000150: 2e00 be37 e274 efb9 bd9e 1e39 f754 a0b9
00000160: 1244 f337 4f11 e939 5f6b 83b8 2d4b 42ba
00000170: a1f8 b8b9 1e7a f6b9 8ddd 9a39 dd8d 38ba
00000180: 358d 48ba ee96 9a38 b060 7c39 4379 043a
00000190: a7a1 35b9 5ad2 2cb9 3dc2 b739 0fc0 16b9
000001a0: 0945 4eb8 6393 8138 d852 6e39 c19e 12b9
000001b0: 0031 2e3a 5b4d 8939 9d05 5339 adc2 a139
000001c0: ac67 853a 327a a4b9 702f 553a 67b4 1aba
000001d0: 9186 8637 9851 47ba c6bb 91b9 79f3 8eb9
000001e0: b165 a439 f0f3 d7b9 bfd8 b037 9506 a1b9
000001f0: 58b8 9d38 87db 243a 668b 23ba f1a9 b939
00000200: f14a 28ba b3fa eb38 ee61 343a f51d 42b8
00000210: e64c 253a b3aa c738 4449 a139 24fa a1b9
00000220: e28d 5638 7604 8439 a488 213a 6c22 333a
00000230: fe64 6d3a 582b d539 407a f339 eae8 24b8
00000240: 4671 ae39 2a51 0239 2862 1c39 0b84 be39
00000250: 12f1 2ab8 9924 96b9 9e5f 62b8 a490 9db9
00000260: 85ff 79b9 b04b 243a 75dc 8b38 b4ce 0cb9
00000270: 382a b9b9 4929 5039 f612 deb9 3103 83b8
00000280: 77c4 6fb9 3910 d7b7 97bc 0138 d723 0a38
00000290: 3140 6939 9ebe dcb8 f570 d7b7 ffe4 dfb7
000002a0: ba00 b1ba ca15 fcb9 5d79 1e3a b4e7 1b38
000002b0: 3cd8 b839 8086 84b9 dda1 0239 e0a8 6338
000002c0: 5acd e739 2389 3e3a 7ad2 adb9 f6db 0339
000002d0: be54 a736 d087 eab9 cccb 2fb9 eaf0 8f39
000002e0: a9e0 72b8 c6a3 a239 4b9c 8b39 4147 bc39
000002f0: 5e7e 10ba c044 ae39 5ccb 1738 8d52 fd39
00000300: e345 eb39 8e4f e038 454d ad39 2ad5 d1b6
00000310: 392c 14ba c1a0 2ab9 97bd 53ba 62ca a4ba
00000320: d9eb 5639 ed57 913a 646e 80b9 bb54 d8b9
00000330: a59f c039 1542 0bba 5634 feb7 13b9 aeb9
00000340: 4650 5bb9 a064 2439 ccfc ef39 abba 76b9
00000350: 4112 45b9 cdb8 ebb9 af9c 9cb7 739a 50ba
00000360: 2902 6fb9 e9b5 a7b9 6497 b139 50ad f7b8
00000370: ed73 16ba 7b17 dfb6 67b5 4139 a784 c0b9
00000380: 6819 d7b8 e991 54ba b8b2 36ba 2f6b 5837
00000390: ad62 81b9 daab e339 d376 2cba f7c1 cfb9
000003a0: 355a d939 5a4d 9738 7773 f035 d5ae 4d3a
000003b0: 0571 f7b7 c025 323a 05df 9ab7 3b59 31b7
000003c0: 575a 9735 b7de da39 3503 f3b7 7005 5839
000003d0: 7e21 3eb9 2179 1bb9 bc61 80b9 fdc8 563a
000003e0: dd66 ebb9 c127 5bb9 7538 d438 a230 9cb9
000003f0: 0977 9639 9cb1 02ba 33cc 9b39 caa6 3838
0.00017832073 0.0013650343 0.00037101665 -0.0005196047 0.0001862614 6.4453634e-05 -0.000108995766 -2.643918e-07
0.00019255116 8.251949e-05 0.0005017476 0.00019042668 -0.00040540268 -0.00017310209 -0.00052415987 0.00053624663
0.0006724341 0.00055425375 -0.00018723824 7.39971e-05 -0.00018358695 -0.00053897634 0.0006290823 0.000100294696
-8.6352615e-05 0.00020293824 -0.00011313601 0.00042461389 -0.00019907374 0.00056552736 -0.00026541488 0.0013728185
0.0008439615 0.0005377483 -0.0002286017 -0.00010877216 -0.00068221265 -0.00017564114 -0.0001973772 0.0006661099
-0.00014416908 -0.00031977054 -0.00014904115 0.00018460653 0.00030990745 0.00040606663 -0.00029422008 0.000266058
0.00048157928 0.00021430208 0.00011586768 -0.00074979523 -0.00021954527 -0.0004054753 0.0007117147 -0.00060966314
-3.6282814e-05 -0.00022993205 -0.0002468178 4.565806e-05 -0.00028429666 0.000453183 0.00064740836 -0.00015844099
0.00047017832 -0.00043690522 -0.0005258989 -0.00012726818 -0.00036715236 0.0004019895 -0.00073475187 -6.5910986e-06
-0.00033339538 -0.00016280376 2.9070747e-05 2.7577145e-05 -0.0004183939 -0.0007756606 -0.0008802731 -0.0001732684
0.00029170504 -0.00017643903 0.00029689155 -0.00043551056 2.2649849e-05 -0.00045672717 0.00015127189 -0.00030580882
2.8999555e-05 0.0004445412 -6.266566e-05 -0.0007411715 -0.00035280458 -0.0004701176 0.00029538237 -0.0007040182
-0.0007650436 7.371405e-05 0.00024068612 0.000505347 -0.00017321725 -0.0001648156 0.000350492 -0.00014376662
-4.917852e-05 6.178652e-05 0.0002272831 -0.00013982785 0.0006644875 0.0002618831 0.00020124619 0.00030853358
0.0010177991 -0.0003137156 0.0008132374 -0.0005901516 1.6036707e-05 -0.0007603406 -0.00027796457 -0.00027265752
0.00031356284 -0.00041189743 2.1081765e-05 -0.00030713217 7.52068e-05 0.00062888156 -0.00062387285 0.00035412566
-0.00064198585 0.000112523696 0.0006881048 -4.6281104e-05 0.0006305709 9.520855e-05 0.000307629 -0.00030894682
5.1153715e-05 0.00025180326 0.00061620236 0.00068334374 0.00090558815 0.0004065882 0.00046439655 -3.9317565e-05
0.00033272261 0.00012428002 0.00014913885 0.00036338004 -4.0755673e-05 -0.00028637497 -5.397165e-05 -0.0003005314
-0.00023841679 0.0006267382 6.6691e-05 -0.00013428443 -0.00035317405 0.00019851806 -0.00042357267 -6.247161e-05
-0.00022866005 -2.5637552e-05 3.0931635e-05 3.2935142e-05 0.00022244525 -0.00010525923 -2.5682597e-05 -2.6690306e-05
-0.0013504245 -0.0004808142 0.0006045306 3.717067e-05 0.00035256322 -0.00025277212 0.00012458065 5.4278295e-05
0.00044212752 0.000726836 -0.0003315395 0.00012575075 4.986853e-06 -0.00044733146 -0.00016765221 0.0002745458
-5.7906527e-05 0.0003102107 0.00026628593 0.00035911243 -0.0005511994 0.0003323909 3.61906e-05 0.00048317426
0.00044874763 0.000106959706 0.00033054702 -6.253501e-06 -0.00056523416 -0.00016272349 -0.00080772623 -0.0012572522
0.0002049649 0.0011088826 -0.0002449631 -0.0004126186 0.00036740038 -0.0005312276 -3.030353e-05 -0.00033325757
-0.00020915372 0.00015677745 0.0004577398 -0.00023529927 -0.00018794184 -0.0004496038 -1.866961e-05 -0.0007957585
-0.00022793621 -0.00031988256 0.00033872866 -0.0001181016 -0.000573932 -6.6486514e-06 0.00018473492 -0.00036719927
-0.00010256731 -0.00081089005 -0.000696938 1.2899559e-05 -0.00024678317 0.00043424853 -0.00065789855 -0.00039626632
0.00041456675 7.214649e-05 1.7914998e-06 0.00078461814 -2.9497323e-05 0.00067957863 -1.8462082e-05 -1.0570798e-05
1.1276669e-06 0.00041746136 -2.896935e-05 0.00020601391 -0.00018132289 -0.00014827076 -0.0002448688 0.0008193402
-0.00044899332 -0.00020900277 0.00010119464 -0.00029790873 0.00028698918 -0.00049855723 0.00029716044 4.4024353e-05

lin_in.weight f4 [64, 6]
00000000: 9589 41b9 ea04 c3bb 86fb 543b 3ab1 4fb9
00000010: b19e 893b 00f4 5dbb b742 e638 5a45 0937
00000020: db1d f239 c214 afb8 c5d6 32b8 3254 8fb8
00000030: e7d2 1cbe 0de4 c73d 9725 4fbd 74a5 523e
00000040: d8ca 13bc c3e8 2e3d c7ab b93c f146 8ebe
00000050: cc04 c03d 2f83 74be 3aa9 5b3c 0e46 acbc
00000060: e33c f2bd c4c5 88bd f21d 08bd 1770 4d3e
00000070: 77ba c33c 09e4 f43d 77a3 31bb 6106 56b9
00000080: 3167 46bb fcdd a03a f6eb 0939 58b6 413a
00000090: 9a39 4dbe 3502 fcbc 81fd 2c3c 9419 a5bc
000000a0: 2137 1f3c ceb9 053c 1f60 b7bd 4c61 82bd
000000b0: 268c af3c 2723 3b3d 196e e13c fbe8 57bc
000000c0: 4609 82bb 047f d7bc 2dde beb9 9da5 46b9
000000d0: 4b86 203c 599c 613a c4d9 81bb 195c 8bbc
000000e0: 1183 b7bb a535 4f3b 8cc0 5f3b 45d3 203c
000000f0: d658 82ba bd91 91b9 0df0 a138 254b ec38
00000100: 4d4f e938 50d5 7ab8 3ca9 5bba 0610 cd36
00000110: 37e9 e638 abb5 f439 4d10 a137 0905 f437
00000120: 720a adb9 9e0a c3b9 6aca aeb8 ce2d 0339
00000130: 8b01 9e39 5d3d 7838 13c5 8ebb fceb 13bb
00000140: 0066 5c3e 082b e33a 2f30 0bbc ab0f 95bd
00000150: 9be6 8fbb 795b 943c 9244 d4bd 6ea6 c63c
00000160: 64ca 003c 3ca8 90bc 22e7 4dbc 6dad 9eb9
00000170: 3a51 0e3d edca 183c 5527 cdba 17e3 79bb
00000180: 240e 163e a843 21bf 51b9 e5bc 6665 66bd
00000190: 444f 523e 1b48 80bb 84fd 873c 85dc 02be
000001a0: 63a7 0d3d 5e6a 0d3d 5518 923e 18a0 99bd
000001b0: 2966 3b3e 0bbd 19bf b8b5 26bc 11b0 133f
000001c0: 441c d1bc 76a4 dabc a651 3cbc 7967 beb9
000001d0: d6b8 c73a 74e1 8f3b f184 8b3a 9e08 3b3b
000001e0: de38 90ba b1d3 20bb e7fe 343a 1ae1 1e39
000001f0: b7b5 89b8 8c6a c4b9 9008 c238 c09e 05bc
00000200: 08f9 d03a 991e afb6 503d 603b 177e d7ba
00000210: 27b2 133e 0850 a33b 1b9b b73c 24c2 3cbd
00000220: 6fbd 06bd f3cf 0dbc 3554 c1bb 5cec 29bb
00000230: 99f6 103c 1d09 81ba f596 7a3b 5126 1ebc
00000240: 29a1 a2bf 8d4f 05bc b813 dabc 8466 87bd
00000250: d471 b13b ab7a e5bb d157 dfbd 2233 36bd
00000260: 3723 84bb 0a50 7d3d c016 033d 7f1f 663a
00000270: 4b90 dcbd 6b24 54bd 83c9 733e 6ea7 8c3d
00000280: db60 293d 739a d53c 01bb a2bd 7044 7d3e
00000290: 51a2 f13d 0d0b ad3c 057a 32bb 5543 99bd
000002a0: 9ce0 67bc 1109 d1bb c7df ca3c d7dd 82bc
000002b0: f067 0d3d 9ec4 003d 71de 53bc 9166 913d
000002c0: 87eb 72bd 3047 5dbe 6b48 e73d 012d 2a3d
000002d0: 46b5 41bd acd8 56be 1fb8 6bbc 7107 9d3d
000002e0: d484 4e3c c9a2 063d f310 39bd 607b 08bc
000002f0: 43ec 883e 512f ac3a e4c8 6abb 771f ccbc
00000300: 515a 0cbc 483e 3cbc 7fc1 c63c 23f1 863b
00000310: e327 8aba 2fbd 99ba a3a5 47be e414 9cbc
00000320: 9366 053d 1e98 0c3d 4ae0 bdbc 8652 ffbd
00000330: 59ee c1bb ce26 613a b5c5 133a 8ab0 1a39
00000340: c91a 7cb9 185a aa3a 3894 abbe 58cf b13d
00000350: 5052 a23c 164e c43e 7778 c5bb a40f 9b3d
00000360: 78c8 6fba f005 a2bb 6902 583b dbc2 df38
00000370: 52da 3d3a ff87 253b 9f75 4fba f4ba b5ba
00000380: 16ed 083c 18c1 4b3a cd53 323b 6b1e 9fbb
00000390: bc7e 47bf 9478 1abc c9c2 8e3c 8591 09be
000003a0: da43 933d 317e 3bba 18d6 5dbc 31c5 c6bb
000003b0: 3476 ac3c bcad 7bba d710 d83b aa74 993c
000003c0: d091 ecbc dfa5 92bb f450 333e 9adf 5e3c
000003d0: eb4c 083b 5a8d 39bd df70 27bc 5dce 1ebc
000003e0: 1ec5 703c c71b 533c 95ed e23b 48b7 2fba
000003f0: dde3 6cbd a460 afba 2f09 dd3c 44ad 163d
-0.00018457168 -0.0059515135 0.0032498552 -0.0001980708 0.0041998257 -0.003386736 0.00010979681 8.1819835e-06
0.0004618008 -8.348517e-05 -4.2638527e-05 -6.834454e-05 -0.15314828 0.09760294 -0.050572958 0.20570928
-0.00902053 0.042702448 0.022664918 -0.277885 0.09375915 -0.23878168 0.013407046 -0.021029498
-0.118280195 -0.06678346 -0.033231683 0.2006229 0.023892624 0.11957557 -0.002710549 -0.00020411007
-0.003027391 0.0012273188 0.0001315324 0.0007389537 -0.20041505 -0.030762771 0.010558487 -0.020153798
0.009717734 0.008161975 -0.089538805 -0.06366214 0.021429133 0.04568782 0.027518319 -0.0131781055
-0.0039683906 -0.026305683 -0.00036405158 -0.00018944447 0.009797643 0.00086063665 -0.0039627273 -0.017011689
-0.005600341 0.0031617668 0.0034141866 0.009815996 -0.0009944688 -0.0002776514 7.721791e-05 0.00011267354
0.00011125077 -5.9803308e-05 -0.0008379405 6.1113415e-06 0.00011010694 0.0004667466 1.9200286e-05 2.9089411e-05
-0.00033004914 -0.0003720121 -8.334669e-05 0.00012510197 0.00030137258 5.9184957e-05 -0.004356989 -0.0022571078
0.21523285 0.001733155 -0.008495375 -0.07278379 -0.004391504 0.018110024 -0.10364641 0.024249282
0.007860754 -0.017658345 -0.012567313 -0.0003026532 0.034745432 0.009325725 -0.0015651981 -0.003812974
0.14653832 -0.6299386 -0.028042467 -0.056249045 0.2053805 -0.0039148456 0.016600378 -0.12779434
0.03458346 0.034525268 0.2853419 -0.075012386 0.1830069 -0.6005408 -0.010175161 0.5769053
-0.025526173 -0.02668975 -0.011494076 -0.00036316717 0.001523758 0.00439089 0.0010644478 0.0028539072
-0.0011003276 -0.002454024 0.00069044385 0.00015151911 -6.566516e-05 -0.00037463417 9.252236e-05 -0.008155525
0.0015943358 -5.2189685e-06 0.0034216233 -0.0016440776 0.14423428 0.0049839057 0.022412827 -0.046083584
-0.0328955 -0.008655536 -0.005899931 -0.0025928235 0.008847856 -0.0009844635 0.003823695 -0.00965269
-1.2705432 -0.008136642 -0.02662073 -0.0661135 0.0054151807 -0.0070031486 -0.109054215 -0.044482358
-0.0040325182 0.06184391 0.032004118 0.0008778497 -0.10769709 -0.051792543 0.2380734 0.06867872
0.041352134 0.026074624 -0.079458244 0.24733138 0.117985375 0.021123433 -0.0027233374 -0.07483546
-0.014152672 -0.0063792546 0.024764908 -0.015974922 0.03452295 0.03143751 -0.012931452 0.07099641
-0.059306648 -0.21609187 0.112931095 0.041546825 -0.047292016 -0.20981091 -0.01438716 0.07667435
0.012604911 0.032870088 -0.04518218 -0.008330196 0.26742753 0.001313666 -0.0035825307 -0.024917347
-0.008566455 -0.011489458 0.024262188 0.004118101 -0.0010540452 -0.0011729355 -0.19496779 -0.01905293
0.032568526 0.034324758 -0.023178238 -0.12466912 -0.005918306 0.0008588851 0.00056370656 0.0001475235
-0.00024042571 0.0012996821 -0.3351152 0.08682126 0.01981464 0.38340825 -0.0060263234 0.075713426
-0.00091469986 -0.0049445555 0.003296042 0.00010669763 0.000724231 0.0025258062 -0.000791395 -0.001386492
0.008357307 0.00077726087 0.0027210594 -0.004855921 -0.77927756 -0.009428162 0.017426865 -0.13434418
0.07190676 -0.0007152288 -0.013539813 -0.0060659875 0.021052457 -0.00096007786 0.0065938043 0.018732388
-0.028878123 -0.00447534 0.1751135 0.013603115 0.00207978 -0.04530082 -0.010219782 -0.0096927555
0.014695434 0.012885041 0.0069252946 -0.0006703031 -0.057834495 -0.0013380242 0.026981918 0.036786333

lin_in.bias f4 [64]
00000000: 1d7b 39bc b486 89ba 3008 bfbe f7e0 bbbe
00000010: 1288 fdbd 56e4 29bc 7e76 ccbd d914 5fbe
00000020: e8ed bbbc e0a2 a8bd b359 98ba f553 2bba
00000030: 4ca5 09bb 4875 9cbe bcfb bd3b c326 dfbd
00000040: 6beb 6a3c ace0 73be a4e0 5b3d f36d c1bc
00000050: 5fa6 35bb c40e 8dbc 539e e93c 95e3 61bd
00000060: b041 b8be 2764 c7bd 7f93 4fbd 859c 42be
00000070: 3f3f bebd a2af e8be 3468 88bd b1cb a6be
00000080: 5090 72bd ab2b 2fbd eb35 24bc e7de 8fbe
00000090: b500 e8bb 15d9 05bd c465 a4be 1dd3 0dbd
000000a0: 3684 8ebe 3d34 55bd 8ea6 30be 9781 9abc
000000b0: a9db dcbe c2e0 76bd 8490 5ab8 c11a 76ba
000000c0: ea9d 14be f4d2 05be 791b 3fbe 37bc d5be
000000d0: 1233 ccbe 8917 90be 72c4 e2bd 497d 8cbd
000000e0: cc35 e2bd 24b4 d5be 39f3 c1be 2b1e 87ba
000000f0: cdf1 44be c224 52bb f5b6 eebb 924b 1cbe
-0.011320856 -0.0010492415 -0.37310934 -0.36695072 -0.12379469 -0.010369381 -0.09983538 -0.21785296
-0.022940591 -0.08234191 -0.0011623412 -0.0006535643 -0.0021003066 -0.30558228 0.0057978313 -0.10896065
0.014338355 -0.23816174 0.05368103 -0.023611998 -0.0027717573 -0.017218955 0.028517878 -0.05514868
-0.35987616 -0.097358994 -0.050677773 -0.1900502 -0.09289407 -0.45446497 -0.066605 -0.3257728
-0.05921966 -0.042766254 -0.010022621 -0.28099748 -0.0070801624 -0.03267773 -0.3210889 -0.03462516
-0.27835244 -0.05205177 -0.17251036 -0.018860621 -0.43136337 -0.06027294 -5.210984e-05 -0.0009388142
-0.14513364 -0.13068753 -0.18662824 -0.4174516 -0.39882714 -0.28142956 -0.11072625 -0.06859834
-0.11045417 -0.41739 -0.37880877 -0.0010308673 -0.19232865 -0.0032065366 -0.007284994 -0.15263203

causal_fusion.weight f4 [64, 128]
00000000: 1453 14aa e6b0 c32a c8e7 d32c 7bb6 07b0
00000010: f6e7 c12f 9820 beae 4f10 6f2c 6bba 00a0
00000020: 1c94 d62b b9f9 c827 861b 0000 a61c 0000
00000030: 39cc 139d 2b6a 879f fd21 e72d 0f4a 0684
00000040: cf81 56b0 05a6 af30 02c4 a5b7 71da 62aa
00000050: 951e 0080 1274 e625 7253 41b0 f815 0100
00000060: 4a20 0a2e 2e61 0920 a459 922f 86f1 ecb1
00000070: 452e 4f2f 903c 96b1 6b52 d52e 32cb 9aae
00000080: 597a 7204 9b47 86aa 6d56 c82c ab0b bbae
00000090: 6bf6 af2e 0ed3 93ac 68d2 62ae 3d6d b6ad
000000a0: e990 8c1c ccc4 5a21 8c22 0080 0c37 0000
000000b0: d701 16b3 2dbf e2a1 4bc4 2c98 6a1b 0080
000000c0: bc64 c328 ccf0 83b0 2970 94b2 e1a5 25b2
000000d0: b78b cab1 379e 29ab aeff 0b1e 4b63 0080
000000e0: f8db c92e e376 0b2c 77f9 d6b1 f86c 2219
000000f0: 1812 089b 086c a727 101e 0080 d30b b51f
00000100: c344 9eac 71ce 20ad b3ba c9ad d199 842f
00000110: 480a ca30 a562 d9ad f2b2 44ae 027f b222
00000120: 3d1d 0000 c633 12a7 34cb 1281 6bd0 aaa6
00000130: 4984 7c9e 8949 80ac 32fb 042e 4be5 581f
00000140: 1d8b 402f c59d 8fad 6501 802f ff78 3c37
00000150: 651b 0080 3058 6e31 07b7 e9ae 367f 0832
00000160: d31b d32e 08f0 aa22 e73c 3130 69e5 22ae
00000170: a260 0830 a5a1 1b2f a3ab c1ae ea89 62ae
00000180: 1ada 4a1d c545 762c 24e3 982d 70da 3a2e
00000190: d402 8db7 a77e 37ad 6ead e72e 7d89 5fb0
000001a0: 5ea5 ea2b d2ba 772d 5dd5 2b9c 2905 a11f
000001b0: 1bbf 16ae eec4 e324 754d 0c9a 911b 0080
000001c0: b64f 4f29 90d9 852f 73a7 6c2e f794 feae
000001d0: e064 20af 3aef aa2d 557e 0221 046e 619f
000001e0: 853f ad2f 1939 a3ae aeae 04af 7026 0e1e
000001f0: 6cd3 1a99 aa18 37b6 5b1b 0080 7caf 0e20
00000200: 99be 9fba 1188 01b8 9e30 41be 1c03 91bd
00000210: 53cf 6dbb 1782 16b9 51b9 adbb 98ee c23d
00000220: 45a8 5e39 8a9b b8bb 05de b1b5 6916 87b8
00000230: 3b76 3db7 a3f7 dbbd 501f a1bd a319 a7bc
00000240: 3e26 6e3d f7aa 27bd d028 4d3d 7285 873b
00000250: 2101 2fb4 8a3e 10b2 6ff8 b93d 1382 013a
00000260: f1c8 d3be cba3 a63c 0654 edbd dd22 e93b
00000270: ecdb 2cbc 992c aabd 2901 8a3d 0bcd 18be
00000280: d83f 9abb da57 86bd c3fb 303b ada0 8dbd
00000290: e718 59ba da1f fe39 12c1 b3bd 414a 17bc
000002a0: 70ca d3bc 2d14 b0ba c090 ac3b c869 21b9
000002b0: f52f 70be c0d4 b03c 19f6 b0af e8e5 dc27
000002c0: 162e 5cbc df02 c73d 8c36 5ebe 2ad5 8abd
000002d0: cd9e 9b3c 99b2 5cbd f988 593d 92bc 803a
000002e0: 5b4d 4c3d 2ad8 72bd 9f9f a6be 9561 59b7
000002f0: 1a55 ed3c 826f eeb8 9c4b 14ba 0e88 e83b
00000300: 2e60 48b9 78d9 0c38 4063 383d 6c3a 1e3d
00000310: cb0f 093e cca2 92b9 2d53 183c f2d0 2b3b
00000320: 52ee 1539 cf46 8339 223f 83ac e48b e0b4
00000330: 8433 10b1 4113 073d f731 8d3d 59f1 2b3b
00000340: 8e0d d3bb 53b6 63bc 3d17 703d 8d01 6139
00000350: d207 d123 2b06 16ad 4f53 0c3d 9197 3839
00000360: b7c9 e73d f51a 3bba 6ba1 c53d c952 003c
00000370: cca4 a23a b3d5 283d 03fb 9b3c 527a 943d
00000380: 3d2f f039 1524 8abd bba9 97bb 3f4a ce3d
00000390: 6534 f539 359c a738 54a9 a03d acaa a83b
000003a0: eb1b 193c 601b 873a dfbe f739 3491 68b3
000003b0: c76b 8c3d 2150 b938 28e7 522d 6dfb f297
000003c0: b229 4ebc d3f0 693d a9d9 c43d 4186 413d
000003d0: a526 363d 61b0 523b b829 2b36 2bb1 b7b8
000003e0: 0cd1 743d 45d5 da3d ba11 783e a3ae 08b4
000003f0: 4475 c138 f6c2 ba36 a67f 89b8 c701 69b8
-1.3173864e-13 3.4761706e-13 6.0227136e-12 -4.9372034e-10 3.5271314e-10 -8.6459895e-11 3.3972996e-12 -1.0903702e-19
1.5246723e-12 5.57819e-15 9.874e-42 1.0277e-41 -1.9560869e-21 -5.7350364e-20 2.6276753e-11 -1.578563e-36
-7.8037216e-10 1.2780111e-09 -1.9760806e-05 -2.014862e-13 -1.0971e-41 3.9977292e-16 -7.0331574e-10 9.9716e-41
3.1406246e-11 1.1636505e-19 2.662094e-10 -6.895962e-09 1.8842979e-10 -4.3724597e-09 9.700759e-11 -7.039204e-11
2.8503143e-36 -2.3852868e-13 5.693937e-12 -8.505848e-11 8.001851e-11 -4.201423e-12 -5.157333e-11 -2.0739516e-11
9.301881e-22 7.412173e-19 -1.2393e-41 1.9747e-41 -3.492627e-08 -1.536496e-18 -2.2329582e-24 -9.834e-42
2.1693036e-14 -9.599943e-10 -1.7280472e-08 -9.6419805e-09 -5.8948575e-09 -6.026043e-13 7.411472e-21 -3.562e-41
9.179496e-11 1.9819083e-12 -6.2565806e-09 8.39721e-24 -1.1255503e-22 4.646894e-15 -1.0784e-41 7.6676043e-20
-4.498264e-12 -9.140786e-12 -2.2933965e-11 2.4119953e-10 1.4700356e-09 -2.471385e-11 -4.4724176e-11 4.838147e-18
1.0489e-41 -2.0289637e-15 -2.6961756e-38 -1.1852611e-15 -1.3368125e-20 -3.646143e-12 3.023643e-11 4.5929446e-20
1.7511721e-10 -1.6327282e-11 2.3284055e-10 1.1233845e-05 -9.827e-42 3.4683687e-09 -1.06281255e-10 7.945166e-09
9.600112e-11 4.6332735e-18 6.447877e-10 -3.7038293e-11 4.9613835e-10 1.4154596e-10 -8.807113e-11 -5.1508943e-11
2.6847233e-21 3.4997432e-12 1.738127e-11 4.2485515e-11 -1.6809827e-05 -1.0430468e-11 1.0535471e-10 -8.132231e-10
1.6672599e-12 1.4081807e-11 -5.685492e-22 6.819469e-20 -3.4275787e-11 9.877917e-17 -2.901389e-23 -9.889e-42
4.603237e-14 2.4347147e-10 5.3808912e-11 -1.1577044e-10 -1.4587753e-10 1.9433e-11 4.421291e-19 -4.7736606e-20
3.151365e-10 -7.4225244e-11 -1.2067389e-10 7.525366e-21 -8.00431e-24 -2.7283481e-06 -9.813e-42 1.2085931e-19
-0.001218754 -3.088272e-05 -0.18866202 -0.07080671 -0.0036286905 -0.00014353577 -0.0053016325 0.095181644
0.00021234255 -0.005633776 -1.3252144e-06 -6.441476e-05 -1.12928055e-05 -0.10740592 -0.078673005 -0.020397967
0.05814194 -0.04093453 0.05008775 0.004135781 -1.6298556e-07 -8.396123e-09 0.09080588 0.0004940342
-0.41364244 0.020341774 -0.11588292 0.0071147517 -0.01055048 -0.083092876 0.067385025 -0.14921968
-0.004707318 -0.06559725 0.002700553 -0.06915412 -0.0008281604 0.00048470387 -0.087770596 -0.009234012
-0.025853366 -0.0013433747 0.005266279 -0.00015393563 -0.23455794 0.021585822 -3.2189076e-10 6.131153e-15
-0.013438722 0.097173445 -0.21700495 -0.06778939 0.01899662 -0.05388126 0.053109143 0.0009821823
0.04987846 -0.05928818 -0.32543656 -1.2956928e-05 0.028971244 -0.00011369494 -0.00056570186 0.007096297
-0.00019109316 3.3581135e-05 0.045016527 0.038629934 0.13384931 -0.00027968583 0.009297174 0.002621707
0.00014298529 0.00025039024 -3.730253e-12 -4.1825035e-07 -2.0984041e-09 0.032977346 0.06894296 0.0026236384
-0.006440825 -0.01389845 0.05861591 0.0002145825 2.2663137e-17 -8.527882e-12 0.034259137 0.0001760407
0.11317771 -0.0007137501 0.09649929 0.0078322375 0.0012408732 0.041219424 0.01904059 0.07249893
0.00045811562 -0.06745163 -0.0046283877 0.10072755 0.00046769078 7.9922764e-05 0.07844797 0.005147299
0.009345035 0.0010307841 0.0004725372 -5.414877e-08 0.068564944 8.8364126e-05 1.1988445e-11 -1.5702352e-24
-0.012583183 0.057114433 0.09611828 0.047247175 0.044470448 0.0032148587 2.550527e-06 -8.75912e-05
0.059769675 0.10685209 0.24225512 -1.272952e-07 9.2247996e-05 5.5659284e-06 -6.5564454e-05 -5.5553184e-05

causal_fusion.bias f4 [64]
00000000: a0d0 36b3 0cdc 273d b551 ca3c d596 11b6
00000010: b245 b23d c921 84a9 7c8c 49bc c099 f23e
00000020: 755b 41b9 a49b edbb 1262 5eb2 8e28 baba
00000030: 791b 853c 89ef acb7 23a0 c1ba 9be0 b43d
00000040: d8b6 08bd 83fb b4bd 053b 57bd 42fa 2fbb
00000050: ba08 4e9b ef1b 87b7 b2a3 10bc 6146 4fbb
00000060: efde 99ad 2948 70b9 0d20 e1ad 7634 80b7
00000070: 9dc3 1eba 8171 27bb d6c6 95b5 087a 9f3d
00000080: 5329 85b9 0655 363e 364c 29b5 dafa 38be
00000090: 6354 c5bb 2b47 13be d2a3 a4a2 cd0b b2b8
000000a0: 3313 80bb e28e 8abd e120 663e 9262 123e
000000b0: b40e 20b2 1a5c c73d 06c0 06b9 f3d2 f3b8
000000c0: f262 1497 0fc6 31be e27a f33d ead3 29b3
000000d0: 84c7 b1ac 9247 21b4 d870 2cbc 3578 69ac
000000e0: 909d bfbb a658 69bd febb 0bb9 de64 be3d
000000f0: 4a59 48bd d3db 283e e1ae b73d e9ab 15b0
-4.256492e-08 0.040981337 0.024697164 -2.169448e-06 0.087046996 -5.8678384e-14 -0.0123015605 0.47382927
-0.00018439985 -0.00725122 -1.2944399e-08 -0.001420276 0.016248452 -2.061554e-05 -0.0014772456 0.088319026
-0.0333775 -0.088370346 -0.05254652 -0.0026852046 -1.704274e-22 -1.6106262e-05 -0.0088280905 -0.0031627642
-1.7493089e-11 -0.00022915065 -2.5593772e-11 -1.5283218e-05 -0.00060563703 -0.0025549831 -1.1159234e-06 0.077869475
-0.00025398526 0.17805871 -6.306831e-07 -0.18064442 -0.0060220226 -0.14382617 -4.462574e-18 -8.4898995e-05
-0.0039085387 -0.06765534 0.2247348 0.14295414 -9.316569e-09 0.09734364 -0.0001285077 -0.00011626435
-4.7946266e-25 -0.1736071 0.118886724 -3.9541113e-08 -5.0527933e-12 -1.502033e-07 -0.010524951 -3.317802e-12
-0.0058476403 -0.056969307 -0.00013326106 0.09296583 -0.048913278 0.16490106 0.089689024 -5.4450183e-10

gcn_layers.0.bias f4 [64]
00000000: 61ce 8738 21b3 2c38 bb46 ec37 d32b 66b8
00000010: f839 bbb7 c87f 3039 64fb 2ab8 e780 df37
00000020: 8fb6 8638 50c9 9db7 e3d1 ac39 27be 97b9
00000030: 4c2e 4cb9 00ad 2937 e4f9 5ab9 3383 35b9
00000040: a630 b439 4265 b337 8487 b2b8 42b5 2339
00000050: a9af 0e37 1e7c b5b8 7f16 66b8 2514 bbb6
00000060: b6dd d537 2e22 5738 a4d2 fab8 f601 4cb7
00000070: 6bdd 9338 d3dc 5fb8 557b 83b9 0d2a 9637
00000080: 198b e437 bca6 dbb8 d674 c7b8 1b6c 64b8
00000090: 70eb 5339 8c95 a4b7 ed5d 0cb9 5509 5939
000000a0: 5dae 1938 bd7f 8339 fc57 3ab8 edbb 96b8
000000b0: eaf9 0b38 5c3d 4b38 a622 9a38 4757 8f38
000000c0: 883e 43b9 5ad5 46b8 baf6 cc37 bac4 9437
000000d0: b685 6038 8bae cf39 fe80 12b8 31b5 2c39
000000e0: a1db cb38 d8ef e838 1016 3639 e72c 5138
000000f0: d156 4438 cdf9 8e38 ab0a 7438 620b 91b6
6.475743e-05 4.1174822e-05 2.8166329e-05 -5.4877088e-05 -2.2319131e-05 0.0001683227 -4.0765284e-05 2.6643696e-05
6.423622e-05 -1.8809602e-05 0.00032962774 -0.0002894264 -0.00019472203 1.0113465e-05 -0.00020883192 -0.0001731038
0.0003436852 2.1385615e-05 -8.512943e-05 0.00015612415 8.504759e-06 -8.653871e-05 -5.4857224e-05 -5.5753794e-06
2.549482e-05 5.1291827e-05 -0.00011960164 -1.2159804e-05 7.0507485e-05 -5.3373e-05 -0.00025078157 1.7900975e-05
2.724449e-05 -0.000104737905 -9.510822e-05 -5.4460117e-05 0.00020210235 -1.9619962e-05 -0.0001338643 0.00020698209
3.664043e-05 0.0002508144 -4.4427798e-05 -7.187561e-05 3.3372933e-05 4.8456117e-05 7.349746e-05 6.835028e-05
-0.00018619944 -4.7405578e-05 2.4433586e-05 1.7734583e-05 5.353029e-05 0.0003961216 -3.4929246e-05 0.00016470697
9.7207034e-05 0.000111072965 0.00017365091 4.98713e-05 4.6810896e-05 6.817617e-05 5.818407e-05 -4.322662e-06

gcn_layers.0.lin.weight f4 [64, 64]
00000000: 2c7a 4d2f ac0f 05bd 994e 493d d4d0 9180
00000010: 6169 78bc 1028 fabb 22e3 852e 6cd3 79bb
00000020: 228c 23b3 4f21 c337 991b 0000 4f87 d329
00000030: 6a00 d7bc 9f1b 0080 2896 01b1 20c1 f53b
00000040: c83c 5fa9 8e5c dbb1 552a c83c e2a5 e934
00000050: 691b 0000 9f1b 0000 5600 a59f 016c e9ad
00000060: 7d1b 0000 e0a8 5ea5 d9d6 4a17 92e2 3400
00000070: 923b f18e a01b 0000 26d3 ad28 8324 fb3c
00000080: 1792 0b2e 6561 4dbd 3945 cb11 ae91 96bd
00000090: 870a c7b8 96fe b2bc 681b 0000 9d1b 0080
000000a0: 2f2a 60af 4b52 c13c e5a5 13be 902d f5bd
000000b0: 6e16 6fa5 b03e ea3d 6708 4fad 1e94 a7b7
000000c0: a61b 0080 1dae 90bd 0149 07be 961b 0000
000000d0: 781b 0080 4854 0a31 323d 23a5 791b 0080
000000e0: d0c1 6c33 078d 503d 3f74 c509 e832 11bd
000000f0: 6c6b e02e 297e d2bd 4935 383b b81b 0000
00000100: dc91 852f b4f5 af3c 3adb cbbd 991b 0080
00000110: fc2e dabd 7f1b 0080 404a 1935 0b46 62be
00000120: 853b 9094 db2a 983a 7e1b 0080 84de 9aad
00000130: 516f ad3d ac1b 0000 48d4 1eac 54ad 05bd
00000140: 704a b39d ec17 ed38 7944 3d3a c5e9 aa3a
00000150: f01b 0080 8c1b 0080 a9fb 22ac 8158 8a25
00000160: 931b 0000 9e1d 0000 5d63 d699 b7db 0406
00000170: 39c0 c29f 0518 0080 6a2a bc31 c958 cfbc
00000180: 22de 102f 8208 d7bd b51b 0080 a021 9b3d
00000190: acb1 3331 4b1d c8bb 601b 0000 27d0 b10e
000001a0: 6257 3dae f4bf 093a da70 abbc 63ec d8bd
000001b0: 6ab0 8b2f 8e5b 08be 16bf 95a6 36eb 11ae
000001c0: 781b 0000 6c63 46bc 4445 703d 941b 0080
000001d0: 751b 0080 be9a a82e 2b2a 93ad 6c1b 0080
000001e0: d6bd 3eab 98bf 063e dbd1 eb13 66e4 0dbe
000001f0: d49e 832c 9391 ffbd 9c4c c4bc a81b 0080
00000200: db4c 3831 64e3 1dbc 32b6 31bd 7639 ab12
00000210: e15c 353d 0b84 2c1b eb40 e8b3 ca77 85bd
00000220: a077 0e0f c54e e1b8 03ee a91f 6b16 bd37
00000230: 8cdc d3be 166f d5ae 426e 93ba 3c70 01be
00000240: ee5a 5b2c 0ada 24b3 eeb8 823d 0b15 cfbb
00000250: 9e1b 0080 d6ed ee82 c357 1537 13b4 c834
00000260: 7f1b 0000 b01b 0000 b9f2 9219 bd92 5e2b
00000270: fb8c b42a 6951 1225 3723 cba7 b49d c0bc
00000280: e785 a932 e998 a6bd 99a5 9523 e164 81bc
00000290: cc61 5339 b0e9 8b3d 5a1b 0000 9b1b 0080
000002a0: 93dc 80af b6e3 72bc ccab d1bd 13b1 743c
000002b0: 3d41 39a6 1e5a 823d 5055 f0bb 7e5b 0502
000002c0: 581b 0000 9282 7abd 9e44 173e 9120 0080
000002d0: 7d1b 0080 2286 d62e bcd8 d129 9e1b 0080
000002e0: a5dc f9a5 b500 9abd c19d 6480 4a87 4fbe
000002f0: 78d5 6eb7 9804 d63d e835 b43d 5d5c 4ab6
00000300: 01ce 652e 472e a4bc 7094 3c3d 621b 0000
00000310: ac42 ba3d 1c84 aaaa b8a1 5c31 3270 be3b
00000320: 9e9c 9b00 d0b9 743a 931b 0000 38f3 9199
00000330: 3029 943d 741b 0000 5b6d 699e 4441 d13d
00000340: 22a6 802c d265 e5b0 2da7 413d bec3 7e03
00000350: 521c 0000 611b 0080 df24 a99f 1afa 132f
00000360: e322 0080 311c 0000 074c 1f94 591b 0080
00000370: aa1b 0080 7f1b 0000 1af6 afa7 b963 aebc
00000380: 0550 eeaa 355a c6bc f21b 0080 78d0 82bc
00000390: e64e 31b6 fbc7 7aba 961b 0080 5c1b 0000
000003a0: c90e 6431 3c14 a7a9 3c4d 333c 2023 003e
000003b0: e483 462f 3839 8d3d 6469 051a 11a3 152a
000003c0: 731b 0000 5de9 3a3e d5de 663d 681b 0000
000003d0: 741b 0000 c176 31b0 50ed 891b 591b 0000
000003e0: 840a 6728 8e9a e4bc 37d1 4414 556f 5dbc
000003f0: 39ed 2cae 0f7c 0dbe fce8 6abd a91b 0000
1.8688046e-10 -0.03248565 0.049147222 -1.339106e-38 -0.015161843 -0.0076341704 6.088487e-11 -0.0038120402
-3.8078845e-08 2.3261322e-05 9.9e-42 9.3937546e-14 -0.026245315 -9.909e-42 -1.8857325e-09 0.007499829
-4.9568666e-14 -6.384261e-09 0.024434248 4.3520328e-07 9.833e-42 9.909e-42 -6.9880774e-20 -2.6536997e-11
9.861e-42 -1.9312648e-16 6.5540896e-25 4.856724e-39 -5.946845e-30 9.91e-42 1.929843e-14 0.030657059
3.1734695e-11 -0.05014171 3.2070415e-28 -0.07352005 -9.49102e-05 -0.021849912 9.832e-42 -9.906e-42
-2.0387668e-10 0.02359881 -0.14418752 -0.11971581 -2.0737545e-16 0.11437738 -1.1768453e-11 -1.9976924e-05
-9.918e-42 -0.070644595 -0.13211443 9.896e-42 -9.854e-42 2.0129551e-09 -1.415873e-16 -9.855e-42
5.5124303e-08 0.050915744 4.7535342e-33 -0.03544894 1.02054226e-10 -0.102779694 0.0028107932 9.944e-42
2.4296198e-10 0.021479465 -0.099539235 -9.9e-42 -0.10653493 -9.864e-42 5.710499e-07 -0.22097032
-1.456376e-26 0.0011609452 -9.862e-42 -1.760659e-11 0.084684975 9.927e-42 -2.257099e-12 -0.032636
-4.7457872e-21 0.000113054964 0.0007219981 0.001303964 -1.0022e-41 -9.882e-42 -2.3161284e-12 2.3999157e-16
9.892e-42 1.0625e-41 -2.2167214e-23 2.4987862e-35 -8.24802e-20 -8.617e-42 5.476342e-09 -0.02531089
1.3175641e-10 -0.104996696 -9.94e-42 0.07574773 2.6148923e-09 -0.0061070076 9.82e-42 4.3834312e-30
-4.3051236e-11 0.00052547385 -0.020927835 -0.10591962 2.5409302e-10 -0.13316175 -1.0390746e-15 -3.3178092e-11
9.854e-42 -0.012108665 0.058659807 -9.893e-42 -9.85e-42 7.667243e-11 -1.6730691e-11 -9.837e-42
-6.776501e-13 0.13159025 5.9529274e-27 -0.13856658 3.7408774e-12 -0.12478938 -0.023962311 -9.921e-42
2.6819211e-09 -0.009636734 -0.043386646 1.0805782e-27 0.04427803 1.4270172e-22 -1.08151504e-07 -0.065169886
7.0241795e-30 -0.00010743508 7.196804e-20 2.2540995e-05 -0.413792 -9.7058514e-11 -0.0011248069 -0.1264047
3.1172248e-12 -3.838253e-08 0.06382929 -0.006319647 -9.907e-42 -3.5107468e-37 8.901526e-06 3.7383924e-07
9.864e-42 9.932e-42 1.5194081e-23 7.9073884e-13 3.2072248e-13 1.2691064e-16 -5.6382e-15 -0.023512699
1.9735081e-08 -0.08134634 1.6224746e-17 -0.015795173 0.0002015896 0.06831682 9.812e-42 -9.903e-42
-2.3439792e-10 -0.014824798 -0.10237846 0.014934796 -6.4273183e-16 0.06364845 -0.007334389 9.797554e-38
9.809e-42 -0.061159678 0.14772269 -1.1683e-41 -9.861e-42 9.75542e-11 9.319062e-14 -9.907e-42
-4.334413e-16 -0.07519666 -9.240141e-39 -0.20266452 -1.42356075e-05 0.10450095 0.08799344 -3.0154108e-06
5.225154e-11 -0.020041598 0.04604 9.823e-42 0.09094748 -3.0289736e-13 3.210614e-09 0.0058117146
1.4290686e-38 0.00093355495 9.892e-42 -1.5090884e-23 0.072344184 9.848e-42 -1.23575315e-20 0.102175266
3.6564233e-12 -1.6690882e-09 0.047278572 7.4868592e-37 1.016e-41 -9.822e-42 -7.163528e-20 1.3458426e-10
-1.2515e-41 1.0113e-41 -8.042442e-27 -9.81e-42 -9.924e-42 9.864e-42 -4.883908e-15 -0.021287786
-4.2332817e-13 -0.024212936 -1.0025e-41 -0.015968546 -2.642098e-06 -0.00095665426 -9.896e-42 9.815e-42
3.318677e-09 -7.4198e-14 0.010943707 0.12513399 1.8054852e-10 0.06895679 2.758889e-23 1.3290433e-13
9.847e-42 0.18253084 0.056364853 9.832e-42 9.848e-42 -6.4560984e-10 2.2818108e-22 9.81e-42
1.2825356e-14 -0.027905729 9.9367315e-27 -0.013515313 -3.9318968e-11 -0.13816856 -0.057351097 9.923e-42

gcn_layers.1.bias f4 [64]
00000000: b033 db38 97d5 9738 0cc5 3bb9 c26a 2fb4
00000010: 5dd5 a52d f7d7 9bb1 4789 4a35 051c b939
00000020: 7c24 0f34 f921 55b8 484c 8436 8312 5c35
00000030: 67fd 2538 1bd4 f138 f07b d637 12ca 6638
00000040: 33d1 1f36 51b0 dfb7 bb2a 4733 2fe3 972f
00000050: 4502 0f39 579b 8c34 ec72 1fb6 72a3 8937
00000060: 00b0 1cb8 dd3a 5a38 1316 36b8 f943 5430
00000070: 0f75 a838 75d5 31b7 80bd fe37 a4e3 e7aa
00000080: 7dbf c7b3 2172 312f 6068 ec38 fc30 dcb8
00000090: 2c90 1cb0 7136 8a37 4e78 bbb8 5e1d 28ad
000000a0: 2d20 81ab ad47 3f34 3896 8138 afa9 ecb4
000000b0: f795 88b8 3481 5434 ad77 50b8 8e7b d3a9
000000c0: b4e5 3439 cefc 9037 c7be a5ac a411 2933
000000d0: 171e c9ac 720e 94b6 c8da a337 7388 8d38
000000e0: a1c2 b1b3 2fc9 18b0 898f 04ab 81c6 7db6
000000f0: 1d2f 9eb7 da0d 64b7 1a20 84b4 0cd9 3438
0.00010452361 7.240025e-05 -0.00017907115 -1.6336983e-07 1.885308e-11 -4.535646e-09 7.545063e-07 0.00035306826
1.3331186e-07 -5.0814797e-05 3.942787e-06 8.1983325e-07 3.9575065e-05 0.00011531283 2.55685e-05 5.5024466e-05
2.3814616e-06 -2.6665775e-05 4.637216e-08 2.7628164e-10 0.00013638388 2.6190057e-07 -2.375974e-06 1.6407783e-05
-3.735721e-05 5.203007e-05 -4.341274e-05 7.7221746e-10 8.032668e-05 -1.05997215e-05 3.0367402e-05 -4.11918e-13
-9.301491e-08 1.6138603e-10 0.00011272798 -0.000104995415 -5.695735e-10 1.6476233e-05 -8.939263e-05 -9.556215e-12
-9.174932e-13 1.7814337e-07 6.17918e-05 -4.4081887e-07 -6.5129185e-05 1.9791042e-07 -4.970252e-05 -9.3917156e-14
0.00017251709 1.7283859e-05 -4.7107626e-12 3.9364423e-08 -5.7161042e-12 -4.4124254e-06 1.9532992e-05 6.7488196e-05
-8.2776076e-08 -5.5583177e-10 -4.7095016e-13 -3.7815482e-06 -1.8857007e-05 -1.3593084e-05 -2.4610273e-07 4.3117485e-05

gcn_layers.1.lin.weight f4 [64, 64]
00000000: 7793 913d 7a24 09be bb79 70bc 10bc 353d
00000010: 2340 4dbd 3ea1 b4bc 9afe dcbd f3f2 763c
00000020: 8a16 74bd d1a7 a3bb ba64 82bd 995f 903c
00000030: 25f0 1f3d 4f85 de3c 13e0 06be 822b a13b
00000040: b39f aebb f9ab a43c 26d0 bbbc 1ba0 253e
00000050: 74a5 753d 2ff6 253d f893 53bd a9a0 c4bd
00000060: 265a 563d 6f0a 0dbd 1428 abbd 4e1b 53bc
00000070: 4619 4d3d 8f0c 0ebd f188 da3c 636a 343d
00000080: c151 de3d e16c 34bd 7534 f43d 96f4 e6bd
00000090: c868 303c f6ee 73bd e016 63bd ad8d 383e
000000a0: b66a 293e 0076 803d cf4a 0c3c 6bfa a8bd
000000b0: f65e 4ebe 66bb 0c3e 2701 393d 10d4 8abd
000000c0: 399f 1d3d 3d25 693e 4418 ffbd 9c14 383e
000000d0: 6635 3ebe bdd0 c13d 893a 30be 89eb e23c
000000e0: 9318 303c d440 5bbe c228 3ebc 2b8a de3d
000000f0: 85f7 94bd 3d8c 5f3d 4453 1e3e f0b7 aabd
00000100: dfd4 50bc ef4d 553d b1c1 d23d 8240 c1bd
00000110: bbca 133d aee1 d4bd b0c2 13be e784 57bd
00000120: fb16 c0bd 5f8b aebd 8486 293d cc09 26bd
00000130: 71e1 d7bb 5ce5 9dbd 52d9 b03d d3db 78bd
00000140: d077 9abd 6b6d b8bd ed3f 00bd 73f2 0fbe
00000150: 8fe2 b03d c43b 20be 9e7d 793d 1273 8e3d
00000160: 2c65 b8bd 0e42 a8bd 13e6 113d b86c 8cbb
00000170: 48ce 053c 13ca 2b38 9715 38bd d815 983d
00000180: 7623 973d 5f14 84bd 49ff 03be 9b01 dfbd
00000190: 78be 2539 5305 173e e06b a43b 747e 0bbd
000001a0: a7f5 1f3b 2181 9b3d f163 c73d 1690 bd3c
000001b0: 280c 263b 4c0f 593d 5876 cfbc 8a69 463c
000001c0: 6ca2 7b3c ac61 2abe 316f e2bc cef9 1d3d
000001d0: 34fc e03d ff02 0a3e 5b05 a13c b559 74bc
000001e0: 781c 89bd 4491 a73d d34f 99bd 3ce2 2cbd
000001f0: f4e1 9abd e69b 56bd a5c0 25bd 0c87 9a3d
00000200: 6b0e a43d 3424 d1bc 4dae e23d 541f 84ba
00000210: 37b8 40be d018 253d 295c 09be ea5e 833d
00000220: a15a 8abd d4f1 0cbe 1f35 6ebd a1e3 b1bd
00000230: bb83 293d f816 153d 7744 40bd 6722 6cbc
00000240: 358c 9b3c 1140 e33b 2dca 5abd 575b 58bc
00000250: b193 063d 11cc d7bb f0d4 a5bd b109 913d
00000260: 211b 95bd fa5d 9e3c e2ad 9a3d df6f e3ba
00000270: 6709 c03c 1e05 0abd ed16 cdbd 87b7 d23d
00000280: 13ca c83c 52a1 29bd 199f 903b 121f 88bd
00000290: 33f0 47bd 0677 2f3e 0851 dbbc f75d d5bc
000002a0: 3d39 a53d 6d3a 7a3e e554 243e b729 dfbb
000002b0: 6926 21be 6ee5 303d b92e fe3c da6b afbd
000002c0: 8f5f c6bd 9537 56bc 719a 94bd 682a 063d
000002d0: 18cb eebd d2ee 8f3d a7bc 5fbe 6f48 4a3d
000002e0: dd87 b3bd ddc2 c1bd 961d 66bd afa1 2dbd
000002f0: ca9c 0dbe ac88 b4bc c55f 8d3d 1a31 91bd
00000300: 9e1b 0000 5b1b 0000 9e1b 0000 621b 0000
00000310: 821b 0000 331d 0080 871b 0000 5e1b 0080
00000320: 9c1b 0080 a11b 0000 661b 0000 661b 0000
00000330: 5e1b 0080 6a1b 0000 711b 0080 681b 0000
00000340: 991b 0080 5e1b 0000 971b 0000 5c1b 0000
00000350: 941b 0000 9f1b 0080 721b 0000 671b 0080
00000360: 711b 0080 771b 0080 981b 0000 901b 0000
00000370: 901b 0080 811b 0000 a01b 0080 821b 0080
00000380: 581b 0080 5c1b 0080 c11b 0000 831b 0080
00000390: 9f1b 0080 861b 0080 a01b 0080 811b 0080
000003a0: 871b 0000 9b1b 0080 901b 0000 691b 0000
000003b0: a21b 0080 7e1b 0000 5b1b 0080 ad1b 0080
000003c0: 6d1b 0080 8e1b 0080 971b 0000 a91b 0080
000003d0: 8c1b 0080 721b 0080 7e1b 0000 6f1b 0000
000003e0: 781b 0000 841b 0080 871b 0080 7a1b 0080
000003f0: 9e1b 0000 6e1b 0080 a41b 0080 931b 0080
0.07108205 -0.13392821 -0.01467746 0.044368804 -0.050109994 -0.022049543 -0.10790749 0.015072572
-0.059591807 -0.0049943705 -0.06366868 0.01762371 0.03904738 0.027163176 -0.13171415 0.0049185166
-0.005329096 0.020101534 -0.022926401 0.16174357 0.05997224 0.040517982 -0.051654786 -0.09600956
0.052332066 -0.03443378 -0.08357254 -0.012884928 0.05007293 -0.034679946 0.026676627 0.04404677
0.10855437 -0.044049148 0.11924068 -0.1127712 0.010767169 -0.059554063 -0.055441737 0.18022795
0.16544613 0.06272507 0.008562758 -0.082508884 -0.20153412 0.13743362 0.045167115 -0.06778729
0.038481925 0.22768112 -0.124558 0.17976612 -0.18575057 0.09463642 -0.1720983 0.027700203
0.010748046 -0.21411449 -0.011606397 0.10866197 -0.07273773 0.0545771 0.15461451 -0.083358645
-0.012746065 0.052076276 0.1029085 -0.09436132 0.03608201 -0.103946075 -0.14429736 -0.05261698
-0.09379383 -0.08522677 0.04138805 -0.040536687 -0.006588154 -0.077097625 0.086352006 -0.060756516
-0.07542384 -0.09005245 -0.031310964 -0.14057331 0.086369626 -0.15647799 0.060910814 0.06955542
-0.09003672 -0.08215724 0.035619806 -0.004285421 0.008166857 4.0957773e-05 -0.044942465 0.07426041
0.073798105 -0.06449198 -0.12890352 -0.10888978 0.00015806581 0.14748125 0.0050177425 -0.034056142
0.0024407895 0.07592989 0.09735859 0.023139995 0.0025336836 0.052993104 -0.025324985 0.012110123
0.015358549 -0.16638821 -0.02764091 0.03856831 0.10985604 0.13477705 0.019655874 -0.014913966
-0.06694883 0.08182004 -0.074859284 -0.04220794 -0.075626284 -0.05239477 -0.040466923 0.075452894
0.080105625 -0.025529958 0.110684015 -0.0010080137 -0.18820272 0.040306866 -0.13414063 0.06414588
-0.06755567 -0.13764125 -0.05815613 -0.08685995 0.041385394 0.036398858 -0.046940293 -0.014412499
0.018987754 0.0069351275 -0.053415466 -0.013205371 0.032855693 -0.006585606 -0.08097255 0.070819266
-0.07280565 0.01933192 0.07552697 -0.0017352066 0.023441983 -0.033696286 -0.10014138 0.10288911
0.024510419 -0.041413613 0.004413497 -0.06646551 -0.048813056 0.17135248 -0.026772037 -0.026045782
0.08067558 0.2443635 0.1604801 -0.0068103927 -0.15737309 0.04318755 0.031028138 -0.08565493
-0.09686195 -0.013074775 -0.0725602 0.032755286 -0.11659831 0.07027973 -0.21849309 0.049385484
-0.08766148 -0.09460995 -0.05618056 -0.04239052 -0.13829342 -0.022037826 0.06903032 -0.070894435
9.907e-42 9.813e-42 9.907e-42 9.823e-42 9.868e-42 -1.0475e-41 9.875e-42 -9.817e-42
-9.904e-42 9.911e-42 9.829e-42 9.829e-42 -9.817e-42 9.834e-42 -9.844e-42 9.832e-42
-9.9e-42 9.817e-42 9.897e-42 9.815e-42 9.893e-42 -9.909e-42 9.846e-42 -9.83e-42
-9.844e-42 -9.853e-42 9.899e-42 9.888e-42 -9.888e-42 9.867e-42 -9.91e-42 -9.868e-42
-9.809e-42 -9.815e-42 9.956e-42 -9.87e-42 -9.909e-42 -9.874e-42 -9.91e-42 -9.867e-42
9.875e-42 -9.903e-42 9.888e-42 9.833e-42 -9.913e-42 9.862e-42 -9.813e-42 -9.928e-42
-9.839e-42 -9.885e-42 9.897e-42 -9.923e-42 -9.882e-42 -9.846e-42 9.862e-42 9.841e-42
9.854e-42 -9.871e-42 -9.875e-42 -9.857e-42 9.907e-42 -9.84e-42 -9.916e-42 -9.892e-42

bn_layers.0.module.weight f4 [64]
00000000: 865d 703d 8a2f 223e 2ee5 cb3e 524a b63d
00000010: 5ada a43d 134a 143e 1e19 583e 09ba d93d
00000020: ceaf c03e 6403 f63d 1ede aa3d 4d2e 293e
00000030: 54e5 933d 66cd db3d 1674 ad3d 80fb af3e
00000040: 4736 163e 72d3 843e 6259 9b3d 2230 cd3d
00000050: 598b b03d 240d ac3d 02ae e93d fbc7 b23d
00000060: e61b dc3e 89a4 ee3d 84c2 483e 3e5c d13d
00000070: a6fd df3e f23d 173e 2727 fd3d 8637 dc3d
00000080: 164d 993d ff76 bd3d 71d3 a83d 2900 573e
00000090: 9984 103e 2201 5d3e 84c5 303e 70f5 083e
000000a0: 33e0 b43d 7060 e03d 1ffe 003e d314 f93d
000000b0: 2c45 883d c982 a43d e3f5 ce3d 8f4c 303e
000000c0: 9e4a 0d3e 132c bc3d 25ec ef3d b7df 963d
000000d0: 9a48 d33d 36a5 a33e 467d 923d 16c8 d23d
000000e0: ea47 b33e dc51 893d 520e c23e 97cf 893e
000000f0: 9c6d d13e acb4 a63d 87c6 ae3d 5328 b03d
0.05868294 0.15838447 0.39823288 0.08900894 0.0804946 0.14481382 0.21103331 0.106311865
0.37634128 0.120123655 0.08343147 0.16521569 0.07221475 0.10732536 0.08469407 0.34371567
0.14669143 0.2594257 0.07585408 0.10018946 0.086203285 0.08400944 0.114101425 0.087295495
0.42990035 0.11652476 0.19605452 0.10222672 0.43748206 0.14769724 0.12360983 0.10752778
0.07485406 0.09251212 0.08243454 0.20996155 0.14113082 0.21582463 0.17262846 0.13374877
0.08831825 0.10955894 0.1259694 0.12162175 0.066538185 0.08032758 0.10105493 0.17216705
0.13797995 0.09188094 0.11714963 0.07366889 0.10316582 0.31961983 0.071528 0.102920696
0.35015804 0.067050666 0.3790155 0.2691619 0.40903938 0.08139929 0.0853396 0.08601441

bn_layers.0.module.bias f4 [64]
00000000: 3128 11bd 0553 3dbb 4994 19bd d74d 46be
00000010: da53 133d e74e 08be c9b1 3d3e 83ad 553d
00000020: 0ec0 27bd 397b 043e 8ced 163e a2d6 2bbd
00000030: 0316 a8bc e8f8 653d 400c a43d 7434 673b
00000040: e136 033d a3e0 dbbd fd40 003e 36bb 443d
00000050: cb0d 03be cf50 bb3c d7d4 a93d 8bb3 113e
00000060: 4ef7 54bc 2839 44bc 7785 2c3c 35bc 2a3d
00000070: 199b 31bc fb7a 4abe d1f5 c43e c11d 06be
00000080: 15ca 7fbd 2cc2 083e 0909 c83b b1d6 aabc
00000090: 2c91 51bd 248c 2f3c ca4c ecbd 1273 523d
000000a0: 2d1d 03be 1020 6cbd 35be 2f3c b6c8 0d3e
000000b0: 2d81 343d bc6c d6bc 8673 dfbd 0a19 82bd
000000c0: dd2f 47be 2675 843d c5ba 3bbc ae7a 00be
000000d0: 5d38 7c3d 65de b23d abf7 a23d f341 c4bd
000000e0: 934b 883d 7690 c53d 64fe 12bb d8e2 76b9
000000f0: c8f0 3fbd b2d1 10be ee2f 86bd 9a67 f43d
-0.03543872 -0.0028888595 -0.03749493 -0.19365631 0.03596864 -0.13311349 0.18524851 0.052167427
-0.040954642 0.1293763 0.14739054 -0.041952737 -0.020518309 0.05614558 0.08010149 0.0035279067
0.03203476 -0.107362054 0.12524791 0.0480301 -0.1279823 0.022865681 0.08292549 0.14228646
-0.012998415 -0.011976518 0.010529867 0.041683394 -0.010840201 -0.19773476 0.38468793 -0.13097288
-0.06244858 0.1335532 0.0061045927 -0.020854326 -0.051163837 0.0107145645 -0.11538084 0.05137927
-0.12804098 -0.057647765 0.010726501 0.13846096 0.044068504 -0.026174895 -0.10910706 -0.06352432
-0.19451852 0.06467657 -0.011458104 -0.12546799 0.06157719 0.08733825 0.07957395 -0.09582891
0.0665504 0.09646694 -0.002242946 -0.00023544894 -0.046860486 -0.14142492 -0.065521106 0.11933823

bn_layers.0.module.running_mean f4 [64]
00000000: 3c47 d0bd 4944 5fbe 8f50 9dbd 4d05 043d
00000010: c493 b53c ae48 7fbd fa12 843d 0fb8 5d3d
00000020: 4508 1bbd b0cf fc3d e03b f93c 04d7 eebd
00000030: c965 4ebd 3841 923b d98d 273d f982 88bd
00000040: 7239 f7bb 867c 1f3e cdc9 5a3d 7c33 4e3d
00000050: 6d77 38bc 734a 98bd ad32 233d f8d9 bd3c
00000060: 9f16 a8bc 7a02 183c 4c32 9d3d 5354 acbc
00000070: 4518 58bb 062c 363c eb67 5b3d 392d 40bc
00000080: 1c75 c13b 6bf2 573d 00a5 bdbd 3111 25bd
00000090: 6813 e7bd f988 2bbc cd1c 313e 6932 ce3c
000000a0: 6392 1cbd d7bf 44bd 169e a2bc 9234 7a3d
000000b0: e3cf 1f3c 17fd 4d3b bc03 d6bd da47 fbbd
000000c0: 0eb8 0bbe d3ec d83c fdbb 05bd 20ab 953c
000000d0: caf3 a43b 49dc 4abd 0726 933d 5e8d 23bd
000000e0: 12ef 48bc 3e52 8d3d e6ab 36bd 6e17 38bd
000000f0: 6e89 6fbd d2d1 443d 34f5 4dbc 39d2 253d
-0.10169837 -0.21803392 -0.07681381 0.032231618 0.022165187 -0.062325172 0.06448932 0.05413061
-0.037849683 0.12344301 0.030424058 -0.11662105 -0.05039004 0.004463341 0.04090676 -0.06665606
-0.00754469 0.15574846 0.05341511 0.050342068 -0.011258942 -0.07436075 0.03984325 0.023175225
-0.0205186 0.009277934 0.07675609 -0.021036303 -0.003297345 0.011118894 0.0535659 -0.011729532
0.005903853 0.052721422 -0.09259987 -0.040299598 -0.11282998 -0.010469669 0.17296143 0.025170522
-0.038225543 -0.048034515 -0.019850772 0.06108529 0.009754154 0.003143137 -0.10449931 -0.12269564
-0.1364443 0.026480114 -0.032649983 0.018270075 0.0050339447 -0.049526487 0.071849875 -0.03992974
-0.01226403 0.06900452 -0.04459753 -0.04494422 -0.058480673 0.048051663 -0.012570668 0.040483687

bn_layers.0.module.running_var f4 [64]
00000000: 3666 6339 a367 e639 704e 8c39 e00b dd38
00000010: 1680 8039 d15c d338 e46b bd39 fe24 8739
00000020: d686 043a b022 073a 68c3 c338 1f16 3639
00000030: f87b 0b39 7018 5e39 ec7c 4139 5090 193a
00000040: ae97 3c39 dcf3 ae39 546b 8a39 f455 7439
00000050: d583 5c39 1e19 4739 d6dc 3339 f1e3 1939
00000060: 814d d439 f9be 7d39 2505 c939 eefb 7839
00000070: b952 f139 533b 8238 a90f ec39 ba5f 2f39
00000080: 33c9 1239 a89e 6739 ad3f 1439 3c6a ca39
00000090: 97ed 3339 fc4b 5839 9343 a939 04db 0c39
000000a0: 9263 0039 75e1 d638 249e eb38 146d 4639
000000b0: 2c43 7b39 7459 0339 3a89 9639 191c 9039
000000c0: 36d1 b739 885f 6f39 bc72 a739 b835 e638
000000d0: 5842 2139 ce44 7039 432f 8939 cc7a 1339
000000e0: 01ad bf39 796f 4339 6bbd f939 6b9f 5c39
000000f0: b0d0 9f39 ef4a 2239 21a8 1739 73f2 0c39
0.00021686484 0.00043946234 0.0002676132 0.00010540313 0.00024509494 0.000100785524 0.00036129274 0.00025776768
0.00050554925 0.000515501 9.334722e-05 0.00017365113 0.00013302255 0.00021180674 0.00018452451 0.0005857991
0.00017985582 0.00033369556 0.00026401377 0.00023301673 0.00021029946 0.00018987476 0.00017153038 0.00014676132
0.00040493536 0.00024199103 0.0003834154 0.00023744974 0.00046028735 6.209933e-05 0.00045025095 0.00016724961
0.00013998598 0.00022088981 0.00014138101 0.00038607593 0.0001715928 0.00020627672 0.0003228454 0.0001343303
0.00012244124 0.0001024631 0.00011235129 0.00018923386 0.00023962249 0.00012526457 0.0002871247 0.00027486755
0.00035060354 0.00022828404 0.00031938206 0.000109772605 0.00015378871 0.00022913815 0.0002616589 0.00014064758
0.00036559257 0.00018638176 0.00047634108 0.00021040223 0.00030482328 0.00015477439 0.00014463115 0.0001344176

bn_layers.1.module.weight f4 [64]
00000000: b34c 103f d11d c33e ff2e ce3e 0b08 9c10
00000010: 3f52 a633 1cdc 1e9f 9c1b 0000 16ba a83b
00000020: 0c45 14ac da60 bd3e f0b4 8d3e e191 0ea6
00000030: f383 943e 6282 ff3e 81d7 1e3f e5c0 f7b8
00000040: f837 c73b c21d 693e 0d36 2ea1 631b 0000
00000050: beb4 2a3f 806c 6039 d8e1 55b5 cb2e aa3e
00000060: f1bd 593e 255e 1e3c 2ac4 4d14 1f0a 442a
00000070: 6e33 fc3e 3530 893e 260b 5ea7 1321 5235
00000080: 1d0f fe1f 87c8 df32 eece 023f 6c65 e23e
00000090: 6a1b 0000 e3f4 75ab 5970 943e 951b 0080
000000a0: 9c3c 6a2d 0628 9ab3 107e 5b3e 1213 1a3a
000000b0: d20f ec3e 6f9f 6727 7f38 9c3f b458 84b1
000000c0: 1e24 c53e 92ae 533f 836a 6435 107b be22
000000d0: cd38 67b9 4b21 0000 9ae6 113f 3f8c be3e
000000e0: 66a9 bbb5 771b 0000 971b 0000 d713 47a6
000000f0: 19d9 5d3e c411 cf3e 77bc 2137 3fc3 663d
0.56367034 0.38108686 0.4027023 6.154354e-29 7.744938e-08 -3.3639872e-20 9.904e-42 0.0051491363
-2.1070394e-12 0.36987954 0.27677107 -4.946385e-16 0.2900692 0.49904162 0.6204758 -0.00011813807
0.00607967 0.22765258 -5.902503e-19 9.825e-42 0.6668204 0.00021402724 -7.967733e-07 0.33238825
0.21263863 0.0096660005 1.0388542e-26 1.7411808e-13 0.49257988 0.26794592 -3.0814733e-15 7.8279226e-07
1.0759819e-19 2.6051806e-08 0.51097 0.44218004 9.834e-42 -8.7381334e-13 0.28991964 -9.895e-42
1.3314818e-11 -7.178464e-08 0.21434808 0.00058774755 0.4610582 3.214412e-15 1.2204741 -3.85179e-09
0.38504118 0.8268825 8.5091614e-07 5.16299e-18 -0.00022051037 1.1943e-41 0.56992495 0.37216374
-1.3981887e-06 9.853e-42 9.897e-42 -6.906888e-16 0.21664847 0.40443242 9.640228e-06 0.056338545

bn_layers.1.module.bias f4 [64]
00000000: 7ffc c8be aeac 1fbe 0edf c6be 61b4 2b85
00000010: 2e56 d9b2 4a4a 74b5 891b 0080 bf46 afbc
00000020: 4938 5cb6 3b4c 54be a34f 333c 2c72 44b5
00000030: 4e04 febd c5bb fbbd 0f4d 393e b56f 4fb6
00000040: 6f0c 04bc eef1 303e 2ebe aaae 8e1b 0080
00000050: 5db8 6fbe 4ee4 9cb5 0f15 c8b0 b5c4 c73e
00000060: aece c83c d8b9 80bc b6a3 bfaf 404f 2a9e
00000070: 6840 3fbf 8799 24be ea57 0ab7 a044 f4a9
00000080: 9f55 99b0 9451 60a1 f1c3 2fbe 36cf 8cbe
00000090: b91b 0080 ddd4 c536 2164 3ebe 8e1b 0080
000000a0: 4490 9e9b 44bb 8bb3 17ef 083e f380 c9b6
000000b0: 620d 26bf f832 87b7 48bc 443e 9356 1bac
000000c0: 5e87 cbbe ea3b 0dbf e24e 6bb2 c87f 4ab3
000000d0: a23f f5b8 721b 0080 6bc9 3dbe 157c 40be
000000e0: edc0 d2ac f21c 0080 d11b 0080 7a2e 22b6
000000f0: 954c c4bd 01de ae3e 1d2b 0fb0 134f 4dbd
-0.3925514 -0.15593216 -0.38842052 -8.073512e-36 -2.5301315e-08 -9.100519e-07 -9.878e-42 -0.021396039
-3.2815317e-06 -0.20732205 0.01094428 -7.318183e-07 -0.12403165 -0.122916736 0.18095802 -3.0910426e-06
-0.008059605 0.17279789 -7.764488e-11 -9.885e-42 -0.23410173 -1.1689351e-06 -1.45579e-09 0.39017263
0.024512615 -0.015713617 -3.485902e-10 -9.0161136e-21 -0.7470765 -0.16074191 -8.24591e-06 -1.0847681e-13
-1.115655e-09 -7.600212e-19 -0.1716459 -0.2750184 -9.945e-42 5.895838e-06 -0.18592884 -9.885e-42
-2.6232137e-22 -6.506755e-08 0.13372456 -6.0052785e-06 -0.6486417 -1.6116988e-05 0.19212449 -2.2074883e-12
-0.39751714 -0.55169547 -1.3696736e-08 -4.7148006e-08 -0.00011694363 -9.846e-42 -0.18533866 -0.18797334
-5.989978e-12 -1.0384e-41 -9.979e-42 -2.4166934e-06 -0.09584919 0.3415375 -5.2084365e-10 -0.05012424
