result/tgcn_model.pth (torch, 210018 bytes, 20 tensors)

lin_in.weight f4 [64, 6]
000000 80 87 3e bf fb 05 ba bc ab 40 ec bc 5e a7 8f be
       -0.74425507 -0.02270793 -0.02883943 -0.2805738
000010 2d fe c1 3c e2 7b 42 bc 6e 01 ef b7 51 8f 22 bb
       0.02368077 -0.011870356 -2.8491686e-05 -0.0024804662
000020 6c c5 ec 39 27 48 c8 36 bc 30 ff 39 72 69 ac b8
       0.00045160518 5.968864e-06 0.000486737 -8.22124e-05
000030 e2 ea ae be 08 2a fe ba da 1c 3a bc fb cb 51 3f
       -0.34163576 -0.0019391188 -0.011359418 0.81951874
000040 89 1e 63 3c be be c5 3d a6 5e 0e 3e 56 19 e3 be
       0.013862261 0.09655522 0.13903293 -0.44355267
000050 d5 87 a3 3d 3a ca 25 3d 82 ec a6 3c dd 82 83 bb
       0.07984892 0.04047606 0.020376448 -0.004013403
000060 ee 0d 18 bc 4c 38 0c bd a6 c1 b6 bc 18 f2 3a 3d
       -0.009280665 -0.034233376 -0.022309136 0.045641035
000070 20 49 9d bd 45 5c b6 bd 71 a5 9d bf 87 11 cd 3b
       -0.07679963 -0.08904318 -1.2316114 0.006258193
000080 50 af fb 3b 17 78 f5 be 6e 0c 92 bc 6c e8 5a bc
       0.007680811 -0.47943184 -0.017828193 -0.013361078
000090 f0 34 39 b9 34 c4 fc b7 65 5f a3 36 76 1e 72 38
       -0.00017662696 -3.0132105e-05 4.868884e-06 5.7725665e-05
0000a0 7d 4a 98 37 d2 45 cd b5 7e 3e d8 bd 2c 91 02 bd
       1.8154498e-05 -1.5294011e-06 -0.105587944 -0.031876728
0000b0 06 21 16 3d 3d f9 2e bd ca 1b 82 3c 36 d9 73 3d
       0.036652587 -0.04271816 0.015882391 0.05953332
0000c0 d3 ef 88 bd 2a ff 98 bd 54 73 84 3d 38 97 ae 3c
       -0.06686368 -0.07470544 0.064673096 0.021312341
0000d0 41 d5 d5 3c 42 b8 b0 bc 2a 0a 4d bb 59 fd 83 ba
       0.026102664 -0.021572236 -0.0031286576 -0.001007001
0000e0 6e d6 f7 3a c3 8d d3 3a cf 6a a5 38 b7 12 18 b9
       0.001890851 0.0016140271 7.887708e-05 -0.00014502821
0000f0 45 fb 02 bc bf 92 61 bc ea ba 44 b9 53 d4 bc 3a
       -0.007994478 -0.013767897 -0.00018761648 0.0014406539
000100 a1 01 fb 3a 3f f2 d2 ba 9a b5 0e bf c5 2f 2e bf
       0.0019150266 -0.0016093923 -0.5574585 -0.6804164
000110 85 b7 c9 bc 70 61 91 3e 35 a9 07 3e f6 e6 fd bc
       -0.024623642 0.2839465 0.13248141 -0.03099392
000120 9c 55 5a bf a8 55 82 3d 71 60 d1 3b e5 4e 20 3f
       -0.8528688 0.06363994 0.0063896705 0.62620384
000130 d6 f7 31 3d 14 7b f2 3c 24 58 89 bb 05 5d 17 bb
       0.043449245 0.029599704 -0.0041914154 -0.0023096215
000140 aa c9 99 bb ee 6b 58 3a 19 bf 1d 3a de c9 08 3b
       -0.0046932297 0.0008255829 0.00060175505 0.0020872275
000150 cc f2 92 be 20 c5 80 bb 1e 17 1e bc 23 fc cd be
       -0.28700864 -0.003929749 -0.009649066 -0.40231428
000160 a1 8d 80 bd 35 9d d8 bb ef 33 fb bb 03 1e 93 bb
       -0.062770136 -0.0066105374 -0.007666103 -0.0044896617
000170 99 86 ab 3b dd 34 66 3b 7b f5 c4 3a 1a 3b 49 3a
       0.005234551 0.0035126724 0.0015026772 0.00076763483
000180 98 bf ce 3d 6b b6 1e 3e 21 34 18 bd 1c b6 fd bd
       0.10095137 0.15499274 -0.03715909 -0.1238825
000190 ca 1c 3f 3e d0 0b 23 3d a0 56 1b bc 70 e7 66 bc
       0.18663326 0.039806187 -0.009481102 -0.014093265
0001a0 8c be c6 3b ba 60 f1 39 79 58 90 b9 a5 d3 d1 b9
       0.0060651954 0.0004603917 -0.00027531738 -0.00040021274
0001b0 b2 74 fc b9 a0 16 17 b9 67 b9 e0 37 9f b3 27 39
       -0.0004815213 -0.0001440891 2.6789216e-05 0.00015993275
0001c0 e7 f1 cd 38 e6 3c 56 b6 4b 30 c8 be 21 90 8c be
       9.8202196e-05 -3.1923933e-06 -0.39099345 -0.27453712
0001d0 02 cb 1a 3d 1c da 47 3e c8 0b 34 bd 4e df af bb
       0.03779126 0.19516796 -0.043956548 -0.005367196
0001e0 64 d3 d1 bc 04 94 c3 bc 44 5b 02 3d e8 f9 75 3c
       -0.025613494 -0.02387429 0.03182532 0.015013196
0001f0 7c f3 88 3b ed d6 ae 3b 9f 92 a0 bd 2d 1b c6 be
       0.004179416 0.0053356797 -0.07840466 -0.38692608
000200 1c 80 b7 bd 7a 76 f8 bd 19 aa 03 3e e3 5b 35 bc
       -0.08959982 -0.121319726 0.12857856 -0.011069271
000210 fc 45 87 3d b7 49 85 be 97 0f 5b 3b 1c 0b 49 3e
       0.06605145 -0.26032802 0.003342604 0.19633144
000220 d3 d9 8f bc 55 56 6b 3c 4c 14 f9 be 0c ea 3d 3e
       -0.017559921 0.014363845 -0.48648298 0.18546313
000230 e4 98 a4 bb 84 34 0d be fe b4 3f 3e af 94 83 ba
       -0.005023109 -0.13789564 0.18721387 -0.0010038818
000240 eb 67 df 3a aa ee 85 3d cb b4 8e 3d 00 d0 94 be
       0.001704452 0.06539662 0.06968077 -0.2906494
000250 5f 00 8a bd a9 83 a2 bd 54 ba 86 3e 6f 24 6d 3d
       -0.06738352 -0.079352684 0.26314032 0.057896074
000260 aa 9e 1d 3c e6 f9 3c 3d 24 c1 42 3d 59 aa 10 bc
       0.009620348 0.04613676 0.047547475 -0.008829677
000270 1c 2f 9c bc 6e 94 09 bd cf fb a7 3c 6a b2 c7 ba
       -0.019065432 -0.03358882 0.020505814 -0.0015235667
000280 d8 6a 2e 3c c0 ae 7b 3b c1 21 b4 be 38 6b c7 bd
       0.010645591 0.003840372 -0.35182002 -0.09737247
000290 bd 1d 80 3e 15 78 e7 be 7f 63 5b 3d ba e1 89 3c
       0.25022689 -0.45208803 0.053561684 0.016831268
0002a0 19 93 9a bb e6 c1 1c bc 22 7a ee 3c 59 19 c7 39
       -0.0047172424 -0.009567713 0.029110972 0.00037975123
0002b0 6e ce 00 3b a7 c9 ac bb 8b 7b a9 ba 61 01 c5 bc
       0.0019654292 -0.0052730623 -0.0012930495 -0.02404851
0002c0 7f 82 99 3c e5 3a d5 39 95 cd 52 3c cf 57 16 bb
       0.018738983 0.00040670406 0.012866397 -0.0022940522
0002d0 d3 c5 b9 be eb 58 76 be d9 4a 84 bc 77 9a 8a 3e
       -0.3628374 -0.24057357 -0.016148971 0.27070972
0002e0 16 9a 60 bc 65 0b c7 3d 1f 65 39 3e cb d0 4b be
       -0.013708612 0.0971897 0.18104981 -0.19903867
0002f0 37 35 c9 3c e8 b6 99 3b ad e3 89 be 36 89 bc ba
       0.024561508 0.0046909936 -0.26931515 -0.0014384154
000300 0c b7 a6 b6 3a e4 ba b7 b5 95 3c 36 bb b1 af 35
       -4.968495e-06 -2.2279204e-05 2.8101324e-06 1.3090242e-06
000310 51 48 ff 36 b0 b4 a3 b5 4e 79 79 bd d2 38 12 bd
       7.608011e-06 -1.2197033e-06 -0.0609067 -0.03569872
000320 7e 37 d3 3b 4d 10 fd 3c d7 d9 11 bd 5c a3 df bb
       0.006445824 0.030891562 -0.03560814 -0.006824894
000330 f7 9f aa bc 05 1c de bc 28 7c 1e 3d 10 a1 4f 3b
       -0.02082823 -0.02711297 0.038692623 0.0031681694
000340 cf 87 e6 3b 2c c2 fc bb c2 5a f6 bd 3a 0b 02 be
       0.0070352326 -0.007713577 -0.120290294 -0.12699595
000350 6e 17 22 3c d2 8d c7 3e a2 31 34 3d 89 7c 69 3d
       0.009893281 0.38975388 0.043992646 0.05700353
000360 97 53 fa bc 71 88 04 be 6f 01 08 3d 4f 50 fe 3b
       -0.030557437 -0.12942673 0.033204492 0.0077610384
000370 7d 54 ac bc ce ef 5f bd 7c 72 0e bd a2 29 31 bd
       -0.02103638 -0.054672055 -0.03477715 -0.043252595
000380 05 63 3e 3d 09 dd d3 3b ae a3 31 ba c2 99 89 3b
       0.04648115 0.0064655584 -0.00067764043 0.0041992376
000390 70 f3 1a b7 f6 ad 5e b8 f1 ee 2e b6 0a 82 25 36
       -9.235795e-06 -5.309094e-05 -2.6067103e-06 2.4662609e-06
0003a0 7a c2 4a b7 9f 4e 74 b6 29 2e 7f bb d3 b8 9b bc
       -1.2085418e-05 -3.6404597e-06 -0.0038937426 -0.01900903
0003b0 1e 3c 30 3c 99 66 1d 3b ad 25 02 3c 1f 94 8f bb
       0.010756521 0.0024017452 0.007943553 -0.004381671
0003c0 f7 c1 32 bd 8e 24 ce bd 59 88 84 3d 18 a7 11 bd
       -0.04364201 -0.10065566 0.06471319 -0.035559744
0003d0 cf 83 c8 bc 23 9e 76 bd 17 fc 23 bf 20 c3 0f bb
       -0.024476914 -0.060209405 -0.64056534 -0.0021936372
0003e0 ca c7 cc ba 36 1f 2b be 30 0b 3a 3e fa d1 be ba
       -0.0015623507 -0.16711125 0.1816833 -0.0014558428
0003f0 ac 8d 11 bc 4b 6e 79 bb e1 99 89 3b 10 d1 84 39
       -0.008883875 -0.0038060124 0.004199252 0.00025332766

lin_in.bias f4 [64]
000000 97 35 45 bf 6a 55 bb ba f7 91 3c bf 1e 3e e5 be
       -0.77034897 -0.0014292423 -0.73660225 -0.44773954
000010 38 41 29 bb c2 88 18 bf 22 8a e1 b8 8d 7a 0e be
       -0.0025826227 -0.59583676 -0.00010754565 -0.13913937
000020 73 6c 12 be 8e 22 b8 bb b3 89 66 bc 6e f0 6f be
       -0.14299183 -0.0056193536 -0.014070916 -0.2343156
000030 f3 b1 b2 be 27 7c 92 bc 01 39 b5 3e e8 ab 3d bc
       -0.3490139 -0.017881466 0.35395053 -0.01157663
000040 36 39 15 bf 11 67 72 bc c7 77 92 b9 8f c2 ce bd
       -0.5829042 -0.014795081 -0.0002793653 -0.10095703
000050 71 b7 97 bd 35 a3 00 be 57 8a 48 3e ff 6e 35 be
       -0.074080355 -0.12562259 0.19584022 -0.17718123
000060 96 13 ef bd c3 7f e4 be ea ed 8f bd a4 bb 09 bf
       -0.116736576 -0.44628724 -0.070278004 -0.5380194
000070 63 3c 0e bd 39 71 ea bc 4a 61 6a 3d aa e1 99 be
       -0.034725558 -0.028618442 0.05722169 -0.3005498
000080 c2 8a 5c b7 58 8c c9 bd 06 d0 80 bd 5d 8e 8a bf
       -1.3145329e-05 -0.098412216 -0.06289677 -1.0824696
000090 82 34 37 be c9 fe 02 be 67 d3 1c b8 94 f9 2a bd
       -0.17891124 -0.12792505 -3.7390182e-05 -0.041741922
0000a0 82 06 4e be ab 10 93 be 74 2d 12 bc da 56 00 bd
       -0.2011967 -0.28723654 -0.00892197 -0.031332828
0000b0 aa f5 42 be 96 0f f2 bd b6 f4 61 bc 7b dd a1 ba
       -0.19039026 -0.11819379 -0.013791254 -0.0012349332
0000c0 a1 4e ed be 55 1d 09 be 94 4f 2a bf 5b 96 ed bd
       -0.46349052 -0.13390096 -0.66527677 -0.11600944
0000d0 e5 6c ee be ac 09 10 be 3f 55 2a be 92 52 0e bb
       -0.46567455 -0.1406619 -0.16634081 -0.0021716696
0000e0 9c 07 cf bd 8f 15 8f bc df 6b 55 be f7 41 c1 be
       -0.10108873 -0.017466335 -0.20841931 -0.3774564
0000f0 e1 b4 8d bc 49 a7 08 be 79 0a 14 bd b9 89 3b bc
       -0.017298164 -0.13345064 -0.0361428 -0.01144641

tgcn_cells.0.graph_conv1.bias f4 [64]
000000 ad db 7a bc d1 c1 50 bc 6d e2 c8 3b 1b 2b 1f bc
       -0.015311164 -0.012741522 0.0061305077 -0.009714867
000010 a3 67 81 bc c2 c9 a1 bb d9 0c e8 3c 41 32 15 3c
       -0.015796488 -0.0049373815 0.028326439 0.00910622
000020 8e 15 41 3e 4a 98 da bc 00 60 37 3c 6f d5 4e 3d
       0.18855879 -0.026683945 0.011192322 0.050496515
000030 38 1c c2 bb 97 f0 a7 3d 78 8b 67 3d 1b b8 94 3d
       -0.005923774 0.08200186 0.056529492 0.07261678
000040 5c 6f 58 bc 52 21 57 3b fd 5e f6 bb 58 d8 62 3d
       -0.013210144 0.0032826257 -0.0075186477 0.055382103
000050 e8 50 54 3b b5 36 43 bc 23 4e 0b bd 87 6b 61 bc
       0.0032396857 -0.011914899 -0.034010064 -0.013758547
000060 22 98 e5 bc 68 60 3d bc 3b 22 16 bb d4 d6 f3 bc
       -0.028026644 -0.01155863 -0.0022908587 -0.029765524
000070 cf 86 96 bc 03 28 bc ba b2 25 c5 bc 8f d3 da bc
       -0.018374829 -0.0014355186 -0.024065826 -0.026712207
000080 27 a3 c0 bc 2c 96 ac 3c 13 01 10 bd 7d 58 06 bc
       -0.023515297 0.021067701 -0.035157274 -0.008199808
000090 36 06 5c 3d 20 e2 06 ba d4 26 b6 3c 47 05 c9 bb
       0.05371686 -0.00051453896 0.022235312 -0.0061346623
0000a0 b5 36 50 bc 88 4e df bb ee 72 74 bc e6 0e 4b bc
       -0.012708356 -0.0068147816 -0.0149199795 -0.012393689
0000b0 da d0 92 3d 88 61 41 39 d9 d0 49 3d 26 13 c2 3c
       0.071687415 0.00018442248 0.04927144 0.023690771
0000c0 7a 7e 13 bd 9f 0f f1 bc d6 a6 55 bc 02 95 85 3d
       -0.03600929 -0.029426394 -0.013040265 0.065225616
0000d0 d7 9b 7d bb 0d 15 18 bc 98 9e cc bc b5 43 45 bc
       -0.0038697624 -0.009282363 -0.024977967 -0.012040068
0000e0 e1 a8 de bc 1b de e5 3e 91 1c 95 3c 5f 02 94 3a
       -0.027180137 0.44896016 0.018202098 0.001129221
0000f0 71 3c 03 bc 3f ff ac 3b b5 d5 ba bc 2a 32 6a bc
       -0.008010016 0.005279451 -0.022806982 -0.014294187

tgcn_cells.0.graph_conv1.lin.weight f4 [64, 128]
000000 c8 61 b7 3a 5a c3 f2 b3 fa 3d 14 bb 7e 4d 19 3b
       0.0013990933 -1.13045374e-07 -0.0022619949 0.0023392136
000010 98 73 f2 b8 58 f5 5c 3b 23 ee ae b0 a4 f3 3c 3a
       -0.0001156099 0.0033715572 -1.2727849e-09 0.0007207936
000020 76 5e dd 37 49 47 bc b4 c9 4c 49 34 17 34 58 bb
       2.638924e-05 -3.5069596e-07 1.8747518e-07 -0.0032990032
000030 2d e8 94 bb a6 f8 b4 36 79 67 9c 3a 0c 2b 60 34
       -0.004544279 5.3933645e-06 0.0011932693 2.0877286e-07
000040 49 2a 8c ba 05 85 a5 36 d7 84 04 35 92 5b b1 ba
       -0.0010693754 4.9328687e-06 4.936714e-07 -0.0013531318
000050 fd 76 ef 36 bf ae 38 3a 5d 57 a1 bb 6e 92 6e bb
       7.136607e-06 0.0007045082 -0.0049237446 -0.0036403197
000060 c2 4c 4c 3b d9 ba 8b bb ed 35 8a b4 c6 97 a5 3b
       0.003117368 -0.0042642173 -2.574374e-07 0.005053493
000070 21 cd 17 38 81 63 d9 37 9d 6c 9d bb b6 6e e3 ba
       3.6192247e-05 2.5914751e-05 -0.0048042075 -0.001735172
000080 34 48 45 ad 03 76 01 39 f7 ac 9a b6 d0 8b 11 bb
       -1.1214186e-11 0.00012346361 -4.6096934e-06 -0.002220858
000090 53 06 0a 3a 63 5f 86 b9 0a 87 2a 36 d8 73 ee 36
       0.00052652246 -0.0002562954 2.5410577e-06 7.1064387e-06
0000a0 c8 cf 0d bb 4e 90 4e 3a c6 74 01 38 c5 ad 88 b8
       -0.002163874 0.00078797794 3.086475e-05 -6.5173524e-05
0000b0 a4 59 7c bb a7 5d 58 b4 ab b7 a1 bb 1b f9 cb b4
       -0.0038505578 -2.0150638e-07 -0.004935225 -3.7992945e-07
0000c0 03 36 da ba f4 64 1c bb 3a 47 68 3a fd da 82 bb
       -0.0016648177 -0.0023863884 0.0008860711 -0.0039933906
0000d0 dc e5 6f bb 2f 24 f0 b8 c2 aa d8 2e 8d ca be af
       -0.0036605513 -0.000114508315 9.8528755e-11 -3.470472e-10
0000e0 26 77 15 b7 47 6f ac 05 ee 0e 0a 35 1c d0 85 bb
       -8.9088335e-06 1.6215679e-35 5.143073e-07 -0.0040836465
0000f0 d7 e3 d8 35 1f f7 c7 38 3b ae 6e 37 02 1b d5 b5
       1.6159564e-06 9.535089e-05 1.4226472e-05 -1.5877597e-06
000100 ed 57 29 3a 91 59 7a 3a 8e 06 51 b9 69 20 ce 39
       0.00064599403 0.00095500896 -0.00019934235 0.0003931553
000110 9e b4 3e bb 8e 88 8e ba 10 c9 72 3a 67 bc 93 3a
       -0.0029099355 -0.0010874437 0.0009261528 0.0011271358
000120 87 91 03 3a f9 a9 d8 38 57 05 e5 3a 4a db 91 ba
       0.00050189387 0.000103313425 0.0017472905 -0.0011127975
000130 37 ea c3 38 61 a9 31 3b 6e 9a 98 b9 1d d4 72 ba
       9.3419505e-05 0.0027109014 -0.00029106758 -0.0009263175
000140 60 d4 38 b9 3a d7 d7 3a 34 39 e1 b9 11 ff c9 3a
       -0.00017626723 0.0016467341 -0.00042957964 0.0015411099
000150 d1 6f ea 3a e9 e7 b6 ba b5 43 53 3b 9c f5 a5 3a
       0.0017886107 -0.0013954613 0.0032236401 0.0012661698
000160 f0 cb 09 ba c0 21 0b ba 6c d9 34 3a f8 f9 17 bb
       -0.00052565243 -0.00053074583 0.00068988535 -0.0023189764
000170 a8 19 89 b9 f2 f6 45 bb fd 9d 18 3b 83 ee 1b 3b
       -0.00026149792 -0.0030207005 0.0023287528 0.0023793287
000180 45 dd b7 b9 56 62 d5 ba ec eb 59 3a 0e 63 b9 3a
       -0.0003506934 -0.0016279917 0.0008313048 0.00141439
000190 aa 7e 5d ba a8 92 da 39 7f 73 05 3a 49 d9 88 ba
       -0.00084493554 0.00041689468 0.00050907576 -0.0010440733
0001a0 a3 96 36 39 dc 3b 0c bb 8e 2d 10 3a 7d 79 17 bb
       0.00017412989 -0.0021397984 0.0005499952 -0.0023113184
0001b0 6a 53 a5 3a 0c 21 cb ba 70 ef 9e ba fb 31 89 3a
       0.001261336 -0.001549752 -0.0012125801 0.0010467166
0001c0 ac 68 05 bb 1c 35 83 39 4b fc 4b 3a 62 4f bc 39
       -0.0020356579 0.00025025837 0.000778143 0.000359173
0001d0 ad 0c 10 3a 77 d6 0d 3a 65 f6 09 bb 40 48 ce 3a
       0.0005495053 0.0005410681 -0.0021051404 0.0015738085
0001e0 96 18 3c 3b 7c 37 93 3a 01 75 44 3b b2 0c 09 3b
       0.0028701178 0.0011231746 0.0029976966 0.0020912108
0001f0 53 7f c5 b9 b6 8e d3 39 88 f8 37 3a 93 0b e1 3a
       -0.00037669632 0.00040351384 0.000701793 0.0017169587
000200 4d d6 57 3b 10 d9 1d 34 50 25 91 bb 19 a0 18 ba
       0.003293413 1.4700731e-07 -0.004429497 -0.0005822196
000210 58 a6 e1 bb e3 8a ee 3a 2c 1d d6 b0 11 33 04 bb
       -0.006886285 0.001819935 -1.557884e-09 -0.002017204
000220 d2 d9 29 b8 54 77 b9 30 f6 4b a1 34 d4 39 14 bb
       -4.04956e-05 1.3494437e-09 3.0043856e-07 -0.0022617476
000230 db 6b 0a bc c4 85 96 37 fa 76 52 ba b0 eb 3b 37
       -0.008448566 1.7943683e-05 -0.0008028593 1.1200944e-05
000240 af e5 a2 3b ae 80 01 38 f8 ae 1e 34 ee 2d cb ba
       0.004971228 3.087584e-05 1.477855e-07 -0.0015501359
000250 01 c0 0c b7 7d df f3 3a cb ef 47 bb c9 18 d4 bb
       -8.389355e-06 0.0018606033 -0.0030507918 -0.006472681
000260 56 ec 5c 3b ff ad bb 3b f2 bc cd 33 e9 38 84 3b
       0.0033710203 0.005727529 9.580425e-08 0.0040351045
000270 96 7b f2 b8 d1 00 05 b8 a7 48 84 bb a1 27 dc 39
       -0.00011562479 -3.171043e-05 -0.004036981 0.00041991196
000280 1b ce 09 af 8c 5b 27 ba ca fe e9 b6 62 04 b9 bb
       -1.2533301e-10 -0.0006384186 -6.9736025e-06 -0.0056462744
000290 60 2d 62 37 ca 42 7f 39 4d bd 1f 35 eb 53 46 b7
       1.3481214e-05 0.00024343576 5.9507585e-07 -1.1821258e-05
0002a0 e5 a5 15 3b 97 e9 ce 3a 63 9d dc b6 7a 45 09 38
       0.0022834477 0.0015786168 -6.574833e-06 3.272805e-05
0002b0 98 79 42 3b c4 cd f9 b3 f0 d6 39 3a a5 31 d5 34
       0.0029674526 -1.16323946e-07 0.0007089218 3.9710463e-07
0002c0 2c 59 fe ba 65 7c 12 ba 05 f2 6f 39 88 0c 5b bb
       -0.0019405237 -0.0005587994 0.00022882975 -0.0033424217
0002d0 7a 5c fe bb af ce 58 bb a6 ce 10 af 82 b3 e9 30
       -0.007762489 -0.0033082177 -1.317014e-10 1.7004e-09
0002e0 a4 7a e6 37 b3 94 9d 84 5f 2a d1 b5 cb cd 39 bb
       2.7475246e-05 -3.704708e-36 -1.5584045e-06 -0.0028351422
0002f0 4f 2d ef 36 be 5f 4b 39 8a 98 14 38 dc 32 45 38
       7.1280297e-06 0.00019395255 3.5428013e-05 4.7015827e-05
000300 b8 8e d4 ba 67 f2 78 ba 1f 24 4c ba 1d 82 b3 ba
       -0.001621685 -0.000949657 -0.0007787365 -0.0013695393
000310 44 3f 0d bb e8 b9 c1 ba 95 7f ce 3a 41 20 28 ba
       -0.0021552602 -0.0014780136 0.0015754575 -0.00064134976
000320 ff fe d1 b9 b4 71 ff 3a e8 b5 32 ba 90 d7 1d 3b
       -0.00040053573 0.0019488842 -0.0006817267 0.0024084784
000330 64 a0 aa 3a 7a 5d 85 3b 1f d5 bf ba 6b 47 34 39
       0.0013017771 0.004069981 -0.0014635659 0.00017192743
000340 d9 84 9d ba 00 7a 8d ba f8 d1 33 3a 8c 46 07 b8
       -0.0012017741 -0.0010793805 0.0006859596 -3.225221e-05
000350 7c 7b 3c 3b 6b b4 d9 ba 0c a2 64 ba 4d f9 5f ba
       0.0028760126 -0.0016609555 -0.00087216566 -0.00085439236
000360 20 d1 64 b9 a5 5c ab ba 14 92 1e 39 be 59 03 3b
       -0.0002182168 -0.0013073875 0.00015122473 0.0020042504
000370 9d 5b 0b bb 3b 5c e2 ba c5 b7 a0 3a de 14 79 3a
       -0.0021264323 -0.0017269918 0.0012261799 0.00095017056
000380 cc 76 fb 3a 24 14 a4 b9 50 ad a8 ba ac 06 0f 3a
       0.0019185185 -0.00031295524 -0.0012869034 0.0005456011
000390 36 1f 47 ba 19 53 8f 3a e6 45 3a bb 29 4a 0a bb
       -0.00075958984 0.0010934799 -0.002842301 -0.0021101332
0003a0 6c 7f c2 b9 ff 62 cb ba e8 93 92 ba 09 82 ec 39
       -0.000370975 -0.0015517174 -0.0011182996 0.00045110311
0003b0 7a 5a 43 3b 7a 2b fa ba 8b 94 f0 ba 83 97 1c b9
       0.0029808567 -0.0019086443 -0.0018354816 -0.00014933762
0003c0 c3 29 df 39 2a 20 20 3b be e3 a1 3a 45 79 2c bb
       0.0004256499 0.0024433234 0.0012351198 -0.00263174
0003d0 5e 15 e3 3a ea 1c 18 3a 9c 28 ad 3a 4c cd 21 3a
       0.0017325094 0.00058026484 0.0013210955 0.0006172254
0003e0 83 4d 1d bb 65 79 99 b9 a1 1e 2c 3b 48 f9 44 3b
       -0.00240025 -0.0002927288 0.0026263373 0.003005581
0003f0 6e 73 4d ba e4 e9 02 3b ba 86 7b ba a0 5b a6 3a
       -0.000783733 0.0019975835 -0.0009594966 0.0012692101

tgcn_cells.0.graph_conv2.bias f4 [64]
000000 a8 43 6b 3c 5a 87 99 bc 33 27 9a bd bf 93 f1 3b
       0.014359392 -0.018741298 -0.07527008 0.007372349
000010 6b 99 8f 3c f1 01 ec bb c9 7c 03 3d 56 86 ad bc
       0.01752921 -0.00720238 0.032101426 -0.02118222
000020 27 8f ed 3d c2 50 6a 3c 77 46 d5 bd 2d 95 f0 3d
       0.1159957 0.014301481 -0.10413831 0.11747203
000030 c5 88 c0 3c 8c 3b 92 be b9 40 5c be d0 45 49 be
       0.023502717 -0.28561056 -0.21509065 -0.19655538
000040 b9 55 a6 bd e9 16 bc 3c f1 4a bc bc c6 63 10 be
       -0.08121819 0.022960143 -0.022984954 -0.1410056
000050 ab 96 13 3e 4e c5 60 bd 1c d6 36 bd e5 5c 71 bc
       0.14412944 -0.054875664 -0.044637784 -0.01473162
000060 ca 87 2b 3d e7 72 83 bc a4 6d 52 3d af 21 49 3b
       0.041877545 -0.016046 0.051374093 0.0030690243
000070 c1 68 19 bd 16 38 65 bd 3a fa 2e 3d 0a 3c 3f 3b
       -0.037453417 -0.05596169 0.042719103 0.0029180073
000080 24 af 82 3c e2 f2 3e be f0 07 44 bc a6 25 db bd
       0.015952654 -0.1864734 -0.011964783 -0.1070054
000090 24 82 8a 3d c7 90 ba bc 81 de 89 3e 21 05 c8 bb
       0.067631036 -0.022774113 0.2692757 -0.006104127
0000a0 91 f0 9f bc e7 a6 4f 3d c1 c7 ef 3d f9 96 5f 3d
       -0.01952389 0.05069628 0.11708022 0.054587338
0000b0 4e 45 a1 be a9 48 c9 3c 8d 1e 78 be 36 67 a2 be
       -0.31498188 0.02457078 -0.24230404 -0.3171937
0000c0 04 27 14 bc 8b b7 1d bd 0d 6f 57 3d 3d a5 89 3e
       -0.009042505 -0.03850512 0.05259614 0.2688388
0000d0 1e ae da b9 0f a7 cf ba 3f 35 d2 3c b0 c9 2f bd
       -0.00041709928 -0.0015842634 0.025660155 -0.042916954
0000e0 ae 2e 69 3e 75 39 d5 3e da 2a 3c 3c 50 45 9d bc
       0.22771713 0.416454 0.011484826 -0.01919809
0000f0 6f cd 07 3d 55 32 2f 3d c6 dd d2 3b b5 e5 21 bd
       0.0331549 0.04277261 0.006435129 -0.039525706

tgcn_cells.0.graph_conv2.lin.weight f4 [64, 128]
000000 98 03 90 bc 8c 61 9b b1 e1 8f 3b 3d 48 bb cc 3c
       -0.017579839 -4.5221835e-09 0.04579151 0.024991646
000010 b1 0a 3e 3c 46 eb 14 bc 78 c1 37 b3 69 7c 88 bb
       0.011599229 -0.009089297 -4.2783967e-08 -0.0041652215
000020 24 c7 31 b8 de 20 55 33 dd f7 52 36 15 4c d5 bb
       -4.2385553e-05 4.962282e-08 3.1436714e-06 -0.006509314
000030 71 c1 ef ba 35 40 72 37 b7 7f 03 bc 8d 9f ac b6
       -0.0018291903 1.4439273e-05 -0.008026055 -5.1445736e-06
000040 00 9e 18 3d 15 e7 d9 b6 a1 b6 11 b8 77 f8 6b bc
       0.037260056 -6.4940054e-06 -3.474078e-05 -0.0144025
000050 5f 0e 1c b5 98 3a 0b bd ef 71 03 3d 3b 77 78 3d
       -5.813544e-07 -0.033991426 0.032091077 0.060660582
000060 ae 73 f5 3a c0 5a 05 3d 75 31 bb 35 bc 52 68 bc
       0.0018726492 0.03255725 1.394698e-06 -0.014179882
000070 b0 d1 94 b9 3d dc 12 b8 35 90 47 bc 1b 63 a4 3c
       -0.0002838499 -3.5014225e-05 -0.012180378 0.020066788
000080 80 44 98 2f e3 25 3e bb 46 97 90 b8 66 b5 07 3d
       2.769731e-10 -0.0029014281 -6.894632e-05 0.03313198
000090 35 8a eb bb 56 9a 13 bb c7 47 14 37 0b f8 65 39
       -0.0071881064 -0.0022522411 8.838199e-06 0.00021931545
0000a0 a5 a4 cb bc 07 64 81 3c b2 a2 aa 36 08 e6 65 bb
       -0.024858782 0.015794767 5.085335e-06 -0.0035079736
0000b0 17 13 62 3d 3c 49 f4 b2 de 13 41 3d 5b 80 45 b5
       0.055193987 -2.8438642e-08 0.047138087 -7.3575e-07
0000c0 ac 2d f2 bb 40 1b 6d 3b c1 4e 22 bb bf cf 90 3b
       -0.0073906984 0.0036179572 -0.002476618 0.0044192965
0000d0 6b fc 9a 3c 74 c0 79 bc 35 cf c7 ae bb 93 5a 30
       0.01891919 -0.015243638 -9.0862796e-11 7.9517876e-10
0000e0 4a c4 b0 38 bb cd 48 06 8b cf 9a b6 e1 1c 4f 3d
       8.428896e-05 3.7766966e-35 -4.613719e-06 0.05056465
0000f0 97 0c 08 b5 aa 43 19 bc 52 ca 10 b7 ed e5 61 b7
       -5.068227e-07 -0.009354511 -8.630175e-06 -1.3464579e-05
000100 3b 57 55 3c 0a fd 0e 3c ce 3f 3d 3c f5 00 61 3c
       0.013021286 0.008727321 0.011550857 0.013733138
000110 af 78 05 3c fa e7 27 3b 13 86 e1 bb 3d db f6 ba
       0.008146449 0.0025620447 -0.006882438 -0.0018833649
000120 a6 fa db bc 87 a7 39 bc c0 10 34 bb 11 f2 89 bc
       -0.026852917 -0.011331446 -0.0027475804 -0.01683906
000130 92 76 44 bc 9b 82 b8 3a d9 88 33 bc 51 c7 8a b9
       -0.01199116 0.0014077009 -0.01095792 -0.00026469913
000140 fb 78 92 3b 59 da 2e 3c c4 7c 3d bc 64 5b cf 3b
       0.0044699884 0.010672175 -0.011565391 0.0063280333
000150 5b 02 ea bc 95 0a e7 3b 27 7e 2e 3c 30 9a 59 3c
       -0.028565576 0.007050822 0.010650194 0.01328139
000160 c9 61 16 bc cf 1d 80 3b af da 88 ba 71 c6 8a bc
       -0.009178587 0.0039098035 -0.0010441149 -0.016940327
000170 9b 77 45 3c f6 c1 e3 ba cc e4 8b ba 3b 6e ec ba
       0.012052442 -0.001737653 -0.0010673045 -0.0018038222
000180 c9 79 7e bc 84 b5 c6 3b bf 1e d9 3b 7d 86 03 bb
       -0.0155319655 0.006064119 0.0066259797 -0.0020069175
000190 36 18 17 3b bd 14 51 bc 61 3d f4 3c 66 50 41 3c
       0.0023055202 -0.012761292 0.029814424 0.011798954
0001a0 d7 5b cb 3b 62 bc b4 39 92 e9 c6 bb 99 ab 4b bb
       0.0062060165 0.00034472632 -0.006070324 -0.0031077622
0001b0 fe 86 28 38 27 a1 1c 3c a8 08 3e bc 2e 4f 8b bc
       4.0180043e-05 0.009559906 -0.0115987435 -0.01700553
0001c0 43 82 f4 3a 07 57 76 bc df 28 61 bc 96 68 d6 3c
       0.0018654544 -0.015035397 -0.013742655 0.026172917
0001d0 2f f0 2e bc ce 7b 50 bc dd 26 7f bc 66 7b 67 bb
       -0.010677381 -0.01272483 -0.015573231 -0.0035321354
0001e0 99 ac c0 3c 7a a0 b1 3c af 1f 80 3b 4e 98 0b bc
       0.023519801 0.021682967 0.003910027 -0.008520199
0001f0 12 1b b3 ba 7f c4 ed bb bc 1f 47 3c 39 37 d2 b9
       -0.0013664684 -0.00725609 0.012153562 -0.00040095465
000200 91 8c c8 3a f1 8b 75 31 d7 e0 b3 3c b7 ae 4b 3c
       0.0015300681 3.573174e-09 0.021957798 0.012431792
000210 d0 85 2c 3c 53 16 e1 3c 17 b5 fc b2 51 8b 84 3b
       0.01052995 0.027476465 -2.9419011e-08 0.004044928
000220 31 cb 85 b7 ce 9d ad b5 be 8a de 35 ec 00 a2 bb
       -1.5949454e-05 -1.2935432e-06 1.6580668e-06 -0.0049439576
000230 25 3e cf b9 10 7a a9 36 f5 90 00 3d 62 11 8a b6
       -0.00039528418 5.0508024e-06 0.03138824 -4.114744e-06
000240 f6 18 28 3c b7 da 92 35 e1 47 e4 b6 52 6d 7d bc
       0.010259857 1.0941502e-06 -6.8032973e-06 -0.0154679585
000250 65 9a fc b5 42 00 0b bc 09 ca f3 3c 2e 90 3f 3c
       -1.8820398e-06 -0.008483948 0.029759424 0.01169209
000260 5c df dd 3c 11 f5 ae 3c 3f a8 05 36 2b 10 fc 3c
       0.027084045 0.021357091 1.9916477e-06 0.030769428
000270 86 9c 0d b9 52 48 20 b8 55 89 16 bc 83 57 9a ba
       -0.00013505117 -3.8214326e-05 -0.009188016 -0.0011775348
000280 26 f8 47 af 12 af 53 bb 2c 27 2c b8 45 00 0e 3d
       -1.8187105e-10 -0.0032300395 -4.1044477e-05 0.034668226
000290 95 db 48 bb f0 0b bd 39 29 0a 85 37 98 5e d6 b8
       -0.003064846 0.00036057783 1.5859567e-05 -0.00010221935
0002a0 fa f3 e1 bb 69 c0 09 3c dc 0e af b6 35 e2 38 bb
       -0.0068955394 0.008407691 -5.2171363e-06 -0.0028211002
0002b0 b2 1d 3b 3d 39 10 c4 33 12 c9 1a 3d 22 0d ce b4
       0.045682617 9.129912e-08 0.03778941 -3.8380045e-07
0002c0 65 43 14 39 c3 a0 b2 3b 56 05 4d bc d7 28 e7 3b
       0.00014139486 0.005451293 -0.012513479 0.007054429
0002d0 be d2 8c 3c 66 8c 25 bc 4a fe a8 30 62 22 c7 30
       0.017190333 -0.010104274 1.2295882e-09 1.4488928e-09
0002e0 59 ec 4e 38 1b 55 9d 85 e4 da 93 36 76 89 bd 3b
       4.9334343e-05 -1.4795472e-35 4.4064236e-06 0.005784209
0002f0 8c 19 8d b4 47 33 0d bb ea da db 32 f9 ab 7f b7
       -2.6281884e-07 -0.0021545456 2.5594506e-08 -1.5239225e-05
000300 33 25 42 3c 5d 45 3a 3c f2 7d d3 3b 30 49 6f 3c
       0.011849689 0.011369077 0.006454223 0.014604852
000310 37 b1 3b 3c fc 34 85 3b 77 dc 31 bc 15 7e 55 bb
       0.0114558255 0.004065154 -0.010855786 -0.0032576371
000320 d4 e9 b6 bc f5 bd 3f bc 69 5e 23 3b 47 e7 88 bc
       -0.022328295 -0.011703004 0.00249281 -0.016711844
000330 c7 2c 6b bc ae d8 5b 3b 88 45 f2 3a ee db ee bb
       -0.0143539375 0.00335459 0.0018483857 -0.0072894013
000340 97 78 5c 3b 3d 29 58 3c 85 97 4f bc 1b 2e 57 ba
       0.0033641213 0.013193426 -0.012670402 -0.00082084694
000350 12 ed 4c bc 61 c1 1b 3c a4 f6 87 3c 10 9c 36 3c
       -0.012507694 0.009506554 0.0165971 0.011145607
000360 68 43 7a bc 85 22 a5 3b 05 0e b1 3a 64 d1 96 bc
       -0.01527486 0.0050395154 0.0013508206 -0.018410392
000370 0e 9e 56 3c 05 18 0f 3c f9 c2 06 bc b3 02 29 bc
       0.013099207 0.008733754 -0.008225196 -0.010315585
000380 48 56 86 bc 5f 20 68 3b 71 f5 2e 3c 88 7f 74 ba
       -0.016398564 0.0035419685 0.010678635 -0.0009326865
000390 09 5c 7a 3b ab 0e 0c bc bb 14 68 3c b4 37 71 3c
       0.003820183 -0.008548419 0.014165099 0.014722753
0003a0 3a d8 50 3c e9 03 11 3c 22 3b 59 bc 13 5a 80 bc
       0.012746865 0.00885103 -0.013258727 -0.01566795
0003b0 67 5c 74 3b 05 4d 39 3c 86 ec c1 bb cc 40 1f bb
       0.0037286521 0.011309867 -0.0059180884 -0.0024300097
0003c0 2a 94 ed bb 7d a0 84 bc d8 73 5f bc 35 14 b4 3c
       -0.0072503285 -0.016189808 -0.013638459 0.021982292
0003d0 f5 e8 84 bc 2b c3 13 bc bb 62 84 bc dc 25 ad bb
       -0.016224364 -0.0090187 -0.01616036 -0.005284054
0003e0 bf 88 76 3c fc ed 9d 3c 25 7b c8 bb d5 f9 45 bc
       0.015047251 0.019278519 -0.0061181956 -0.01208349
0003f0 d1 de a1 3b ac 47 36 bc 2b 90 6c 3c fa b2 91 bb
       0.004939892 -0.011125486 0.014438669 -0.0044463845

tgcn_cells.0.graph_conv3.bias f4 [64]
000000 25 0b e1 bc 3b d5 d8 bb 84 38 1d 3d bd 8c 1d 3b
       -0.027471134 -0.006617216 0.038383976 0.0024040185
000010 c5 54 c9 3c 95 4b 50 3c 53 0e 8f 3c 66 76 1e bd
       0.024576554 0.012713333 0.017462885 -0.038687132
000020 63 4b a8 bb e5 df 34 3c 7d e4 ad bd 60 93 1d 3d
       -0.00513594 0.011039709 -0.08490846 0.038470626
000030 7d 00 f1 3c 4f fd 80 3c 81 ae 87 bd 99 0d 6c 3d
       0.029419178 0.015745787 -0.06625081 0.057630155
000040 67 e9 85 3b 08 99 d6 bc 79 7a 47 3d 71 5f fa 3c
       0.0040866616 -0.026196018 0.048700783 0.030563088
000050 19 c0 e3 bc 59 9e 60 3a d8 9f c8 bc aa 58 ee 3b
       -0.02780156 0.00085685175 -0.024490282 0.007273753
000060 d5 8f 20 3d 14 58 00 bc 75 9b 03 bb 37 20 b3 3c
       0.03919967 -0.007833499 -0.0020081673 0.021865947
000070 41 5e 8f bb f9 38 96 3d 3a 85 94 bc fc 89 28 bc
       -0.0043752496 0.073350854 -0.018129934 -0.010286804
000080 b6 a6 65 ba 27 2b 60 3d 96 60 c7 bc b7 60 b1 bd
       -0.00087604986 0.054728653 -0.024338048 -0.08661025
000090 83 65 fc 3c ae c0 5c 3c 78 52 0b bd fe fe 5f 3b
       0.030810123 0.013473673 -0.034014195 0.0034179087
0000a0 7e 07 4a bc 1e 17 a1 3b 92 ac ea bc 0d 12 9e 3d
       -0.012330888 0.004916086 -0.028646741 0.07718287
0000b0 91 cd 15 3d 2c c2 0a 3d 72 36 8b bd dc f1 9c bd
       0.036572997 0.033876583 -0.06797494 -0.076633185
0000c0 d4 b4 79 3d 61 db 38 bc 62 e0 0c 3b fb 92 ab bd
       0.060963467 -0.011282773 0.0021496047 -0.08377644
0000d0 54 25 09 3c 93 6f 1d bc 37 d2 e8 3c 33 b8 37 bc
       0.008370716 -0.009609121 0.02842055 -0.01121335
0000e0 f2 7b 3c bd 26 a1 01 3c 70 eb bb bc 3b bb 25 3b
       -0.04601664 0.007911956 -0.022939414 0.00252886
0000f0 21 d0 31 bd da b4 84 3b 5a 3c b6 3a e9 30 dd bc
       -0.043411378 0.0040498795 0.0013903484 -0.027000861

tgcn_cells.0.graph_conv3.lin.weight f4 [64, 128]
000000 06 ca 46 3d 49 1e 0c 36 e1 05 d0 3d 75 11 ec bd
       0.04853251 2.0879254e-06 0.10157371 -0.11526767
000010 ba 9d 31 bd ef d2 ca bd e0 40 36 35 11 81 8c 3d
       -0.04336331 -0.09903514 6.789469e-07 0.06860555
000020 7a f1 f3 bb 7e 54 09 b5 04 04 10 37 0e 19 9d 3d
       -0.0074445577 -5.115943e-07 8.584004e-06 0.076707944
000030 00 c6 29 3d 2f a3 16 39 3c 81 9b bd cb 4f 60 39
       0.041448593 0.00014365905 -0.07593009 0.0002139203
000040 53 ea d2 3d 53 e5 a1 39 c7 f6 a1 37 55 75 d7 3c
       0.102986 0.00030879173 1.930761e-05 0.026301065
000050 53 84 8e 39 1f 76 1b bd 5f 79 45 bc d3 24 85 bc
       0.0002718294 -0.037954446 -0.012052863 -0.01625291
000060 39 7a 32 3c d9 ec 7f bd 0e 61 6d b8 99 93 54 3d
       0.010893398 -0.062481735 -5.6595592e-05 0.051898573
000070 94 82 0b 3a f0 49 3a 39 4e 8e ea 3c b7 af 0b be
       0.0005321887 0.00017765886 0.02863231 -0.13641249
000080 99 62 63 b1 fd f7 37 bc 15 f6 14 3a 20 95 30 be
       -3.3088894e-09 -0.011228559 0.0005682421 -0.17244387
000090 03 bb 21 bb 57 cc a2 3d 1b fd b0 35 44 e3 20 b9
       -0.0024678118 0.07949131 1.3186685e-06 -0.00015343452
0000a0 e3 87 a4 bc ee e2 8f bd 5f f1 43 39 2d 8e be 39
       -0.020084327 -0.07025705 0.00018686567 0.00036345553
0000b0 72 7e 02 3e 1f 9e ca 3a fd 2b b5 3d ad 89 2e 37
       0.12743548 0.0015458501 0.08846281 1.0403263e-05
0000c0 f0 e1 f7 bc de e5 28 3d e1 0d 3f bd 58 a3 ce 3b
       -0.030259103 0.041234843 -0.046644095 0.006306093
0000d0 ca 43 5e 3d 30 b1 01 bc 00 0e fb b7 03 3f 30 32
       0.054263867 -0.00791578 -2.9928051e-05 1.02588755e-08
0000e0 da d1 93 3c cb fe 05 31 6d 80 33 3a 35 e9 b4 3d
       0.018044401 1.949888e-09 0.0006847445 0.08833543
0000f0 46 96 94 38 67 27 48 bc a0 9e 25 39 67 c3 c4 38
       7.0851806e-05 -0.0122164255 0.00015794719 9.382405e-05
000100 78 23 21 bd 8a 06 c6 bb 1c 02 90 3b 04 84 1f bc
       -0.039340466 -0.00604326 0.0043947827 -0.009736065
000110 67 e7 aa bc 7b 3f 05 bc b2 e4 00 3c 0e 7f 2a bc
       -0.020862294 -0.008132811 0.007867025 -0.010406269
000120 e2 1f ba 3c 47 ee 41 3c f0 21 a0 bc 72 73 46 3b
       0.022720281 0.011836595 -0.019547433 0.0030281213
000130 d5 bd 82 3c 34 43 2f 3c 1e 58 dc bc 78 fa 72 39
       0.01595966 0.010697175 -0.026897486 0.00023172225
000140 f2 2c a9 bc 12 90 be bc 60 47 85 3c 10 44 23 3c
       -0.020651314 -0.023262057 0.016269386 0.009964958
000150 71 67 b2 bc 08 fe 07 3b cd 93 1e 3c 6f b2 c8 3a
       -0.02177784 0.002075078 0.009678793 0.0015311966
000160 68 87 fd 3b 06 0e e4 bb d8 d6 a1 3c c0 12 92 3c
       0.007737089 -0.0069596795 0.019755766 0.017831206
000170 32 e9 3b 3b 24 e8 2f 3c 7d b9 d3 bc 09 bb f2 bb
       0.002867293 0.010736499 -0.025845284 -0.0074075502
000180 04 07 5e 3c e0 e5 1e 3c b9 6e b6 3b 01 29 83 bc
       0.013551477 0.009698361 0.0055673984 -0.016010763
000190 12 f7 a0 ba 0f a2 6c 3c 89 77 1f 3d 85 5c b2 bc
       -0.0012280664 0.014442935 0.038932357 -0.021772632
0001a0 be 84 36 bc 06 30 94 3c 7f f0 00 bc de 67 aa bb
       -0.011140047 0.018089306 -0.007869839 -0.00520037
0001b0 a0 21 41 3c a8 20 8b 38 bf 83 9a bc 28 82 b6 bc
       0.011787802 6.634119e-05 -0.01886165 -0.02227886
0001c0 32 bf cc 3a 0f 8d 34 3c d6 a1 96 bc 3a e2 08 bc
       0.0015620945 0.011019959 -0.018387716 -0.008354718
0001d0 17 b3 d3 3c ca dd df 3c 2c 49 3c 3c 3a 16 85 3c
       0.025842233 0.027327437 0.011492055 0.01624595
0001e0 44 47 8d 3c 1a 25 7d 3d a8 d7 21 bc 92 de 85 bb
       0.017245896 0.06180296 -0.009878077 -0.0040853703
0001f0 f8 26 25 3b c6 99 53 3b ec 98 26 3a 9f d3 57 bc
       0.002520023 0.00322877 0.00063551846 -0.013173013
000200 00 9c 8e 3d f8 33 11 36 6a df bf 3d 3c fa c6 bd
       0.069633484 2.1636934e-06 0.09368785 -0.09715697
000210 ce 90 70 bd f2 3a 8c bd fe 93 bd 34 08 e5 36 3d
       -0.058731847 -0.068471804 3.5311672e-07 0.044652015
000220 6a c7 cd bb 32 70 49 36 b0 20 31 b7 9c a2 52 3d
       -0.0062798755 3.001664e-06 -1.0557633e-05 0.051424608
000230 79 1e 49 3d 07 b4 f6 38 e6 8f f6 bd c9 08 3e 39
       0.049101327 0.00011763727 -0.12039165 0.00018123085
000240 be ce a8 3d 08 13 86 39 e3 3d a1 37 1a d3 12 3d
       0.08242558 0.0002557265 1.9221514e-05 0.035845853
000250 b8 15 7b 39 40 1b fd bc 6a d0 50 3d 84 26 4e 3b
       0.00023945316 -0.030896783 0.05098001 0.0031456063
000260 83 bc 9d bc 21 36 af bd 08 1a 18 b8 45 7f 84 3d
       -0.019254928 -0.08555246 -3.6263868e-05 0.06469587
000270 ef 9a 3e 3a 80 be 2e 3a 78 d0 4f 3d 5a 9d 01 be
       0.0007271012 0.000666596 0.05073592 -0.12657681
000280 6f 25 54 ae f4 51 8e bc 38 39 ce 3a bb a9 45 be
       -4.8236467e-11 -0.017373063 0.0015733605 -0.19303028
000290 ba 65 1a bd 3b 96 ae 3c a9 1c 30 b8 9a 31 3d 39
       -0.03769467 0.02131187 -4.198836e-05 0.00018042923
0002a0 6b ea 96 3c 77 cc b9 bc 7a 7e 18 39 66 2b 2d 3a
       0.018422326 -0.022680504 0.00014542966 0.0006605893
0002b0 70 5b de 3d 43 55 a4 bb e4 29 db 3d fa d1 80 37
       0.10857284 -0.005015047 0.107013494 1.5356567e-05
0002c0 a4 ea b7 bd 5d 60 80 bc 28 53 63 bd f5 e7 2a bd
       -0.08980301 -0.01567095 -0.055499226 -0.041725118
0002d0 56 10 ca 3c 12 32 f4 bb 04 93 56 b9 95 08 9e b5
       0.024665993 -0.007452258 -0.00020463398 -1.1774415e-06
0002e0 10 7a b4 3b 58 52 80 a7 9a 69 c5 ba 80 93 bc 3d
       0.005507715 -3.5616414e-15 -0.0015061379 0.09207821
0002f0 3f 1b ab 38 4e 2b 0f 3b d5 f6 cd 38 9c b8 64 39
       8.1589904e-05 0.002184588 9.821138e-05 0.00021812547
000300 52 05 71 bc 24 8a 45 bd cd d3 bc bc ca 8f 6b bc
       -0.014710741 -0.048227444 -0.023050213 -0.014377544
000310 8b a2 69 3b 7d 71 99 bb 92 1c 0c 3d 58 7d be 3c
       0.0035649862 -0.0046827183 0.034206934 0.023253128
000320 c7 f4 07 3d 92 cd 34 3c c6 ce e8 bb f4 bd 60 3b
       0.033192422 0.01103534 -0.0071047274 0.0034292908
000330 d2 62 6a 3c de 8c a0 3b c0 5f c9 bb 06 2f a3 3a
       0.014305787 0.004899605 -0.0061454475 0.0012449927
000340 50 be 0d bc 2d c6 5b bc ff 81 05 bb 31 8c 0c bb
       -0.008651331 -0.013413948 -0.0020371673 -0.0021445865
000350 32 c5 33 3c 9c 27 a3 bc ad d1 8a bc e4 a7 a4 bc
       0.010972308 -0.019916348 -0.016945684 -0.020099588
000360 5c f6 6e 3c e5 63 33 3c 32 c3 9b bb 05 4a da 3b
       0.014585104 0.01094911 -0.0047534937 0.006661656
000370 6f 9c b2 bc e9 de d7 bc f5 96 c2 bc 1e a3 45 3c
       -0.021803109 -0.026351409 -0.023753623 0.012062816
000380 88 2a 9e 3b 2b ce e1 bc d0 b5 c2 ba 6e e1 d3 3c
       0.0048268475 -0.027564129 -0.001485521 0.02586433
000390 db 78 8c bc ff aa fe 3b 80 2a 93 3c 45 eb 40 bc
       -0.017147472 0.007771849 0.017964602 -0.011774843
0003a0 81 64 6b bc 2e 3f 02 38 d0 c3 9e bb 18 70 ae 3c
       -0.014367224 3.1053256e-05 -0.00484512 0.021293685
0003b0 8d e1 5c bc e0 2a 9a bc a9 eb 66 3b 53 aa 18 3c
       -0.01348151 -0.018819273 0.003523568 0.009317952
0003c0 55 fe bc 3b 76 02 7f 3c 29 94 82 ba e2 1c d1 bb
       0.0057676234 0.015564552 -0.0009962368 -0.006381617
0003d0 d3 3d 98 3c 4c ec 8c 3c 15 86 70 3c b5 78 01 3d
       0.018584168 0.017202519 0.014680405 0.031609256
0003e0 72 88 99 bb 00 fe 9e 3d fc 2a 29 3c 14 89 42 bc
       -0.004685455 0.077632904 0.01032519 -0.011873502
0003f0 eb 5a 10 bb 1c 9f 0f 3c 59 ed 68 bc 2d ed bf 3b
       -0.0022026848 0.008765962 -0.014216744 0.005857131

tgcn_cells.1.graph_conv1.bias f4 [64]
000000 31 97 87 3d 64 31 3d 3e 84 ee a8 ba b2 43 9c 3d
       0.06620634 0.18475872 -0.0012888466 0.07630099
000010 8e 97 96 ba fb 53 9e bb 2d ff d7 bb 7d b7 76 ba
       -0.0011489259 -0.0048317886 -0.0065916986 -0.0009411497
000020 75 a0 f2 ba 43 d8 85 3d 3f e2 54 bb 28 33 16 bb
       -0.0018510955 0.06535389 -0.0032483486 -0.0022918675
000030 fc d6 9b 3c 85 f0 fc ba d7 90 0a bb 0b 5b 00 bb
       0.019023411 -0.0019297755 -0.002114346 -0.0019585516
000040 57 96 97 3d 91 70 7e ba 9f 65 af ba 9d 0b e0 bc
       0.07401722 -0.0009706105 -0.0013381726 -0.027349288
000050 c5 cd 99 ba 4f a5 d6 ba aa 38 62 bc e1 c6 2b bc
       -0.0011734298 -0.001637617 -0.013807455 -0.010484428
000060 8b 93 97 3d be 6a 52 bc e2 c0 e0 bb 58 68 05 3e
       0.074011885 -0.012842832 -0.006858931 0.13028085
000070 6c 5f c5 bc 6e f5 98 3d 05 e3 72 3d 21 f0 d5 bb
       -0.024093352 0.07468687 0.059298534 -0.0065288697
000080 fa ff 4b bb ed 79 1b bc 59 21 44 bb 4e 56 42 bb
       -0.0031127916 -0.009489519 -0.0029927103 -0.0029653492
000090 a3 59 0b bb 1a 36 0a 3d f7 3c b9 bb 21 78 94 bb
       -0.0021263144 0.033743 -0.0056530195 -0.004530922
0000a0 2b 6a 93 ba 66 d9 0c bc 02 d5 a1 3d 9e 63 88 bc
       -0.001124685 -0.008596754 0.07901956 -0.016649064
0000b0 2e cd ab bb 30 9e b5 3d 1f 31 84 b8 45 bc 9c ba
       -0.005242965 0.088680625 -6.3034e-05 -0.0011957964
0000c0 86 ff b1 bc b4 23 7b 3c 6b a2 15 bc f4 16 25 ba
       -0.021728288 0.0153283365 -0.009132962 -0.0006297671
0000d0 8b 99 89 ba 51 6c 33 be d2 46 02 bb 16 27 83 ba
       -0.001049803 -0.17521788 -0.0019878638 -0.0010006155
0000e0 90 c8 bf 3c b5 7a 7c bc ce 2c a2 ba 3a 1b 98 bb
       0.023411065 -0.015410115 -0.0012372972 -0.0046419175
0000f0 84 e0 d9 3d b7 af 46 bb 69 68 2f bb 57 3d 85 bb
       0.10638526 -0.0030317137 -0.0026765114 -0.00406615

tgcn_cells.1.graph_conv1.lin.weight f4 [64, 128]
000000 bb 64 cb ba 16 76 3a 3c 3a cc 2f 3b a1 78 17 3c
       -0.0015517691 0.011380693 0.002682461 0.009245069
000010 34 a3 fb bb 34 e4 46 3c ac fe 8c 3b f3 f0 19 3b
       -0.0076793674 0.012139369 0.00430282 0.0023489564
000020 14 73 8e bc 85 f8 41 3b 99 98 eb bb 69 53 29 ba
       -0.017388858 0.0029597592 -0.007189822 -0.00064592675
000030 af 84 d3 bb c6 69 83 3c fa 3b 92 bb 69 35 b2 3c
       -0.006455026 0.016041648 -0.004462716 0.021753984
000040 9d ad af 3c 30 86 a7 3b 33 e5 0b bc d0 d0 57 3c
       0.02144509 0.005112432 -0.008538532 0.013172343
000050 86 ef af bb 62 7a bd 3b 93 8d 44 3c c4 a1 56 3c
       -0.0053691296 0.0057824114 0.011996645 0.013100091
000060 73 56 c6 bb 69 98 59 3c 77 b2 a8 3b c0 8d e1 bb
       -0.006052786 0.013280966 0.005148228 -0.006883353
000070 17 06 7a 3c 8d d7 90 3c 3c e1 87 bb 37 c3 3a bc
       0.015260241 0.017680908 -0.004146723 -0.011399082
000080 63 8e e2 39 25 27 65 3c cc d5 56 3c 1d a3 e5 bb
       0.00043212165 0.013986384 0.013112497 -0.00700797
000090 9d 5b fa 3a 70 3a f0 bb 3d 6f 23 3c 6a 51 f1 3b
       0.0019100789 -0.007331185 0.009975252 0.0073644416
0000a0 6a 26 28 3c 03 a7 3a 3b 5a 27 6e bc 63 64 82 3a
       0.010263065 0.0028480894 -0.014535749 0.000994813
0000b0 ee c6 97 3c a6 e3 d4 3b 11 05 5c bc 05 0b 71 bc
       0.018527474 0.0064968644 -0.013428942 -0.0147121
0000c0 d1 cf d1 bb 6c cb 01 bc 76 81 12 bc 9b 8a 83 3b
       -0.0064029475 -0.007922035 -0.008941999 0.004014326
0000d0 2e d7 a7 39 e6 9e ac bb d2 94 2a bb 75 37 a8 bc
       0.00032013044 -0.0052679656 -0.0026028645 -0.020534256
0000e0 cf 8e 9f 3b 79 b9 58 3b 46 31 98 3b cc 35 00 bc
       0.004869319 0.0033069535 0.0046445457 -0.007825326
0000f0 05 b2 ab 3a 0a 03 e1 bb 5f 26 fb 3b f7 8f a6 bb
       0.0013099319 -0.0068668174 0.0076644863 -0.00508308
000100 e8 42 25 bd ee d3 7d bd b4 01 28 3a 5d b7 05 bc
       -0.04034701 -0.06196969 0.0006408945 -0.008161393
000110 9c ca c1 38 57 8f 39 ba 0d a8 f4 3a 0c bc 2f 3a
       9.240696e-05 -0.0007078549 0.0018665806 0.00067037414
000120 5c 2a 6d 3b bf cc 84 bd 37 ad 28 ba 0f c2 18 3b
       0.0036188578 -0.06484365 -0.00064345024 0.0023309027
000130 13 9d a6 3c 34 12 8b 3a 6b b3 0b bb 0f e7 18 b9
       0.02033857 0.0010610283 -0.0021316658 -0.00014581926
000140 73 9d 8a 3c 16 97 6f 3a 35 0b 11 bb f5 8d 5b bc
       0.01692078 0.000913964 -0.0022131924 -0.013400544
000150 d2 98 70 ba 75 ae ca 3a 6e 1a 2e bb f6 fa bb b9
       -0.00091780454 0.0015463369 -0.0026566046 -0.000358544
000160 04 1e 3b 3c 27 7b cb ba 48 94 03 bb 60 14 8e 3b
       0.0114207305 -0.0015524373 -0.0020077396 0.004335925
000170 ab f9 87 bb 19 31 36 3c 0b 80 35 3d e3 ca a1 ba
       -0.004149636 0.011120104 0.044311564 -0.001234379
000180 70 8d b8 3b b4 bb 4b bb 3a 23 30 bb 79 3e ba ba
       0.005632095 -0.0031087222 -0.0026876465 -0.0014209292
000190 02 35 0d ba 78 f9 1b bb 84 43 48 ba ba 95 40 3b
       -0.0005386622 -0.0023799818 -0.0007639455 0.002938612
0001a0 02 a0 06 3b 9e bb 12 3b 8b 12 82 bd 1a f8 af bb
       0.002054215 0.002238966 -0.06351193 -0.005370152
0001b0 94 35 c8 b9 18 5b ab 3b 19 8e cd 38 3a 04 72 bb
       -0.00038186891 0.005229365 9.8016295e-05 -0.0036928789
0001c0 c1 57 85 3d ac 02 c9 3b bc e5 04 b9 a6 f7 56 ba
       0.06510878 0.0061343517 -0.00012674084 -0.00082003546
0001d0 59 05 f1 b9 58 ff 87 bd f3 f0 b8 b8 d7 f3 9f ba
       -0.00045971086 -0.066405 -8.818684e-05 -0.0012203407
0001e0 c4 35 4e 3b ba 41 1b bb c0 87 69 bb d9 27 34 3b
       0.0031465152 -0.00236903 -0.0035633892 0.0027489571
0001f0 f5 18 94 bb 87 e5 b8 3b 36 b7 a9 b9 8d 68 2f 3a
       -0.0045195767 0.005642596 -0.00032370695 0.00066912995
000200 16 0c 50 3d e2 48 e2 3d 2d be 49 3e da 1f 99 3d
       0.050792776 0.110490575 0.19701453 0.07476778
000210 3e de 1d 3d 6b 7f 63 3e 3c bd 16 be 2b 79 fa bd
       0.038542025 0.22216575 -0.14720625 -0.12230142
000220 75 4c 1f bd 06 07 37 bd 2a 23 b9 bd 73 14 ca bd
       -0.038891274 -0.044684432 -0.0903991 -0.09867182
000230 f2 b1 0d bd f7 ba f2 3d 26 87 43 bd 8b 15 b7 3d
       -0.03459353 0.11852067 -0.04773631 0.08939656
000240 15 4c 1e 3e 0a a2 5c 3d 9b 74 e3 bc b2 00 fb 3d
       0.1545871 0.05386547 -0.027765563 0.12255992
000250 a9 ea ef bd 55 82 44 3e 87 0f de 3d ac 76 d2 3d
       -0.1171468 0.19190343 0.10842805 0.10276541
000260 f9 7b e4 bc 78 50 43 3e 77 6c b5 3c d8 b8 89 bd
       -0.027891146 0.19073665 0.022146447 -0.06724709
000270 9d 51 58 3e b2 19 45 3e f3 a0 26 be 5f bd 53 be
       0.21124883 0.19248083 -0.16272335 -0.20677708
000280 7b 73 8b bd 76 b6 39 3e 95 b9 41 3d eb 45 54 be
       -0.068091355 0.1813601 0.047296125 -0.20729797
000290 8d 43 72 3e dc e8 75 bd 2f b2 dd 3d cb 22 35 3d
       0.23658581 -0.060036525 0.108250014 0.044222634
0002a0 e8 21 01 3d 19 9d 58 3e dc ac 48 be 5f 79 8e bc
       0.031526476 0.21153678 -0.1959719 -0.017391859
0002b0 92 17 e8 3d 0b 38 12 3e 40 2a 00 be 53 e1 ce bd
       0.11332621 0.14279191 -0.12516117 -0.10101571
0002c0 66 d5 b3 bd 4b 67 2c bd 47 ce 6c be e4 89 05 3e
       -0.08780937 -0.042090695 -0.23125564 0.13040882
0002d0 aa d1 4a bd 73 65 32 bd 71 da 9d bd 5f 1e 64 be
       -0.049516357 -0.04355378 -0.0770768 -0.2227721
0002e0 49 c4 a7 3d a1 40 f0 3d 57 39 16 be cb b5 61 be
       0.08191735 0.11731077 -0.14670311 -0.22042005
0002f0 38 14 71 3d 44 10 e3 bd 72 bb 19 3d ca 8f 37 be
       0.058857173 -0.11087087 0.037532277 -0.17925945
000300 92 e8 6d 3d cf 50 33 3d 15 e5 cc 3b 3f 66 ae 3d
       0.058083124 0.043778237 0.0062528946 0.08515596
000310 31 9f a1 bb ce 0f 17 bc 6d 58 b3 3a 46 f6 af 3b
       -0.004932307 -0.009220077 0.0013682969 0.0053699343
000320 85 e0 24 b9 52 a1 39 3b 39 28 18 bc d1 31 f8 3a
       -0.00015723899 0.0028324914 -0.009286934 0.0018935745
000330 2c f2 e1 3d 5f 05 70 bb 39 8a 82 3b 97 8d d7 3b
       0.11032519 -0.0036624295 0.0039837626 0.006578158
000340 50 fa a6 3e a3 84 98 ba df a0 cb 3a 43 3d 72 bd
       0.32612848 -0.0011636209 0.0015535614 -0.059140455
000350 5d 22 59 3b 43 39 1f bb 00 84 cc 38 1b c0 a1 3c
       0.0033132054 -0.0024295605 9.752065e-05 0.019744923
000360 c5 33 27 3e de e7 2c bc 22 6f 1f 3c fe dc a7 3d
       0.16328342 -0.010553328 0.009731086 0.08196448
000370 d9 87 85 ba 86 dd 2b 3d 95 20 72 3b de 0a 5a bc
       -0.001018758 0.041959308 0.003694569 -0.013308255
000380 2e 52 97 3b 51 3b 1e 3c b3 3d 64 3b df da 29 bb
       0.004617951 0.009657697 0.0034826815 -0.002591781
000390 5c 2f c6 3b f7 b7 73 3d 6b 29 12 3c cb d7 ad bb
       0.006048126 0.059501614 0.008921008 -0.0053052655
0003a0 70 d2 01 3c 48 91 bd 3a 81 8b f8 3b 16 e6 42 3d
       0.007923707 0.0014462853 0.0075849895 0.04758271
0003b0 80 06 91 3b a1 a1 15 be 3b dd 91 ba f6 5c 08 bc
       0.0044258237 -0.14612438 -0.0011128554 -0.008322945
0003c0 c7 5a ad bc d3 ab 79 be 52 1c 52 3c 60 15 2a 3c
       -0.02116145 -0.24381952 0.012824135 0.010381073
0003d0 0f a3 7c 3b df c8 26 bc ea aa dd 3b df 09 d1 bb
       0.003854934 -0.010179727 0.0067647593 -0.0063793506
0003e0 f7 eb 38 3d 52 af 40 3c 95 98 23 ba 08 2a 6a bd
       0.04514691 0.01176055 -0.0006240693 -0.05716899
0003f0 9d 50 39 be d6 f3 c5 3a 07 d4 01 bc 1d 9c 25 ba
       -0.18097158 0.0015102576 -0.007924086 -0.0006317513

tgcn_cells.1.graph_conv2.bias f4 [64]
000000 2b b7 d4 bb 26 e8 cd bc a6 df 0c 39 6e c1 d8 bd
       -0.006491562 -0.025135111 0.00013434756 -0.10583769
000010 26 f5 a6 39 78 61 86 3a 40 0f 16 3b f9 af 4d 39
       0.00031844637 0.0010252437 0.0022897273 0.00019615878
000020 6e 65 b5 39 fc e4 fd bb d3 89 4e 3a 7f 9f 6a 3a
       0.0003459858 -0.0077482443 0.0007878814 0.00089501584
000030 b0 66 76 3c 66 12 71 3a 7b 2a 0e 3a ee 10 11 3a
       0.015039131 0.0009196162 0.00054232 0.0005533834
000040 37 93 5d be df de d0 39 d6 5b 10 3a ef e5 21 3e
       -0.2163819 0.00039838903 0.00055068487 0.15810369
000050 cc 1c c7 39 5a 50 a8 3a c6 74 45 3c 4a d1 1d bd
       0.00037977693 0.001284133 0.012051767 -0.03852967
000060 68 7a f9 bd fc 09 78 3c 48 bf ed 3a 40 cd 60 be
       -0.1218155 0.015139099 0.0018138671 -0.21953297
000070 d9 87 85 3c 60 b5 1e be b4 e5 d5 bd 00 be c6 3a
       0.016300129 -0.15498877 -0.10444203 0.0015162826
000080 3c d7 e6 39 f6 84 34 3b e5 a4 7e 3a 34 84 95 39
       0.0004402938 0.0027545071 0.0009713902 0.00028517994
000090 3d f6 0a 3a a4 73 aa bd 1d d4 8b 3a f7 7d e9 3a
       0.00053009746 -0.08322838 0.0010668073 0.001781403
0000a0 00 88 97 39 67 89 56 3b 75 4a 4b bb 36 fa 0e 3e
       0.00028902292 0.0032735707 -0.0031019722 0.13962635
0000b0 a3 26 97 bc e5 01 57 be bb 84 3f 38 e8 23 b2 39
       -0.01845104 -0.20996816 4.5661563e-05 0.00033977558
0000c0 62 02 33 bd 7b f9 3c be 6d 0c e4 3a e0 f7 4b 3a
       -0.043703444 -0.18454544 0.0017398723 0.00077807717
0000d0 b6 13 ac 39 c5 bd 8c bc ad ba 05 3a 98 14 4d 39
       0.00032821082 -0.017180333 0.0005101364 0.00019557995
0000e0 af 1a 43 3e 67 b8 8f 3b dc 27 34 3a be bf 26 be
       0.19053148 0.004385996 0.00068723946 -0.16284081
0000f0 19 d5 31 3d 71 06 9f 3a 49 ee a9 3a 0d 19 89 3a
       0.043416116 0.0012132657 0.0012964691 0.0010459736
