result/tgcn/model.pth (torch, 210213 bytes, 20 tensors)

lin_in.weight f4 [64, 12]
0	0xbeb25b05	-0.34835067
1	0xbdfa2b1c	-0.12215254
2	0xbd940b23	-0.07228687
3	0xbe9ed190	-0.31019258
4	0x3ec8f031	0.39245752
5	0xbe9d2bb5	-0.30697408
6	0x3d183340	0.03715825
7	0xbe7b305a	-0.24530163
8	0xbd6b3318	-0.057421774
9	0xbdaef51c	-0.08542845
10	0x3b9f78eb	0.0048667095
11	0x3d105270	0.03523487
12	0x3b8af67b	0.0042408085
13	0xbbe96cc3	-0.007123561
14	0xbc27aa78	-0.010233514
15	0xbb987ea4	-0.0046537686
16	0xbac8ab01	-0.0015309752
17	0xbb9acf66	-0.004724431
18	0xba10b960	-0.0005520787
19	0xbc313b77	-0.0108174
20	0x3afd8276	0.0019341249
21	0x3b77909f	0.003777541
22	0x3c065afe	0.008200405
23	0x3b5cb20c	0.003367546
24	0xb91857de	-0.00014528583
25	0xba918278	-0.0011101505
26	0x36a62b04	4.952193e-06
27	0xb9750e7a	-0.00023370414
28	0x3902e35e	0.00012482467
29	0xb9791ef4	-0.00023758021
30	0xb866c514	-5.5019817e-05
31	0x390f1815	0.00013646514
32	0x3939d905	0.00017723821
33	0x390b1a93	0.00013265973
34	0x370d2b86	8.4143885e-06
35	0x3942cc9c	0.00018577505
36	0xbb2a7b36	-0.002601338
37	0xbc5b8cbc	-0.013400253
38	0xbac928cd	-0.0015347243
39	0xbc295074	-0.010334123
40	0x3bd00abd	0.0063489364
41	0xbc29bd40	-0.010360062
42	0xbad423bc	-0.0016184966
43	0xbbde02d4	-0.0067752395
44	0xbc4113be	-0.011784492
45	0x3c8a3715	0.016871968
46	0xbb4d42b9	-0.0031320287
47	0x3c892a88	0.016743913
48	0x3cffbfc4	0.03121937
49	0xbd0450ae	-0.032303505
50	0x3d46287f	0.048378464
51	0xbcbd75cd	-0.02312746
52	0x3d612877	0.05497023
53	0xbce19ade	-0.027539667
54	0xbd317a44	-0.043329492
55	0x3d3c338c	0.045947596
56	0x3ca0217c	0.019547217
57	0x3aeefc79	0.0018233202
58	0x3d8fd7bf	0.07023572
59	0xbc856bb9	-0.016286718
60	0xbdc596b8	-0.09647888
61	0xbd0261db	-0.031831603
62	0xbba9c03d	-0.0051803873
63	0xbda1b700	-0.078962326
64	0x3b7984f9	0.0038073643
65	0xbda3742b	-0.07981142
66	0x3c06cb71	0.008227215
67	0xbbac3317	-0.005255114
68	0x3ce48f18	0.027900264
69	0xbcc250e9	-0.023720222
70	0xbcc2dd74	-0.023787238
71	0x3cb9fabf	0.022702573
72	0x3c0df939	0.008665376
73	0x3e1ba410	0.15199304
74	0x3d016772	0.031592794
75	0xbd20e03a	-0.03927634
76	0xbe989160	-0.29798412
77	0xbd391290	-0.04518372
78	0x3c47dd1e	0.012198715
79	0xbc8e8d7e	-0.017401453
80	0xbea8868d	-0.32915154
81	0x3e552af2	0.20817164
82	0xbd4efb3e	-0.050532572
83	0xbc42ecde	-0.011897294
84	0x3ee49b4d	0.44649735
85	0xbe07165f	-0.13192128
86	0x3db2db3b	0.08733221
87	0x3de6cdb8	0.112697065
88	0xbc95fa44	-0.018307813
89	0x3dce5d00	0.10076332
90	0xbd9dcff2	-0.07705678
91	0xbd65a287	-0.0560632
92	0x3e71106a	0.23541418
93	0xbde72e20	-0.112880945
94	0x3d0e4656	0.034735046
95	0x3d8a3b9f	0.06749653
96	0xb1688e85	-3.3841456e-09
97	0xa04cc6c5	-1.734524e-19
98	0x349b8a4a	2.8971618e-07
99	0xb097f56a	-1.1056447e-09
100	0x2eb51322	8.234326e-11
101	0xb097d79a	-1.1047974e-09
102	0xb435f9f1	-1.6947867e-07
103	0xa4fb89fb	-1.09087646e-16
104	0xb1a53330	-4.8079514e-09
105	0x2d8ad87b	1.578492e-11
106	0x333020fe	4.10082e-08
107	0x3096da3c	1.0975962e-09
108	0xbc4cc814	-0.012498874
109	0xbbdcd15c	-0.006738825
110	0x3b57a940	0.0032907277
111	0xbc8c28b0	-0.017109245
112	0x3aca6b80	0.0015443414
113	0xbc8dce62	-0.017310325
114	0x389fde78	7.623149e-05
115	0x395de792	0.00021162469
116	0x3b8962ca	0.004192685
117	0xbb0a3f78	-0.002109496
118	0x3b5a316f	0.0033293625
119	0x3c0edf95	0.008720298
120	0xbc5d62d8	-0.013512336
121	0xbae9f200	-0.0017848611
122	0x3a53a2d6	0.00080732757
123	0xbcaadde7	-0.020857764
124	0x3c3d6d99	0.011561775
125	0xbcae509a	-0.021278668
126	0x3b3e4e94	0.0029038535
127	0xbb72f624	-0.003707298
128	0xbb361241	-0.0027781876
129	0x3c15ce4a	0.009143421
130	0x3ac84ae6	0.001528111
131	0x3c1e7816	0.009672185
132	0xbadb96db	-0.0016753332
133	0xba3efbaf	-0.00072854286
134	0x3ad541ad	0.0016270183
135	0xbb233075	-0.0024900709
136	0x3aa1ba67	0.0012338877
137	0xbb22dc6c	-0.002485062
138	0xbba8fa23	-0.0051567717
139	0xb9b18546	-0.00033859367
140	0xb974b907	-0.00023338581
141	0xb91543a4	-0.00014234945
142	0xbaeef194	-0.0018229955
143	0x39e405d8	0.00043491903
144	0xbbb841ed	-0.0056230933
145	0xbbe303c1	-0.0069279377
146	0x3bd69461	0.00654845
147	0xbc297567	-0.010342932
148	0x3b3c5763	0.002873861
149	0xbc239651	-0.009984569
150	0xbbff31e5	-0.0077879303
151	0xbba9df57	-0.005184095
152	0x3b880a49	0.0041516167
153	0x3b0ef873	0.0021815568
154	0xbbc5fc61	-0.006042049
155	0x3bda06e0	0.0066536516
156	0xbd285ebd	-0.041105974
157	0xbca735e8	-0.020411447
158	0x3c52dcd7	0.012870035
159	0xbd194b81	-0.03742552
160	0xbb81ed61	-0.0039650653
161	0xbd1ac6bc	-0.037787184
162	0xbde699de	-0.112598166
163	0xbd795c53	-0.060879063
164	0xbc2ec9ff	-0.010668277
165	0xbbae5abf	-0.0053208764
166	0xbc61e4ef	-0.013787492
167	0xbc93250c	-0.017962001
168	0x3b2204b0	0.0024722032
169	0xbce00da1	-0.027350249
170	0xbb00930b	-0.0019618894
171	0xbc37a66b	-0.011209111
172	0x3b00a2ed	0.0019628361
173	0xbc37070c	-0.011171114
174	0x3b234cb6	0.002491755
175	0xbc4d0965	-0.012514447
176	0xb9c48b12	-0.0003748765
177	0x3b57f708	0.0032953639
178	0x3a517b9d	0.0007991137
179	0x3bab82a6	0.0052340804
180	0xbf7a6bdf	-0.9782085
181	0x3e8004e7	0.2500374
182	0x3e0350b5	0.12823756
183	0xbe4c4150	-0.1994679
184	0xbdb60c17	-0.08889025
185	0xbe797b9a	-0.24363557
186	0xbd7e2893	-0.062050413
187	0xbc75654e	-0.014977766
188	0xbf565929	-0.837298
189	0x3d9cac42	0.07650043
190	0xbd1f7e43	-0.038938772
191	0xbdd62a07	-0.10457235
192	0xb99d5d82	-0.00030015042
193	0xbaad2b30	-0.0013211723
194	0x390440e3	0.00012612673
195	0xbaa60543	-0.0012666363
196	0x391fcd6d	0.00015239949
197	0xbaa68180	-0.0012703389
198	0x3a1242c0	0.00055794045
199	0xbac046fe	-0.0014669595
200	0xb9897cc9	-0.00026223648
201	0x38de3d87	0.00010597245
202	0xba1ae56b	-0.000590882
203	0x39ab0e60	0.00032626372
204	0x3db66f99	0.08908004
205	0xbc9cdba3	-0.0191477
206	0x3dd12065	0.10211257
207	0x3e2de763	0.16982798
208	0x3d14726b	0.03624193
209	0x3e36129c	0.17780536
210	0xbc95d58d	-0.018290306
211	0x3d50305d	0.050827373
212	0x3cdd2ae0	0.026997983
213	0x3ebecbbe	0.37264818
214	0x3c9ecc6f	0.01938459
215	0x3dec9028	0.11550933
216	0xbea9320f	-0.33046004
217	0x3cab19cf	0.02088633
218	0xbc42c014	-0.011886615
219	0xbeb2ce0a	-0.3492282
220	0xbd9bb5d1	-0.07603038
221	0xbeb1c9e8	-0.34724355
222	0x3d2d7c2b	0.042354744
223	0xbe231b77	-0.15928446
224	0x3e9c81ec	0.30567873
225	0x3e430916	0.19046435
226	0xbcd60503	-0.026125437
227	0x3e3b5a01	0.18296053
228	0xb41e65b0	-1.475189e-07
229	0xb318e621	-3.559956e-08
230	0x341d898c	1.4671804e-07
231	0xb40ede37	-1.3305622e-07
232	0x34185f70	1.4190823e-07
233	0xb4139668	-1.374516e-07
234	0x331cebda	3.6536086e-08
235	0xb346a466	-4.6249987e-08
236	0xb4b01973	-3.280107e-07
237	0xb3077296	-3.1536352e-08
238	0x3229f139	9.891942e-09
239	0x34d776ac	4.0133216e-07
240	0xbe9ae478	-0.30252433
241	0xbd6ef87d	-0.058342446
242	0xbd64fb00	-0.055903435
243	0xbe9910a4	-0.29895508
244	0x3f0b39af	0.54384893
245	0xbe993f14	-0.29930937
246	0x3c9c499f	0.019078074
247	0x3dbe0d4f	0.09279882
248	0x3ebf6d73	0.3738819
249	0xbe37262d	-0.17885657
250	0x3d9629d8	0.073322
251	0x3e16bdc1	0.14720823
252	0xb7ed7627	-2.830762e-05
253	0xb885734c	-6.36341e-05
254	0x38a499b6	7.84876e-05
255	0xb845d644	-4.716801e-05

lin_in.bias f4 [64]
0	0x3f4f04bd	0.80866605
1	0xbdaf9ddf	-0.085750334
2	0xba834930	-0.0010016318
3	0xbcf11768	-0.029430106
4	0xbd00979c	-0.031394586
5	0xbe541e34	-0.20714647
6	0xbcb76491	-0.022386821
7	0x3e0b0c52	0.13578919
8	0xb6ca5fdd	-6.031229e-06
9	0xbccd58e6	-0.025066804
10	0xbd048b9c	-0.032359704
11	0xbcff0380	-0.031129599
12	0xbd1000aa	-0.035156883
13	0xbe1542bc	-0.14576238
14	0xbcda69df	-0.026661811
15	0xbf305ff2	-0.688964
16	0xbb931175	-0.004488165
17	0xbe7355d2	-0.23763207
18	0xbd2de40b	-0.042453807
19	0xb515c151	-5.578814e-07
20	0x3e8bd38b	0.27309832
21	0xb985ab3c	-0.00025495316
22	0xaf2b40f5	-1.5575437e-10
23	0x3ec1ea8c	0.37874258
24	0x3e046f03	0.12932973
25	0xbf32a3b4	-0.6978104
26	0xbe12734e	-0.14301798
27	0xbe1ece3b	-0.15508358
28	0x3dc1140d	0.094276525
29	0xbcc40d56	-0.02393214
30	0xbe1a022d	-0.15039892
31	0xbe09bad1	-0.13450171
32	0x3e843b91	0.25826696
33	0xbf147c7f	-0.58002466
34	0xbdb7f8cc	-0.08983001
35	0xbe9aca58	-0.302325
36	0xbc90e0ac	-0.017685257
37	0xba3cb575	-0.000719867
38	0xbdd159a3	-0.10222175
39	0xbaf2a47f	-0.0018512158
40	0xb7bf6fec	-2.2821092e-05
41	0xbd063604	-0.032766357
42	0xba25049d	-0.0006294938
43	0xbd6239fd	-0.055231083
44	0xbf072689	-0.52793175
45	0xbccee80e	-0.025257137
46	0xbd57ed20	-0.052716374
47	0xbe0c90b7	-0.1372708
48	0xbd956dfb	-0.07296368
49	0xbb26837e	-0.0025407965
50	0xbea59681	-0.32341388
51	0xbe27f2fa	-0.16401282
52	0xbf024854	-0.50891614
53	0xbc389ecc	-0.011268329
54	0xba4a8d79	-0.00077267695
55	0xbef354b9	-0.47525576
56	0xbecd0f81	-0.4005089
57	0xbe9d5f97	-0.30736992
58	0xbf49d9fd	-0.7884825
59	0xbd103bd3	-0.035213303
60	0xbe29964b	-0.16561238
61	0xbeee069c	-0.46489418
62	0xbf002f62	-0.500723
63	0xbb6b0c37	-0.0035865435

tgcn_cells.0.graph_conv1.bias f4 [64]
0	0x3ad78770	0.0016443562
1	0x3c99a247	0.018754138
2	0xbc3954c7	-0.011311716
3	0xbccc5821	-0.024944367
4	0x3c62dc35	0.013846447
5	0xbcbed08a	-0.023292799
6	0x3c67850f	0.014130845
7	0xbc1078fb	-0.0088179065
8	0xbc2cac54	-0.010539133
9	0x3c242b5a	0.010020101
10	0x3d2ea8bc	0.042641386
11	0x3c4a220b	0.012337218
12	0xbcc478ff	-0.023983477
13	0xba98f8a6	-0.0011670783
14	0xba92ea69	-0.0011208776
15	0xbbfda0d9	-0.007740122
16	0xbc856fda	-0.016288687
17	0xbc1d6fe7	-0.009609199
18	0xbcbcfbda	-0.023069311
19	0x3e4365e4	0.19081837
20	0xbbc9df98	-0.0061606877
21	0xbc645167	-0.013935423
22	0x3d1339e4	0.03594388
23	0xbc9251df	-0.017861305
24	0xbbc3f932	-0.005980634
25	0xbca80611	-0.020510705
26	0xbc09821c	-0.008392837
27	0xbc1691e6	-0.009190058
28	0xbc73a767	-0.014871455
29	0xbd8ceaea	-0.06880744
30	0xbcebdefb	-0.028792849
31	0xbcc59abc	-0.024121635
32	0x3cbb7cb7	0.022886617
33	0x3d0d9e90	0.034575045
34	0xbae8cb84	-0.0017760848
35	0xbc46e912	-0.012140529
36	0x3d126a32	0.035745807
37	0xbcf605e0	-0.030032098
38	0xbcd68a49	-0.026188986
39	0xbcd154f7	-0.02555321
40	0xbc007c07	-0.00784207
41	0x3e577f36	0.21044621
42	0xbcc396ce	-0.02387562
43	0xbc2150db	-0.009845938
44	0x3c33632d	0.010948938
45	0xbcb467d4	-0.022022165
46	0xbc9d469e	-0.019198712
47	0xbc9b5a8f	-0.01896408
48	0x3d5d7789	0.054069076
49	0xbc90ed55	-0.017691294
50	0xbcb1c946	-0.02170242
51	0xb98c7060	-0.00026786607
52	0x3c225075	0.009906878
53	0xbc9f9be7	-0.01948352
54	0xbc9ec688	-0.019381776
55	0x3c69d0a7	0.014270938
56	0x3bf2d2fc	0.007410405
57	0xbc920751	-0.017825754
58	0x3af0cb56	0.0018371146
59	0xbcb86a1b	-0.022511533
60	0xbc4f74bf	-0.012662112
61	0xbcc424b4	-0.023943283
62	0xbcbf214a	-0.023331303
63	0x3aa95a19	0.0012920528

tgcn_cells.0.graph_conv1.lin.weight f4 [64, 128]
0	0x3ad35217	0.0016122487
1	0x35516e84	7.801939e-07
2	0xb4843b39	-2.4630006e-07
3	0x382ce136	4.121774e-05
4	0x3aecd7b3	0.0018069654
5	0x36f17490	7.1959294e-06
6	0x3bc0a91e	0.0058795353
7	0x3c1983bb	0.009369786
8	0x000056a6	3.1084e-41
9	0xb63676b7	-2.7189215e-06
10	0x36120a6e	2.1761766e-06
11	0x24c4889f	8.5232895e-17
12	0x3633891f	2.6752894e-06
13	0x3921ecda	0.0001544239
14	0x38a7306b	7.972199e-05
15	0x3bf7e5e2	0.007565246
16	0xb60a2f6b	-2.0591203e-06
17	0x3c20157a	0.009770745
18	0x39f10620	0.00045971666
19	0xb098c5f7	-1.1115721e-09
20	0x3b1c428e	0.002384338
21	0x3282ded2	1.5235319e-08
22	0x0000c338	7.0031e-41
23	0x3bf49241	0.007463724
24	0x3c5157f1	0.0127773145
25	0x3b6dad97	0.0036266798
26	0x3ac6938c	0.0015150174
27	0xb7df9ac4	-2.665574e-05
28	0x3ad12bb8	0.0015958464
29	0xb66bfdc2	-3.5165435e-06
30	0x38c84b2f	9.550747e-05
31	0xb750a5e4	-1.24363905e-05
32	0x3b85a5fd	0.0040786252
33	0x3a1bad99	0.0005938649
34	0x399f0e3e	0.00030337455
35	0xb8fa9ee8	-0.000119505276
36	0x351c283a	5.8173066e-07
37	0xb16dfdb9	-3.4632264e-09
38	0xb98df2f4	-0.0002707463
39	0xb24cf397	-1.1929749e-08
40	0x33b6415d	8.486925e-08
41	0xb8bb2ee0	-8.925586e-05
42	0xb622173c	-2.4153405e-06
43	0x38239db7	3.900911e-05
44	0x3a53ec56	0.0008084228
45	0xb619f959	-2.2943916e-06
46	0xbb492f53	-0.0030698373
47	0xbac4099b	-0.0014956476
48	0x3abadcd6	0.0014256488
49	0xb50bdbf8	-5.210163e-07
50	0x3a9b13a6	0.0011831417
51	0x3c5d728c	0.01351608
52	0xbb6bfbd7	-0.0036008263
53	0x327c0764	1.4670011e-08
54	0xb32f7907	-4.0855436e-08
55	0x3b0025e2	0.001955383
56	0xbacc4094	-0.0015583211
57	0x3ab03bae	0.001344552
58	0x3a918752	0.0011102951
59	0x3b2d9e8b	0.0026492204
60	0x3b9590b9	0.0045643714
61	0x3c3bc714	0.011461038
62	0xb898d03b	-7.286711e-05
63	0x375956d1	1.2954421e-05
64	0xb9e040ce	-0.00042772893
65	0xba87a134	-0.0010347725
66	0x3b599767	0.0033201815
67	0xbaefa8ce	-0.0018284561
68	0x3b37fb74	0.0028073462
69	0x3796c91e	1.7975046e-05
70	0x3ba72ee1	0.005102024
71	0xbb019060	-0.0019769892
72	0xbb5a0319	-0.0033266007
73	0x3b8e655a	0.004345578
74	0x3b3e23c8	0.0029013027
75	0x3bc703a0	0.00607343
76	0x3b4fc3f6	0.0031702495
77	0xbad722fc	-0.0016413624
78	0x3b5d48f0	0.0033765398
79	0xbb7db697	-0.0038713568
80	0xbb82e7d7	-0.0039949226
81	0x3a1ff5bc	0.0006101986
82	0xbbf1297d	-0.007359682
83	0x3c93e049	0.018051283
84	0xbb244afb	-0.0025069106
85	0x3b611f81	0.0034351053
86	0x3b93e2eb	0.0045131347
87	0xbbaccc8d	-0.005273408
88	0x3acda57e	0.0015689579
89	0xbb997b87	-0.004683915
90	0xbb752d62	-0.0037411083
91	0x37a78826	1.997135e-05
92	0xbbd4c4aa	-0.0064931707
93	0xbb9ef341	-0.0048507755
94	0xbbdb2de0	-0.0066888183
95	0xbb34558f	-0.0027516817
96	0x3a6e5c12	0.0009092699
97	0x3ae659fb	0.0017574424
98	0xbace654b	-0.001574674
99	0xbb04f4f5	-0.0020287607
100	0xbb887f3d	-0.0041655586
101	0xbaeaa0d9	-0.001790072
102	0x3b4ad580	0.003095001
103	0xbb544a5d	-0.0032392957
104	0x3b347283	0.0027534075
105	0xb959527a	-0.00020725458
106	0xbbfd6c88	-0.007733885
107	0xb9076251	-0.00012911229
108	0x3a46d389	0.0007584622
109	0xbb1d6999	-0.002401924
110	0xbb040f1c	-0.0020150607
111	0xbbad2c5b	-0.0052848286
112	0x3a970835	0.0011522832
113	0x3b13a316	0.0022527627
114	0x3ada16f0	0.0016638916
115	0x3b8b7e46	0.0042569963
116	0xbc02ca5b	-0.007982816
117	0xb9e1a01e	-0.0004303464
118	0x3bb83d8d	0.005622572
119	0x39c8c109	0.00038290795
120	0xba8ffbd5	-0.0010985086
121	0x3a867124	0.0010257107
122	0x3abb6fa8	0.0014300244
123	0x3bc58287	0.006027523
124	0x3bbdce04	0.0057923812
125	0x3bc94b2c	0.0061429944
126	0xbb02b647	-0.0019945072
127	0x38b21094	8.490789e-05
128	0x3c973d3f	0.018461822
129	0x3714b8cb	8.864513e-06
130	0x353a3bab	6.937723e-07
131	0x3710910b	8.616839e-06
132	0x3b7e5940	0.0038810521
133	0x375001c4	1.2398177e-05
134	0x3c643b40	0.013930142
135	0x3c9992ee	0.01874682
136	0x80001b89	-9.878e-42
137	0x3740d5b2	1.1493847e-05
138	0xb78796e3	-1.6163516e-05
139	0x271abea5	2.1475142e-15
140	0xb791129e	-1.7294016e-05
141	0x3b60e172	0.0034314063
142	0x390cb504	0.00013418874
143	0x3c823561	0.015894594
144	0xb531e8c8	-6.627638e-07
145	0x3c82c8ab	0.015964827
146	0x3c1a110e	0.00940348
147	0xafce76d6	-3.755562e-10
148	0x3c377020	0.011196166
149	0x32859a24	1.5553333e-08
150	0x00002149	1.194e-41
151	0x3c83502f	0.016029445
152	0x3c50156b	0.012700419
153	0x3ba5927f	0.005052864
154	0x3a331ada	0.00068323093
155	0xb834b5ca	-4.308465e-05
156	0x3c21168e	0.009832038
157	0xb6d7163b	-6.4100873e-06
158	0x3918ed56	0.00014584264
159	0xb99216d3	-0.00027864295
160	0x3c8dabcd	0.017293835
161	0x3c00a587	0.007851965
162	0x3a33fa2a	0.00068655855
163	0x3bb6ddfb	0.0055806614
164	0x362c97a7	2.571827e-06
165	0xb3239481	-3.808646e-08
166	0x39eec8fa	0.00045544637
167	0xb300e7fa	-3.0013304e-08
168	0xb434899d	-1.681387e-07
169	0x37a6d435	1.9887559e-05
170	0x36134276	2.1943392e-06
171	0x381bc6a9	3.7139896e-05
172	0x3c28f4ea	0.010312298
173	0x37b5d1cd	2.1674578e-05
174	0x3bda915a	0.0066701593
175	0x3aadc1ae	0.0013256574
176	0x3a47390b	0.00075997476
177	0x352d5cf0	6.4582764e-07
178	0x3a353186	0.00069119816
179	0xba5b04da	-0.000835491
180	0x3bd99b76	0.006640847
181	0x32c2eebc	2.2693136e-08
182	0x3531ac9a	6.6188807e-07
183	0x3bf359ed	0.0074264915
184	0x3bd76701	0.0065735583
185	0x3b9f0073	0.0048523485
186	0x3bcc1035	0.006227518
187	0x39d38088	0.0004034082
188	0x3bf58ed5	0.0074938335
189	0x3ba90073	0.0051575243
190	0x3c02154d	0.007939649
191	0xb6073b51	-2.0151094e-06
192	0x3bdf003e	0.006805449
193	0x3b15c94d	0.002285558
194	0x3c27ccb5	0.010241677
195	0x3aabe384	0.001311407
196	0x3986148d	0.00025573783
197	0xbbb7ace2	-0.005605326
198	0xba853229	-0.0010162044
199	0x3a93c9ac	0.0011275313
200	0xbb16d3d3	-0.002301444
201	0x3ac18ac6	0.0014766089
202	0xbb78bde5	-0.0037954983
203	0x3a7cc9ae	0.000964309
204	0xba926c88	-0.0011171261
205	0x3bfd13f5	0.0077233263
206	0x3b273d5f	0.0025518758
207	0x3c17cadc	0.009264674
208	0xbc21c204	-0.009872917
209	0xbbda1a2e	-0.006655953
210	0xbc42e91e	-0.0118964
211	0xbac75ad7	-0.0015209568
212	0x3a7f6b30	0.000974345
213	0xbb5a09b9	-0.0033269955
214	0x3ba1b89a	0.0049353363
215	0x3afb0f73	0.0019154384
216	0x39f5db5f	0.00046893486
217	0x3b6406c5	0.0034794074
218	0xbb8d6ff0	-0.0043163225
219	0x3b60ef31	0.0034322257
220	0xbbb47780	-0.0055074096
221	0xbc34eadb	-0.011042322
222	0x3b31dc8a	0.0027139508
223	0xbb6e7d59	-0.003639063
224	0xbb4cbf97	-0.0031242126
225	0xbb2af2f6	-0.0026084757
226	0xbb9f1aa9	-0.004855473
227	0xbbb56e7a	-0.0055368515
228	0x3aecd810	0.0018069763
229	0x3b56e50c	0.0032790331
230	0x3b8c4138	0.0042802356
231	0xbc07c144	-0.008285824
232	0x3bfdfb8e	0.007750935
233	0xbc018847	-0.007906026
234	0xbc266121	-0.010154993
235	0xbbdfa047	-0.0068245265
236	0xbbdba979	-0.0067035523
237	0xbb677b4f	-0.00353213
238	0xbb190a67	-0.0023352148
239	0xbbc71686	-0.006075683
240	0xbc05f386	-0.008175736
241	0xbbfcffa5	-0.007720905
242	0xbbf1c2b7	-0.007377948
243	0x3ba7a721	0.005116359
244	0x3a4c68f5	0.0007797622
245	0x3bcc5e7e	0.0062368503
246	0x3b900a51	0.004395761
247	0xbb29b212	-0.0025893492
248	0x3b235847	0.0024924444
249	0x3b8268c1	0.003979773
250	0xbc8972f4	-0.016778447
251	0xba8154ef	-0.0009867231
252	0x3b988b0f	0.004655249
253	0xbc3620ce	-0.01111622
254	0x39742c56	0.0002328617
255	0x3b7e3ec3	0.0038794733

tgcn_cells.0.graph_conv2.bias f4 [64]
0	0x3d60d32d	0.054888893
1	0xbe662047	-0.2247325
2	0xbdf06fd6	-0.11740081
3	0xbd2f90f3	-0.042862844
4	0xbe383a6c	-0.17991036
5	0xbb9b9ab8	-0.0047486685
6	0xbdf152fe	-0.11783408
7	0xbd11d048	-0.035599023
8	0xbd01a243	-0.031648885
9	0xbd1f1339	-0.03883669
10	0xbe903e5d	-0.2817258
11	0xbe2ec983	-0.17069058
12	0xbd84fba7	-0.064933114
13	0x3c15d242	0.009144368
14	0xbb8ad0d6	-0.004236321
15	0xbd7ef2ba	-0.0622432
16	0xbd6bff43	-0.057616483
17	0x3c774240	0.015091479
18	0xbdb2b60b	-0.08726128
19	0x3efeb365	0.49746242
20	0xbd3b14a7	-0.045673992
21	0xbd3baf9e	-0.04582178
22	0x3d780336	0.060549937
23	0xbd34cd76	-0.044141255
24	0x3bd9cfa1	0.0066470657
25	0xbddc6b24	-0.10762623
26	0x3bb3e4f1	0.0054899384
27	0x3d160eab	0.036635082
28	0x3bd43a42	0.0064766714
29	0x3c19b8a9	0.009382405
30	0xbccdc447	-0.025118006
31	0xbd26e759	-0.040747974
32	0x3dbea71d	0.09309218
33	0x3e04920b	0.12946336
34	0xbb36393c	-0.002780511
35	0xbced4c80	-0.028967142
36	0xbe55c829	-0.20877136
37	0xbe08adb0	-0.13347507
38	0x3d7cd613	0.061727595
39	0xbbce937f	-0.006304204
40	0xbca81e21	-0.02052218
41	0xbe27de4d	-0.16393395
42	0xbd4d19e7	-0.05007353
43	0xbce27ef1	-0.027648421
44	0xbe3148d7	-0.17312942
45	0xbcc485a2	-0.023989502
46	0x3c7f7bc2	0.015593471
47	0xbdb4e293	-0.08832278
48	0xbdd34b75	-0.10317127
49	0x3d57c78e	0.052680545
50	0x3c82dc28	0.01597412
51	0x3bedbf8a	0.0072554993
52	0xbe12c2d9	-0.14332141
53	0xbbc5ff20	-0.006042376
54	0xbceba051	-0.028762968
55	0xbdb44b05	-0.08803371
56	0x3e569afe	0.20957562
57	0xbcabd495	-0.02097539
58	0x3b87aa15	0.0041401484
59	0x3c9412de	0.018075403
60	0x3d44c70e	0.048041396
61	0xbd28fc3b	-0.04125617
62	0xbd869be1	-0.065727
63	0x3b994734	0.0046776775

tgcn_cells.0.graph_conv2.lin.weight f4 [64, 128]
0	0x3cb19d1d	0.021681363
1	0x3708677d	8.130327e-06
2	0x35c83aea	1.4918307e-06
3	0xb8a95548	-8.074433e-05
4	0x3b2a53b7	0.002598984
5	0xb7774076	-1.4737356e-05
6	0x3d1e3522	0.03862489
7	0x3d99e3d2	0.075141564
8	0x80001f21	-1.1167e-41
9	0x356c647e	8.8063086e-07
10	0x367c6f68	3.7615773e-06
11	0xa5a54fc0	-2.8676978e-16
12	0xb6fd78be	-7.554044e-06
13	0x3b677a81	0.003532082
14	0xb84e6ea7	-4.921728e-05
15	0x3d1c8575	0.038213212
16	0x36335d36	2.6727334e-06
17	0x3d079384	0.033099666
18	0xbb39bb8c	-0.0028340546
19	0xb21e69da	-9.220878e-09
20	0x3d18ee5f	0.037336703
21	0xb32dd109	-4.0469818e-08
22	0x00002229	1.2254e-41
23	0x3d461be0	0.048366427
24	0x3d5007e2	0.050788768
25	0x3d23e4bb	0.040013056
26	0x3a2187e5	0.00061619125
27	0x37eb7781	2.8069831e-05
28	0xbafef673	-0.001945211
29	0xb6ea0270	-6.974027e-06
30	0x38c50911	9.395381e-05
31	0xb7f52989	-2.9225617e-05
32	0x3c762b9a	0.015025044
33	0x3c9769a7	0.018482996
34	0x3a407cf1	0.00073428365
35	0x3cf46cfc	0.029837124
36	0xb5c5e4ca	-1.474423e-06
37	0xb4501f3e	-1.9382875e-07
38	0xb921003d	-0.00015354245
39	0x327c16e5	1.4673536e-08
40	0x35fe21b9	1.8934289e-06
41	0x38cb1ad2	9.68479e-05
42	0x35864c8c	1.0006056e-06
43	0xb81d9150	-3.756705e-05
44	0x3c8deb58	0.017324135
45	0xb782aa94	-1.557664e-05
46	0x3ad959c0	0.0016582534
47	0x3bf766a4	0.0075500775
48	0x3be092ee	0.006853453
49	0x35e88ed3	1.7326914e-06
50	0x3c776e45	0.015101974
51	0xbcffb4dd	-0.031214172
52	0x3b6fe93e	0.003660753
53	0x360351e6	1.9568192e-06
54	0x360f6eee	2.137323e-06
55	0x3d10e887	0.035378005
56	0x3c970def	0.018439261
57	0x3d1408f3	0.036141347
58	0x3d5915b0	0.0529992
59	0x3a1f3770	0.00060736295
60	0x3d235473	0.03987546
61	0x3d769ec6	0.060210012
62	0x3b7db529	0.0038712716
63	0x36ca620a	6.0314824e-06
64	0x3b57c6ed	0.0032924965
65	0xbc70a0e2	-0.014686795
66	0x3cea9923	0.028637474
67	0xbb9ef596	-0.0048510535
68	0x3d058a6f	0.032602724
69	0x3bb00a4b	0.005372321
70	0xbcc0e283	-0.02354551
71	0xbd192c4b	-0.037395757
72	0xbc659c2d	-0.014014286
73	0x3babdb9b	0.005244685
74	0x3cb8a75e	0.022540744
75	0x3ce62629	0.028094368
76	0x3cfd00e7	0.03088422
77	0x3c280e2b	0.010257284
78	0x3c71557b	0.014729853
79	0xbc6102ad	-0.013733548
80	0xbcf78c2d	-0.030218208
81	0x3c84dd99	0.016218947
82	0xbd0f8e0d	-0.03504758
83	0x3cec53cb	0.02884855
84	0xbc2acef8	-0.010425322
85	0x3c3c2f4c	0.011485886
86	0x3c4dbb92	0.012556927
87	0xbc9e500e	-0.019325282
88	0x3b8da11d	0.0043221847
89	0xbd0e360c	-0.034719512
90	0xbd2cb273	-0.04216237
91	0xbae9f37d	-0.0017849054
92	0xbce402fb	-0.027833452
93	0xbce17975	-0.027523736
94	0xbd05ebfe	-0.032695763
95	0xbd27c1ba	-0.040956236
96	0xbbdf3da8	-0.00681277
97	0xbc615f5b	-0.013755645
98	0xbd2b755a	-0.041859962
99	0xbcbee230	-0.023301214
100	0xbc922a79	-0.017842518
101	0x3c525d12	0.0128395725
102	0x3c249af0	0.010046706
103	0xbd044a6e	-0.032297544
104	0x3cc45673	0.023967003
105	0xbc2cadfb	-0.010539527
106	0xbce8b939	-0.028408634
107	0xbcee21de	-0.029068884
108	0x3b49bf1e	0.003078408
109	0xbbb5bc4f	-0.00554613
110	0xbd307826	-0.043083332
111	0xbd1c115a	-0.038102485
112	0xbcecf08e	-0.0289233
113	0xbbc3e4f7	-0.0059782225
114	0xbc90f405	-0.017694483
115	0x3d0854d7	0.033284035
116	0xbcf8f081	-0.030388119
117	0x3bb21978	0.005435165
118	0x3d064426	0.032779835
119	0x3ca1cce8	0.019751027
120	0x3c2d63e9	0.0105829025
121	0x3c056563	0.008141848
122	0xbcfeb4e6	-0.031092118
123	0x3cfa9aaf	0.030591337
124	0x3cd0d5df	0.025492607
125	0x3ca0d213	0.019631421
126	0xbc6d93be	-0.0145005565
127	0x3ba03062	0.00488858
128	0xbe5e3030	-0.2169807
129	0x38807efb	6.1271676e-05
130	0xb716dae7	-8.991664e-06
131	0xba26c2d2	-0.0006361428
132	0xbc4faf34	-0.012676049
133	0x3b581690	0.0032972433
134	0xbcd0ee88	-0.025504366
135	0x3e186e14	0.14885741
136	0x80001d3b	-1.0486e-41
137	0xb8186db4	-3.6341793e-05
138	0xb7236e43	-9.741229e-06
139	0xa91d4167	-3.491773e-14
140	0x3a371813	0.00069844833
141	0x3c07f5e5	0.008298372
142	0xbb08253f	-0.0020774154
143	0xbd8a1376	-0.06741993
144	0x39768a04	0.00023511803
145	0x3df48f8b	0.11941441
146	0xbce879e3	-0.028378433
147	0xb216c229	-8.775296e-09
148	0xbd8bd3e4	-0.06827524
149	0xb42c9c57	-1.6075624e-07
150	0x00001ca7	1.0279e-41
151	0x3c417179	0.011806839
152	0x3d8d28a7	0.068925194
153	0x3bacb7dc	0.005270941
154	0xbcadf575	-0.021235207
155	0xb8e67a44	-0.000109900284
156	0xbd24f9ca	-0.04027728
157	0xb98b11e4	-0.00026525476
158	0xba8b475e	-0.0010626127
159	0xbba21619	-0.004946482
160	0xbdbe2084	-0.092835456
161	0x3d139919	0.036034677
162	0xbb177173	-0.0023108392
163	0x3d323fa0	0.04351771
164	0x378de7db	1.6916476e-05
165	0xb666d87d	-3.4398684e-06
166	0xbbf6d735	-0.007532979
167	0xb3ea9b63	-1.0924739e-07
168	0xb643e302	-2.91894e-06
169	0x39973228	0.00028838334
170	0xb681da56	-3.8699172e-06
171	0xba6da28a	-0.0009065053
172	0xbdb5d98a	-0.08879383
173	0x3901ac78	0.00012366648
174	0xb8be8506	-9.0846836e-05
175	0xbb185d7d	-0.0023249083
176	0xb9b891c4	-0.0003520382
177	0x37047996	7.896122e-06
178	0x3d4b1dbc	0.049588904
179	0xbbabc9aa	-0.005242546
180	0xbd7c3ab1	-0.06157941
181	0x35131be6	5.4802365e-07
182	0xb60cab2b	-2.0961259e-06
183	0x3cab4222	0.020905558
184	0xbd4283e4	-0.047489062
185	0x3a197bcf	0.0005854936
186	0x3d75f97f	0.06005239
187	0x3b1531eb	0.002276535
188	0x3c82ed4e	0.015982296
189	0x3cae9989	0.021313446
190	0xbd26bcc6	-0.040707372
191	0xb7adc476	-2.0714691e-05
192	0x3bdfd76e	0.006831101
193	0x3c9bd699	0.019023227
194	0xbd638bad	-0.055553127
195	0xbbd7d3c0	-0.006586522
196	0x3d05b2f8	0.03264138
197	0x3ca4c42d	0.020113075
198	0x3c5b0ab2	0.013369249
199	0xbc396318	-0.01131513
200	0x3bffc206	0.007805112
201	0xbcd7bfaa	-0.02633651
202	0x3d20a0b1	0.039215747
203	0x3d2667e9	0.04062644
204	0x3c8ba4b4	0.01704631
205	0xbc417e5c	-0.011809912
206	0xbc1237c4	-0.008924428
207	0xbca481bb	-0.020081392
208	0x3cbd79a3	0.02312929
209	0x3c106eb1	0.008815453
210	0x3d14a1e8	0.03628722
211	0xbd178160	-0.036988616
212	0x38fc21c3	0.00012022585
213	0x3cd5e2d1	0.026109131
214	0xbd8bde85	-0.068295516
215	0xbc033e03	-0.00801039
216	0xbbbe8000	-0.0058135986
217	0xbceb062a	-0.028689463
218	0xbb9d2c3b	-0.0047965324
219	0x3be191cd	0.006883836
220	0x3cb5fbee	0.022214856
221	0x3d99f96f	0.07518279
222	0xbc9b6cbd	-0.018972749
223	0xbc8b5e68	-0.01701279
224	0x3c315e07	0.0108256405
225	0x3c6bae73	0.014384854
226	0xbc87c493	-0.016573226
227	0xba1c0f9a	-0.00059532525
228	0xbd2be8e2	-0.04197014
229	0xbc7d0fe0	-0.015445679
230	0xbcecd1d1	-0.028908642
231	0x3c3f4ff8	0.011676781
232	0xbce69ca5	-0.028150866
233	0xbcf55277	-0.029946549
234	0x3c041c1b	0.0080633415
235	0x3b99f524	0.0046984125
236	0x3d1d7db2	0.03844995
237	0x3c1fbe19	0.009749913
238	0x3bc56147	0.0060235593
239	0xbb93d041	-0.00451091
240	0x3c7c5e58	0.015403353
241	0x3cb9ea8d	0.02269485
242	0x3cfcffd8	0.030883715
243	0xbb8fc213	-0.004387149
244	0xbd12095f	-0.03565347
245	0xbc8f5d1d	-0.017500455
246	0x3c94cb90	0.018163472
247	0xbc5bca31	-0.013414905
248	0xbc9614cc	-0.018320464
249	0xbc2e374c	-0.010633301
250	0x3cc993c0	0.024606586
251	0x3c9287ab	0.017886957
252	0xbc23f8f9	-0.01000809
253	0x3d15a966	0.036538504
254	0xbc88fa9c	-0.016721062
255	0xba738e1a	-0.0009290889

tgcn_cells.0.graph_conv3.bias f4 [64]
0	0x3bfc2fdd	0.0076961354
1	0x3c87c2e7	0.016572429
2	0x3de89c25	0.11357907
3	0x3c5b26ee	0.013375981
4	0xbde5ee20	-0.11227059
5	0xbca0fb68	-0.01965113
6	0x3d822d60	0.06356311
7	0x3cd9419d	0.026520545
8	0xbcfb9cae	-0.03071436
9	0x3d89ccb6	0.06728499
10	0xbdde431c	-0.10852644
11	0xbdd0b0f1	-0.10189999
12	0xbd992b6f	-0.074789874
13	0x3d457b65	0.04821338
14	0x3ceca433	0.02888689
15	0x3ce59d0f	0.028028993
16	0xbdb5513d	-0.088533856
17	0xbca103b6	-0.01965509
18	0xbd990f81	-0.0747366
19	0xbe8debea	-0.2771905
20	0xbcfe1dd0	-0.031020075
21	0xbc64875b	-0.013948287
22	0x3d81f17e	0.06344889
23	0x3c02ad82	0.007975938
24	0x3d06f2a6	0.03294625
25	0x3c88aea6	0.016684841
26	0x3c82f9e4	0.015988298
27	0x3c48ecca	0.012263486
28	0xbc26a343	-0.010170761
29	0xbe310a87	-0.17289172
30	0x3bb34599	0.005470943
31	0xbbe18859	-0.006882709
32	0x3c101f93	0.00879659
33	0xbd39344f	-0.0452159
34	0xbaf93e77	-0.0019015808
35	0xbcc05e6c	-0.023482524
36	0x3d75e5c7	0.060033586
37	0xbcaaa51e	-0.020830687
38	0x3d0c8444	0.034305826
39	0xbd325667	-0.04353943
40	0x3d01dbfc	0.031703934
41	0x3d25a01d	0.0404359
42	0xbce05a92	-0.027386937
43	0xbcc84df1	-0.024451228
44	0xbe33461e	-0.17507216
45	0xbca939f4	-0.020657517
46	0x3c6da299	0.014504098
47	0x3c56d51b	0.013112332
48	0xbe24d637	-0.16097341
49	0xbd1eb787	-0.038749244
50	0xbca9eba9	-0.020742254
51	0xbcb4633e	-0.022019979
52	0x3da88b50	0.08229697
53	0x3ce075c4	0.027399905
54	0x3ce50e5f	0.027960954
55	0xbd7a247c	-0.06106995
56	0xbd2829ee	-0.041055612
57	0x3cac26a8	0.021014526
58	0xbcdbcd99	-0.026831435
59	0xbc1dc720	-0.009629995
60	0xbcf75147	-0.030190123
61	0xbc3d1c8b	-0.01154245
62	0x3be5bf40	0.007011324
63	0x3a776e63	0.0009438751

tgcn_cells.0.graph_conv3.lin.weight f4 [64, 128]
0	0xbca5f04c	-0.020256184
1	0x38db7bd3	0.00010465798
2	0xb6dd874c	-6.602064e-06
3	0xbac600e2	-0.0015106464
4	0xbc2b0679	-0.010438555
5	0xbb7def37	-0.003874732
6	0x3d6765eb	0.05649368
7	0xbc82b18d	-0.015953803
8	0x80001b97	-9.897e-42
9	0xb9d99a64	-0.00041504495
10	0x3943e31f	0.00018681258
11	0x27b13101	4.91805e-15
12	0x3b2178ba	0.002463861
13	0x3c85804b	0.016296526
14	0xbb804d8a	-0.0039154934
15	0x3bcad551	0.00618998
16	0xb95eeb48	-0.00021259219
17	0x3d433de1	0.047666434
18	0x3c994a7a	0.018712271
19	0xafdd137e	-4.0213516e-10
20	0x3cac9654	0.021067776
21	0x349b38f0	2.8912427e-07
22	0x00001b8e	9.885e-42
23	0x3c9b108f	0.018928794
24	0x3d25eba1	0.040507916
25	0xbcd1ec22	-0.025625292
26	0xbcc24db7	-0.023718698
27	0xb9de5abf	-0.0004241075
28	0x3bbc7b92	0.0057520354
29	0xb976bf5e	-0.00023531678
30	0xb893b474	-7.043118e-05
31	0xbadc29be	-0.0016797108
32	0x3d2cffea	0.042236246
33	0xbc8830ee	-0.016624894
34	0xb8e5a530	-0.000109503395
35	0xbb7ae1e7	-0.003828162
36	0xb70874c3	-8.133417e-06
37	0xb6575940	-3.2089447e-06
38	0xbc0d09a6	-0.008608257
39	0xb5a5acd9	-1.2343763e-06
40	0x36838e09	3.9206393e-06
41	0x38856040	6.359862e-05
42	0x383f2bd6	4.5578774e-05
43	0x38abb77e	8.1880935e-05
44	0xbc31bbed	-0.010848028
45	0x3924ca7b	0.00015715689
46	0x3cbf2353	0.023332274
47	0x3b8df37b	0.0043320036
48	0x3b89152c	0.004183432
49	0x37945845	1.7684079e-05
50	0x3ba03fc7	0.0048904154
51	0x3cb76370	0.022386283
52	0x3c25548d	0.010090959
53	0x36a724db	4.9812784e-06
54	0xb7cfd9b5	-2.47777e-05
55	0x3cf12620	0.029437125
56	0x3c84964b	0.016184947
57	0x3c945297	0.018105788
58	0xbca98952	-0.020695362
59	0xbb8dd277	-0.004328068
60	0x3b5a8c53	0.00333478
61	0x3c9940b8	0.018707618
62	0xbc5a2671	-0.013314829
63	0xb8a3e269	-7.814618e-05
64	0xbd90bb40	-0.07066965
65	0xbc36bbd4	-0.01115318
66	0x3cbbea3f	0.022938846
67	0xbc28032d	-0.010254663
68	0xbc9c084d	-0.019046927
69	0xbae17193	-0.0017199985
70	0xbbb71971	-0.0055877496
71	0x3c84a520	0.016192019
72	0xbc26af87	-0.010173685
73	0x3ccb0e6d	0.024787152
74	0xbd07bfa6	-0.033141755
75	0xbcf011b0	-0.029305309
76	0xbbe33e61	-0.0069349264
77	0x3be500e5	0.006988632
78	0x3ce662f6	0.02812336
79	0x3c8dfd43	0.017332679
80	0xbc7202d4	-0.014771182
81	0x3ca78ba6	0.020452332
82	0xbca4a482	-0.020097975
83	0x3bd0b959	0.0063697514
84	0x3abd169b	0.0014426293
85	0xb96c7b68	-0.00022552686
86	0x3b371942	0.0027938639
87	0x3b30bd5c	0.0026968336
88	0x3c32ccf6	0.010913124
89	0x3ce904b6	0.02844463
90	0x3be2fb75	0.0069269487
91	0xbc6fa500	-0.014626741
92	0xba51fffa	-0.0008010861
93	0x3b293fb0	0.0025825314
94	0x3c3feccf	0.011714174
95	0x3bd0a56b	0.0063673756
96	0xbbe01a34	-0.006839061
97	0x3b2c6958	0.0026307907
98	0x3cf1410c	0.029449962
99	0x3c006fba	0.007839138
100	0x3d3d5c67	0.0462307
101	0x3ab1496c	0.001352591
102	0xbc18668f	-0.009301796
103	0xbc83c22e	-0.016083803
104	0x3c748b50	0.014925793
105	0xbb82904a	-0.0039844858
106	0xbc4e12dd	-0.01257774
107	0x3ad8ad82	0.0016531202
108	0xbcf458a2	-0.02982742
109	0x3c65df45	0.014030282
110	0xbad75aef	-0.0016430299
111	0xb9c203d2	-0.0003700541
112	0x3abb8f78	0.0014309725
113	0x3c06a895	0.008218904
114	0xbcc1a0cb	-0.023636242
115	0xbc23e527	-0.010003365
116	0x3c86dc9e	0.01646262
117	0x3a7532ab	0.00093535584
118	0xbbcc73bd	-0.006239383
119	0xbb641859	-0.0034804551
120	0x3c38ea8a	0.011286387
121	0xbc94a395	-0.018144408
122	0xbd1491b8	-0.03627178
123	0xbc547998	-0.012968443
124	0x3b773ad9	0.0037724285
125	0xbc9ce264	-0.01915092
126	0xbb7881a0	-0.003791906
127	0xbb7441e3	-0.0037270717
128	0xbe87abf2	-0.2649837
129	0xbb8c9d5d	-0.00429122
130	0xb9ab1756	-0.00032633048
131	0xbb45e147	-0.003019409
132	0x3d3728f5	0.044716794
133	0x3cea60ca	0.028610606
134	0x3dc4500c	0.0958558
135	0xbd5e4fd4	-0.05427535
136	0x2b09edaf	4.900203e-13
137	0xb8fbced0	-0.000120071345
138	0x3a0461be	0.0005049965
139	0x39ecb93a	0.00045151432
140	0x3b324136	0.0027199513
141	0xbbc4f729	-0.006010909
142	0x3b04247a	0.0020163343
143	0x3d4b600e	0.04965215
144	0x3ad094bd	0.0015913468
145	0xbcb37695	-0.02190713
146	0xbe128164	-0.14307171
147	0xb2c6d3cc	-2.3146548e-08
148	0x3daaa1d3	0.08331647
149	0xb8341397	-4.293359e-05
150	0x80002016	-1.151e-41
151	0x3eaf46db	0.34233746
152	0x3c4b8d9f	0.012423902
153	0xbd6e211e	-0.05813705
154	0x3d7e3dbc	0.062070593
155	0xbbb3b967	-0.005484748
156	0x3e239df2	0.1597822
157	0xb83e28ed	-4.5337645e-05
158	0x3c7e404f	0.015518262
159	0xbd048f3b	-0.032363158
160	0xbe51163b	-0.20418637
161	0xbe8b915e	-0.27259344
162	0x3cabc9f4	0.020970322
163	0xbcdc413a	-0.026886571
164	0xb93afb20	-0.00017831894
165	0x37e5190c	2.731059e-05
166	0x3c382d3a	0.011241252
167	0xb6b01152	-5.247225e-06
168	0x36142a64	2.2078393e-06
169	0xbbccc482	-0.0062490115
170	0x382f1dd1	4.175102e-05
171	0xbbc098fd	-0.0058776126
172	0x3e67b79b	0.22628634
173	0xbb3197c9	-0.0027098528
174	0x3dafc34e	0.08582173
175	0xbe006eb5	-0.12542231
176	0x3c9c8b96	0.019109529
177	0x398fc83b	0.0002742427
178	0x3cc1b6f7	0.023646815
179	0x3b2612c2	0.002534077
180	0x3e93aa5c	0.2884091
181	0xb8b41613	-8.5871805e-05
182	0x384bb158	4.8564136e-05
183	0xbe79ee28	-0.24407256
184	0x3cf44ad0	0.02982083
185	0xbcfc5561	-0.03080243
186	0x3dfc167b	0.12308975
187	0x3bb57635	0.005537773
188	0xbd429f6d	-0.04751532
189	0x3d1ff999	0.039056394
190	0x3e9eb916	0.31000584
191	0x3882fdc6	6.246152e-05
192	0xbc284b64	-0.010271881
193	0xbdfdbb87	-0.123892836
194	0xbca841b2	-0.020539138
195	0x3b7ded9e	0.0038746367
196	0xbc87554b	-0.016520163
197	0x3cb7d4c1	0.022440316
198	0xbd9db5ec	-0.077007145
199	0x3c57abb2	0.013163494
200	0x3c02578e	0.007955445
201	0x3d465a4b	0.048425954
202	0xbe03be5e	-0.12865588
203	0xbdca4f97	-0.09878462
204	0x3bb50d12	0.0055252397
205	0x3c972605	0.018450746
206	0xbd0805db	-0.03320871
207	0x3bd19abd	0.00639662
208	0x3d0d6b07	0.034525897
209	0x3c3b0651	0.01141508
210	0x3c6d9547	0.0145009225
211	0xbe39db61	-0.18150093
212	0xbb3a86fa	-0.00284618
213	0xbc2ae9be	-0.010431705
214	0x3ca14ba0	0.019689381
215	0x3ca321f7	0.019913657
216	0xbc758e00	-0.014987469
217	0x3d007bd0	0.031368077
218	0x3c34a412	0.011025446
219	0x3b4ee6a1	0.003157057
220	0x3cb2559d	0.02176934
221	0x3b43cfa2	0.0029878397
222	0x3c8a6b05	0.016896734
223	0xbbcae8a1	-0.0061922823
224	0x3d457f7d	0.048217285
225	0x3dc0250f	0.09382068
226	0x3cd50596	0.02600364
227	0x3cd2c754	0.025729813
228	0x3cb2b050	0.021812588
229	0x3d839aa1	0.064259775
230	0xbd03370d	-0.032034922
231	0x3bdf10d5	0.0068074265
232	0xbc4c17eb	-0.012456874
233	0x3e501986	0.20322236
234	0x3d04b2bd	0.03239702
235	0xbd1f245f	-0.038853046
236	0xbcd46713	-0.025928056
237	0x3b0dd14f	0.002163965
238	0xbca3304f	-0.019920496
239	0x3c4edc22	0.012625726
240	0x3e19ba0a	0.15012375
241	0xbcf39fe2	-0.029739324
242	0x3c4466d6	0.011987409
243	0xbbe2e85e	-0.006924673
244	0x3d8010f4	0.062532336
245	0x3c851aac	0.01624807
246	0x3bd7661d	0.006573452
247	0x3da70597	0.08155363
248	0xbcee4027	-0.029083325
249	0x3cb35d98	0.021895215
250	0xbd2523ee	-0.04031747
251	0xbb4fc9f1	-0.003170606
252	0xbcb7f98a	-0.022457857
253	0x3c9d9eb3	0.019240713
254	0x3cb20939	0.021732913
255	0xbaf0d445	-0.0018373808

tgcn_cells.1.graph_conv1.bias f4 [64]
0	0x3da797dc	0.08183262
1	0x3d916042	0.07098438
2	0x3dd4810b	0.103761755
3	0xb9a1cc64	-0.00030860596
4	0x3d41c9fb	0.047311764
5	0x3db08142	0.08618404
6	0xbcc7ff36	-0.024413686
7	0x3d556219	0.052095506
8	0xbcda44a9	-0.026644068
9	0xbcb408ed	-0.021976912
10	0xbb36ad55	-0.002787431
11	0xbcaa2eb6	-0.020774227
12	0xbd0a9743	-0.03383566
13	0xbabd7b0a	-0.0014456224
14	0x3d061018	0.032730192
15	0x3d3ee9ae	0.046609573
16	0xbcb5a795	-0.022174636
17	0xbb57ea14	-0.0032945918
18	0x3aea8579	0.0017892561
19	0xbaa542e5	-0.0012608437
20	0xbcf98316	-0.030458014
21	0xbc6883da	-0.014191592
22	0x3ce9a868	0.028522685
23	0xba2b2df5	-0.00065299805
24	0x3d9466ff	0.072462074
25	0x3c800eb7	0.015632017
26	0x3d4e5746	0.0503762
27	0xbc53b565	-0.012921666
28	0x391a19da	0.00014696215
29	0xbd84e796	-0.06489484
30	0xbc14d2c5	-0.0090834545
31	0x3d11e6bc	0.035620436
32	0xbb962646	-0.0045821993
33	0xbc72c1f0	-0.014816746
34	0x3da01efa	0.07818408
35	0x3d15c845	0.036567945
36	0xbbd55de5	-0.0065114372
37	0x3e14fae1	0.14548828
38	0x3aab2c3e	0.001305945
39	0x3c372560	0.0111783445
40	0xbb4d45da	-0.0031322152
41	0x3a847e8b	0.0010108514
42	0xbcf1a886	-0.029499304
43	0xbc86b880	-0.016445398
44	0xbbb78b2f	-0.005601309
45	0xbb443592	-0.0029939157
46	0xbab560c6	-0.0013838045
47	0xbcdcff14	-0.0269771
48	0xbccb9285	-0.02485014
49	0xb9b2a975	-0.0003407706
50	0xbb98b6ee	-0.004660479
51	0xbc88d0da	-0.01670115
52	0x3d3f1fd8	0.046661228
53	0x3e4d1371	0.20026948
54	0xbcce5fcc	-0.025192164
55	0x3d8b039c	0.06787798
56	0xbd02eecf	-0.031966027
57	0xbca223bb	-0.019792428
58	0xbca67747	-0.020320548
59	0xbc697008	-0.014247902
60	0xbca3287e	-0.01991677
61	0x3c599583	0.013280275
62	0xbcb46f84	-0.022025831
63	0xbcb37259	-0.021905111

tgcn_cells.1.graph_conv1.lin.weight f4 [64, 128]
0	0x3bae8afd	0.0053266273
1	0xbcca8ab1	-0.024724336
2	0x3cf05edd	0.02934211
3	0x3c93c8a4	0.018040009
4	0xbc963890	-0.018337518
5	0xbcade069	-0.021225171
6	0xbd03842d	-0.032108475
7	0x3c380b8f	0.0112332245
8	0xbc0fe58d	-0.0087827565
9	0xbbd071db	-0.006361229
10	0xbd38ed96	-0.045148455
11	0xbc92540a	-0.017862339
12	0xbc102bf9	-0.008799546
13	0xbb28c542	-0.002575234
14	0xb9d64046	-0.00040865148
15	0x3c979b5a	0.018506695
16	0xbb93b360	-0.004507467
17	0xbc25b067	-0.010112858
18	0xbd044d02	-0.032300003
19	0x3d56b328	0.05241695
20	0xbc357a0f	-0.011076464
21	0xbccd7818	-0.02508168
22	0x3b2d1d4a	0.0026415163
23	0x3c99c0f3	0.018768763
24	0x3ca84a9a	0.020543385
25	0x3d08730f	0.033312853
26	0xbad162e1	-0.0015974903
27	0xbc1cb224	-0.009563956
28	0xbc3efb34	-0.011656571
29	0xbd183efb	-0.037169438
30	0x3cc07433	0.023492908
31	0x3d2f0c5e	0.042736404
32	0xbcd19788	-0.025584951
33	0xbc74d092	-0.014942305
34	0xbb0989a7	-0.0020986588
35	0x3c116219	0.008873486
36	0x3bfbfb7b	0.007689891
37	0x3d1e0265	0.038576502
38	0x3c91f928	0.017819002
39	0xbc883649	-0.016627448
40	0x3cdfad7c	0.027304403
41	0x3db5c43d	0.0887532
42	0xbc80ba94	-0.015713967
43	0x3bc4acab	0.006002029
44	0xbc9ab62b	-0.018885693
45	0xbca2ff3f	-0.019897101
46	0x39e4f1bd	0.00043667658
47	0x3ccefb0f	0.025266198
48	0xbcb801cb	-0.022461792
49	0xbce6364e	-0.028102066
50	0xbcd283a4	-0.025697537
51	0x3be9a1b6	0.007129873
52	0x3c6c87bf	0.014436661
53	0x3c2462ed	0.010033351
54	0xbc5b983a	-0.013402993
55	0xbcb8e794	-0.022571363
56	0x3c9b4159	0.018952059
57	0x3c80e784	0.015735395
58	0x3c396250	0.011314943
59	0xbc5d47dc	-0.013505902
60	0x3cc0701c	0.023490958
61	0xbcbfb85c	-0.02340334
62	0x3cbcddd0	0.023054987
63	0xbb886d0f	-0.0041633914
64	0xbd2b5bc9	-0.04183558
65	0xbb959e7b	-0.0045660115
66	0xbb0d5e45	-0.0021571082
67	0xb886f515	-6.435268e-05
68	0xbd66dccf	-0.056362923
69	0xbcfe10bd	-0.03101384
70	0xbbcda079	-0.0062752333
71	0x3d3de978	0.04636523
72	0x3b27b793	0.0025591596
73	0x3a4aafb8	0.00077318726
74	0xbae69ab4	-0.0017593713
75	0x3a9947d2	0.0011694378
76	0xbbbce6ab	-0.0057648025
77	0x3b8c8f7d	0.004289566
78	0xbbbd4b8b	-0.0057768277
79	0x3d9b20d2	0.07574619
80	0x3c1fabb2	0.009745525
81	0x3a598a32	0.0008298486
82	0x3b5293e3	0.0032131604
83	0xbbcb7fa5	-0.006210285
84	0xbb2cb99c	-0.002635575
85	0x3b174a15	0.0023084928
86	0xbcf6296a	-0.030049045
87	0xbb985bba	-0.0046496065
88	0xbde4948c	-0.111611456
89	0x3bbce2ca	0.00576434
90	0xbc627347	-0.01382143
91	0x3b52a700	0.0032142997
92	0xba813e89	-0.0009860556
93	0xbde029a8	-0.10945445
94	0xbb64612f	-0.0034847965
95	0xbd39f86e	-0.045402937
96	0x3c0c4176	0.008560529
97	0xbbecef1d	-0.007230653
98	0xbdc12d78	-0.094325006
99	0xbd849e6a	-0.064755276
100	0xbba6f0b2	-0.005094611
101	0xbc92ac64	-0.017904468
102	0x3ad50ccd	0.0016254425
103	0x3de5fbc2	0.112296596
104	0x3bcab740	0.006186396
105	0xbca56461	-0.020189466
106	0xbb057b25	-0.002036759
107	0xbc4d002a	-0.012512246
108	0xbba27bbd	-0.0049585984
109	0x3bc5f596	0.006041239
110	0x3bad2ab0	0.0052846298
111	0x3b9a5bea	0.004710664
112	0x3b88e958	0.0041782074
113	0xbb922283	-0.0044596805
114	0x3b559d68	0.0032595042
115	0xbc3e437c	-0.011612769
116	0xbdcacdaf	-0.09902512
117	0x3de0916a	0.109652355
118	0xbb70a496	-0.0036719195
119	0x3be53c88	0.0069957413
120	0xbbd136ac	-0.006384691
121	0xbbe4fd59	-0.006988209
122	0x3c21d683	0.009877804
123	0xbc12baa0	-0.008955628
124	0x3a8ad29f	0.0010591334
125	0xbbe14c0f	-0.006875522
126	0xb8caa0cb	-9.6620606e-05
127	0x3bafd67e	0.0053661456
128	0x3be1b1f9	0.006887671
129	0xbb17a5e3	-0.0023139648
130	0x3bf2e1f6	0.0074121905
131	0xbb21c83d	-0.0024686002
132	0xbc4a7468	-0.012356855
133	0xbc808a2f	-0.015690891
134	0xbb910d95	-0.004426668
135	0xbc267195	-0.010158916
136	0xbc29200a	-0.01032258
137	0x3aedcc1c	0.0018142494
138	0xbc30b7ee	-0.01078604
139	0x3bd645bb	0.0065390742
140	0xb9a52975	-0.0003150214
141	0xbbaeab94	-0.0053305123
142	0x3ba6cc3a	0.0050902637
143	0x3c2f1ce9	0.010688045
144	0xbcbac311	-0.022798093
145	0xbc3ade3e	-0.011405526
146	0xbc47fdce	-0.012206508
147	0xba7e0e54	-0.0009691466
148	0xbb81de7d	-0.0039632902
149	0xbc6ec5f9	-0.014573568
150	0x3c426710	0.011865392
151	0x3aa31efe	0.001244515
152	0x3aed7895	0.0018117601
153	0x3c52e4c9	0.012871929
154	0x3a3c4036	0.0007181199
155	0x3b13d2f4	0.0022556158
156	0xbc03d676	-0.008046737
157	0xbd1b08b2	-0.03785009
158	0x3afad5ca	0.00191372
159	0xbc0f006c	-0.008728128
160	0x3bb55467	0.005533743
161	0xbb91712f	-0.0044385414
162	0xbc23471d	-0.009965685
163	0xbbc1d06c	-0.0059147384
164	0xba3cf481	-0.0007208065
165	0x3c8eafba	0.017417777
166	0x3c7cde47	0.015433854
167	0xbc45bb11	-0.012068526
168	0x3c247a76	0.010038963
169	0x3c2703b2	0.010193752
170	0xbc4246f6	-0.011857739
171	0xbbf3dcda	-0.007442099
172	0xbc5839a0	-0.013197333
173	0xbc1efa7c	-0.009703275
174	0x3b88d768	0.004176069
175	0x3b5996bc	0.0033201417
176	0xbc4ae4be	-0.012383638
177	0xbc7471f3	-0.014919746
178	0xbbd9ec10	-0.0066504553
179	0x3c0a9478	0.008458249
180	0x3bb37f57	0.0054778266
181	0x3c2264a6	0.009911692
182	0x3b043533	0.002017331
183	0xbb2712dd	-0.002549342
184	0xbc447098	-0.011989735
185	0x3c4d6ecc	0.012538623
186	0xbb350908	-0.0027623791
187	0x3825dfc1	3.9547453e-05
188	0x3b9516a3	0.0045498176
189	0xbc275677	-0.010213486
190	0x3c0dcda1	0.008654983
191	0x3ad06cf4	0.0015901611
192	0xbccb7a78	-0.024838671
193	0xbc1863ad	-0.009301108
194	0xbb9d5fd0	-0.0048026815
195	0xb9a7b849	-0.00031990025
196	0xbd2d2796	-0.04227408
197	0xbce57f0c	-0.028014682
198	0x3ba51033	0.0050373315
199	0x3d146ce9	0.036236677
200	0xbbf06009	-0.007335667
201	0xbbf72d93	-0.0075432747
202	0x3be84b71	0.0070890714
203	0xbc0e7b4e	-0.00869639
204	0x3bf79436	0.00755551
205	0xbb9a2c51	-0.00470499
206	0x39cecf02	0.00039445615
207	0x3d4dfa83	0.050287735
208	0x3b8c7a12	0.004287013
209	0xbc0aed2e	-0.0084794
210	0xbad5daf1	-0.001631586
211	0x3acef6c0	0.001579009
212	0xbc1bdd06	-0.009513145
213	0x3c06a0c1	0.008217038
214	0xbcba4427	-0.022737576
215	0x3a86858b	0.0010263188
216	0xbd8e42c0	-0.06946325
217	0x3bd22215	0.0064127543
218	0xb9e35169	-0.0004335747
219	0x3bf22e35	0.007390762
220	0x3bbfb07b	0.0058498955
221	0xbd8ab205	-0.06772236
222	0xbb9d65ca	-0.004803394
223	0xbd18cdc4	-0.03730561
224	0xbb68f985	-0.0035549116
225	0x3c0fcbab	0.008776586
226	0xbd707054	-0.058700874
227	0xbd2cb4d6	-0.042164646
228	0xbb877da7	-0.004134852
229	0xbc2136eb	-0.009839754
230	0x3a80008d	0.0009765789
231	0x3d8fcd9b	0.07021638
232	0x3c1327ce	0.008981658
233	0xbc886abc	-0.016652457
234	0xbc105fd7	-0.0088119125
235	0x3b3b80e9	0.0028610772
236	0x39cef3a1	0.000394729
237	0x3a1e6a56	0.0006043067
238	0xbaed77f7	-0.0018117417
239	0xbbee053f	-0.007263809
240	0xbc079601	-0.00827551
241	0x3b62dd01	0.0034616592
242	0x3bada150	0.005298771
243	0x3b392011	0.0028247873
244	0xbd82bedf	-0.06384062
245	0x3d8f0103	0.06982615
246	0xbc117412	-0.008877771
247	0x3ca62ad3	0.020284092
248	0x3c1f2b0a	0.009714851
249	0x3bf34a6f	0.0074246447
250	0x3b8c7530	0.004286431
251	0xbb845384	-0.004038276
252	0x3c0872c3	0.008328143
253	0xbbfaea79	-0.007657346
254	0xbb052303	-0.0020315058
255	0xbc02ad03	-0.0079758195

tgcn_cells.1.graph_conv2.bias f4 [64]
0	0xbd91777a	-0.071028665
1	0x3e23bd43	0.15990166
2	0xbe496aec	-0.19669694
3	0x3a063016	0.00051188597
4	0x3e410d08	0.18852627
5	0xbcb5eec5	-0.02220858
6	0x3c556e3a	0.013026768
7	0xbd9c0f7c	-0.07620141
8	0x3c3312cd	0.010929775
9	0x3acb5915	0.0015514219
10	0x3b339406	0.0027401461
11	0x3b76cc0d	0.0037658245
12	0x3cbdff98	0.023193166
13	0xba67d815	-0.00088441494
14	0xbe16ccb3	-0.14726524
15	0xbdb0f5d8	-0.08640641
16	0xba0ddaa0	-0.0005411301
17	0x3aefed0d	0.00183049
18	0xbb2de1c2	-0.0026532267
19	0xba60a1de	-0.0008569042
20	0x3b4ce7e0	0.0031266138
21	0xbb2b7dcc	-0.002616751
22	0xbd26462c	-0.040594265
23	0xba8abaa3	-0.0010584187
24	0x3b46c9c2	0.003033266
25	0x3e2252d2	0.15851906
26	0xba8deaa1	-0.0010827371
27	0xbb1acf97	-0.0023622268
28	0xbb93e19d	-0.004512979
29	0xbcf326c2	-0.029681567
30	0x3b05ee70	0.002043631
31	0xbe1cfc4d	-0.1533062
32	0xbcbe3409	-0.023218172
33	0x3b277cd1	0.0025556574
34	0xbc071d96	-0.0082468
35	0x3db28021	0.08715845
36	0xbb981f05	-0.0046423697
37	0xbe4569bf	-0.1927862
38	0xbaf54e7f	-0.001871541
39	0xbd329e15	-0.04360779
40	0x3b9bcd60	0.004754707
41	0xbda1a7da	-0.07893343
42	0x3b26834f	0.0025407856
43	0x3b33d4a4	0.0027439976
44	0xbb084aa6	-0.0020796447
45	0xbab6b21d	-0.001393858
46	0xb9e76a29	-0.0004413885
47	0x3c63e8bb	0.013910468
48	0x3c3e8674	0.011628736
49	0xbac47353	-0.0014987983
50	0xb70d867b	-8.435566e-06
51	0x3812a773	3.496506e-05
52	0xbc2666f6	-0.010156384
53	0x3a3bb7f9	0.0007160898
54	0x3a657cdf	0.0008754264
55	0xbc1081c6	-0.008820003
56	0x3c9823e8	0.018571809
57	0x3c0ec82e	0.008714719
58	0xba656508	-0.00087507116
59	0xbafea776	-0.0019428569
60	0x39fda80e	0.0004838113
61	0xbe3b93ae	-0.18318054
62	0x3bbf0fe7	0.005830753
63	0x3c2f7f92	0.0107115675
