result/tgcn/model.pth (torch, 208677 bytes, 20 tensors)

lin_in.weight f4 [64, 6]
0.24848321 -0.00528011 0.0037744693 0.06216563 0.23371767 0.011755633 -1.2662202 -0.0017941751
0.022178754 -0.5815581 -0.014773874 -0.008115727 0.014050557 -0.009326576 0.04458862 -0.5766388
-0.024970146 -0.09720487 -0.08621658 -0.02651415 0.022306226 0.008211332 -0.0026200316 0.026248584
-0.4503565 -0.07772814 -0.0072771776 -0.012037581 -0.0659142 0.0018343169 -0.0033253261 -0.0006400858
0.00092815224 0.00062726345 -3.4526e-05 0.00014952912 0.27218613 -0.4763556 0.010261167 -0.011258784
0.17543685 -0.0054243226 -0.05698863 -0.05032992 0.06875251 0.074419945 -0.029250408 -0.009884877
-0.016570227 -0.037087765 0.06901151 0.009831358 0.0062201624 -0.00085726485 -0.0072740857 -0.008232078
0.0009292658 0.004181244 0.002587116 0.0014469944 -0.6626586 0.056711625 0.031107442 0.696848
0.0058595617 0.0965052 -0.029538382 -0.012577588 0.018280247 0.006891837 0.009369309 -0.006923869
-0.0028407283 -0.03310632 0.016628126 0.0011786153 0.0064767846 -0.00058856036 -0.27531344 -0.5691087
-0.014541435 -0.29055372 0.027441261 -0.0030384548 -0.63340884 -0.711045 -0.049896576 0.36460447
-0.011405132 -0.04327364 -0.015195008 -0.002145337 0.0029748448 0.0027704702 0.0019081031 0.002698838
-0.37854758 -0.06546586 0.17941624 -0.40256128 0.0401752 -0.0066367965 -3.2631274e-07 -1.2655662e-06
7.006603e-05 9.723196e-07 -3.591338e-06 5.809353e-06 -0.0021607983 -0.0014073735 0.0015537416 0.0003364029
0.0023038161 0.00081906235 -0.0013105784 -0.010526055 -0.000305575 0.00086323154 0.0015009141 0.0010782983
-0.22304848 0.18864936 -0.06085871 -0.30765438 0.015123317 -0.0041689267 -0.09842705 -0.14232577
0.030967599 0.16373003 -0.122211166 0.029227203 -0.008311843 -0.00021863867 0.0065581026 0.0023501846
-0.0014652772 -0.0035365124 -0.071878105 -0.03694203 0.010417013 0.016845997 0.034025792 -0.15734975
-0.011735603 -0.0020010807 0.005483376 0.0002774701 0.00029657796 0.0002430916 0.28864926 -0.6483085
0.002321852 0.017263815 0.0046316134 -0.006147392 -0.11996621 -0.3104343 -0.004260731 0.66014785
-0.015477769 0.057036377 -0.009090495 -0.018783262 -0.001176374 0.0040709497 0.0035502545 0.0017830619
-0.640172 0.21000513 -0.0037259574 -0.20631832 0.26333734 -0.005399455 -0.014383049 -0.024476672
0.0036746229 0.0008060266 0.009693953 -0.0026033064 -9.013129e-05 -6.152729e-06 1.6396645e-05 9.640546e-06
3.068841e-06 -6.288447e-08 -0.010453156 -0.040664162 0.049480826 0.029261986 0.030334119 -0.039419193
-0.9392745 -0.0028158582 -0.07188914 0.018070096 -0.010936911 -0.016647844 0.08294316 -0.02030884
0.05679873 -0.07619037 -0.06712925 -0.13743615 0.0365944 -0.48130217 0.038207646 0.17868273
0.0023458651 -0.01612993 -0.0053207274 -0.069136314 0.0017910085 -0.0026513382 0.05667232 0.000562645
-0.0009560969 -6.1381697e-06 0.0030297318 0.00019962103 1.7092823e-05 4.2120433e-07 -0.14648588 0.007314886
0.012577116 0.3599761 0.017255614 0.038970444 0.00080066535 -0.12845907 0.012774192 0.110907055
0.034991935 -0.011032559 -1.4196521 0.011339544 -0.018992586 -0.0073556816 -0.007819663 -9.23163e-05
-0.027209442 -0.09403314 0.0242471 0.012675779 -0.0030361584 -0.028072128 -0.0009895909 -1.6113698e-05
0.00016963697 0.0003448646 -4.6024325e-06 -9.923083e-05 -5.6505232e-05 -0.00019419871 0.00086870947 2.1778278e-05
00000000: 6272 7e3e c604 adbb 165d 773b 63a1 7e3d
00000010: af53 6f3e b39a 403c 8113 a2bf 872a ebba
00000020: 38b0 b53c fee0 14bf 1e0e 72bc d4f7 04bc
00000030: 4f34 663c 7fce 18bc 8fa2 363d 9a9e 13bf
00000040: 318e ccbc 5913 c7bd 5192 b0bd 3434 d9bc
00000050: 8cbb b63c d388 063c d6b4 2bbb 4507 d73c
00000060: 2195 e6be ee2f 9fbd 6475 eebb 4639 45bc
00000070: 06fe 86bd 766d f03a b7ed 59bb 6ecb 27ba
00000080: 3e4f 733a f06e 243a 03d0 10b8 ebca 1c39
00000090: fb5b 8b3e e2e4 f3be 741e 283c c376 38bc
000000a0: b8a5 333e 84be b1bb e96c 69bd bf26 4ebd
000000b0: 1ece 8c3d 7c69 983d 8d9e efbc 2ef4 21bc
000000c0: 49be 87bc 57e9 17bd e855 8d3d b413 213c
000000d0: 81d2 cb3b 12ba 60ba 745b eebb d6df 06bc
000000e0: f999 733a d102 893b 9b8c 293b 13a9 bd3a
000000f0: fea3 29bf 734a 683d 09d5 fe3c a164 323f
00000100: 9101 c03b 85a4 c53d 7afa f1bc 3a12 4ebc
00000110: 75c0 953c ebd4 e13b bb81 193c 9fe1 e2bb
00000120: 832b 3abb 7e9a 07bd b537 883c c47b 9a3a
00000130: 353b d43b 9e49 1aba e2f5 8cbe 1cb1 11bf
00000140: 333f 6ebc 75c3 94be 7fcc e03c d020 47bb
00000150: 1527 22bf 0c07 36bf 5a60 4cbd 70ad ba3e
00000160: 97dc 3abc b33f 31bd 7cf4 78bc c898 0cbb
00000170: 9df5 423b c790 353b 5119 fa3a fdde 303b
00000180: fdd0 c1be f712 86bd e4b8 373e 831c cebe
00000190: c08e 243d 7c79 d9bb 1530 afb4 86dc a9b5
000001a0: 6af0 9238 a680 8235 b802 71b6 f6ed c236
000001b0: 2e9c 0dbb 9e77 b8ba eba6 cb3a 3c5f b039
000001c0: 9ffb 163b 58b6 563a b7c7 abba 7975 2cbc
000001d0: 9535 a0b9 7d4a 623a 52ba c43a b055 8d3a
000001e0: d266 64be 4c2d 413e fc46 79bd e084 9dbe
000001f0: cac7 773c 7e9b 88bb 1f94 c9bd d9bd 11be
00000200: c3af fd3c d8a8 273e d949 fabd e36d ef3c
00000210: 652e 08bc 5f42 65b9 5ae5 d63b 8e05 1a3b
00000220: 8b0e c0ba d5c4 67bb d434 93bd 8750 17bd
00000230: 1fac 2a3c 9e00 8a3c a15e 0b3d 4b20 21be
00000240: b046 40bc 9024 03bb e4ad b33b 6879 9139
00000250: 057e 9b39 68e6 7e39 d6c9 933e 8cf7 25bf
00000260: 362a 183b d86c 8d3c cac4 973b 1070 c9bb
00000270: d8b0 f5bd 3ff1 9ebe 9a9d 8bbb 73ff 283f
00000280: 7896 7dbc fa9e 693d 4df0 14bc 5bdf 99bc
00000290: 9030 9aba 9a65 853b 63ab 683b a1b5 e93a
000002a0: 50e2 23bf 960b 573e 312f 74bb 1c45 53be
000002b0: 27d4 863e e9ed b0bb e1a6 6bbc 4d83 c8bc
000002c0: f1d1 703b 884b 533a 63d3 1e3c 3c9c 2abb
000002d0: de04 bdb8 8a73 ceb6 878b 8937 d4bd 2137
000002e0: 49f2 4d36 1a0b 87b3 b743 2bbc 778f 26bd
000002f0: 68ac 4a3d d5b6 ef3c 427f f83c 0576 21bd
00000300: 4b74 70bf 438a 38bb 9d3a 93bd bd07 943c
00000310: bb30 33bc 0f61 88bc 1ade a93d b95e a6bc
00000320: c9a5 683d b209 9cbd 0f7b 89bd 10bc 0cbe
00000330: 02e4 153d 3d6d f6be 9f7f 1c3d 9bf8 363e
00000340: 16bd 193b ea22 84bc 7f59 aebb 5797 8dbd
00000350: 46c0 ea3a 13c2 2dbb 3c21 683d 777e 133a
00000360: 94a2 7aba 7af6 cdb6 778e 463b 5d51 5139
00000370: 8f62 8f37 e221 e234 6500 16be b6b1 ef3b
00000380: 3f10 4e3c ca4e b83e a55b 8d3c 799f 1f3d
00000390: bee3 513a c68a 03be d84a 513c 3d23 e33d
000003a0: b453 0f3d e8c1 34bc 29b7 b5bf 7fc9 393c
000003b0: 5796 9bbc ee07 f1bb 0b1e 00bc f099 c1b8
000003c0: 56e6 debc 7294 c0bd dba1 c63c 12ae 4f3c
000003d0: 49fa 46bb 85f7 e5bc 29b5 81ba e72b 87b7
000003e0: 94e0 3139 f1ce b439 986e 9ab6 251a d0b8
000003f0: 0800 6db8 d2a1 4bb9 1bba 633a 7fb0 b637

lin_in.bias f4 [64]
-0.48360237 -0.61303926 -0.14417244 -0.1275839 0.5456327 -0.0059549445 -0.22824368 -0.23246758
-0.14069219 -0.010408442 -0.36240456 -0.04811119 -0.035077438 -0.14724566 -0.20337372 -0.0152125675
-0.5565443 -0.00014137362 -0.013940069 -0.012562155 -0.4738036 -0.19481662 -0.026347801 -0.20974468
-0.018797947 -0.013530075 -0.80355996 -0.010144288 -0.23452637 -0.02298161 -7.883365e-05 -0.20191321
-0.16334036 0.102188 -0.74534327 -0.029572953 -0.007035958 -0.39339545 -0.05254561 -0.44167316
-0.12941095 -0.0010528048 -0.0018127117 -0.07656444 -0.30874348 -0.01228352 -0.0046271877 -0.5425901
-0.001191441 -0.6771205 -0.0011775001 -0.035575766 0.17236304 -0.11046011 0.31392977 -0.18647134
-0.5492771 -0.0004684786 0.24717905 -0.06648096 -0.0016716274 -0.08896536 -0.08657019 -0.029504523
00000000: bb9a f7be 24f0 1cbf f1a1 13be 5ba5 02be
00000010: 96ae 0b3f b221 c3bb b6b8 69be fb0b 6ebe
00000020: 9d11 10be 2b88 2abc 178d b9be 3d10 45bd
00000030: 5cad 0fbd 91c7 16be 3341 50be 223e 79bc
00000040: b079 0ebf b13d 14b9 e364 64bc 7fd1 4dbc
00000050: 6396 f2be 027e 47be 58d7 d7bc 4fc7 56be
00000060: 27fe 99bc 3fad 5dbc 1bb6 4dbf 3a34 26bc
00000070: ae27 70be ee43 bcbc 7e53 a5b8 56c2 4ebe
00000080: b242 27be f147 d13d d1ce 3ebf fa42 f2bc
00000090: e58d e6bb 216b c9be 113a 57bd fc22 e2be
000000a0: 4e84 04be 44fe 89ba 8398 edba d1cd 9cbd
000000b0: a013 9ebe d140 49bc aa9f 97bb 2fe7 0abf
000000c0: 202a 9cba c557 2dbf 5956 9aba e5b7 11bd
000000d0: f07f 303e e938 e2bd 67bb a03e 58f2 3ebe
000000e0: 6d9d 0cbf 229e f5b9 811c 7d3e 2b27 88bd
000000f0: 821a dbba 7833 b6bd b64b b1bd 78b3 f1bc

tgcn_cells.0.graph_conv1.bias f4 [64]
-0.01831667 0.02542676 -0.0053968956 -0.024115877 -0.020159742 0.017560367 -0.008425837 -0.015858823
0.027638506 -0.033871748 -0.011860843 -0.02653117 -0.010288223 0.00023973502 -0.050385036 -0.006351795
0.044788215 -0.010177665 -0.004797881 -0.029475817 0.048536133 -0.015034937 -0.004912479 -0.026144806
0.0031424442 -0.011657832 -0.017615655 -0.0054833577 -0.015634252 -0.020466616 -0.030120175 0.010999116
0.04105563 0.01407195 -0.02321885 -0.0136728315 0.22441283 0.011305626 -0.015208466 -0.020807188
0.00196849 -0.005385266 0.027025944 0.008706824 0.0016266953 0.040546756 -0.010077923 -0.012622967
0.055532347 -0.008290403 0.08396819 0.09810618 -0.0061259037 -0.009839126 -0.024783686 -0.005328761
-0.011504327 -0.017518431 -0.0070277224 -0.013238789 -0.008143568 -0.0034589274 0.3803623 -0.030157233
00000000: d70c 96bc c84b d03c 71d8 b0bb a98e c5bc
00000010: 0b26 a5bc c2da 8f3c 860c 0abc 5dea 81bc
00000020: 266a e23c 1abd 0abd fb53 42bc e557 d9bc
00000030: ef8f 28bc 6161 7b39 8a60 4ebd b822 d0bb
00000040: d973 373d 39c0 26bc 8b37 9dbb 4577 f1bc
00000050: d3cd 463d 1955 76bc dcf8 a0bb a22d d6bc
00000060: 77f1 4d3b 7e00 3fbc b54e 90bc bdad b3bb
00000070: 6713 80bc 9ba9 a7bc 96be f6bc a335 343c
00000080: f329 283d 098e 663c 7535 bebc 0304 60bc
00000090: 7acc 653e 3b3b 393c ee2c 79bc d673 aabc
000000a0: c801 013b e376 b0bb 8365 dd3c 11a7 0e3c
000000b0: d636 d53a 5b14 263d df1d 25bc 90d0 4ebc
000000c0: e375 633d 78d4 07bc 84f7 ab3d e5eb c83d
000000d0: cebb c8bb 4934 21bc 2807 cbbc e39c aebb
000000e0: a57c 3cbc d082 8fbc cf48 e6bb 81e7 58bc
000000f0: 9a6c 05bc 2caf 62bb d9be c23e 4d0c f7bc

tgcn_cells.0.graph_conv1.lin.weight f4 [64, 128]
0.000924035 0.005012741 0.0030248621 2.586057e-06 -0.0073658316 8.743876e-32 0.00059165136 0.0011269937
0.00012504689 3.0738088e-06 -0.0013824542 0.00013689007 0.00016040723 0.0049448214 -0.006303562 -2.879346e-08
0.00420488 -2.1866388e-08 1.9983418e-06 4.7908446e-07 0.003928221 0.0010311791 -8.5750216e-08 -0.0025023597
6.0989755e-13 -0.0005743123 0.004239281 -4.203273e-06 0.0034314601 9.1659575e-07 -7.402563e-10 -0.00021322916
-0.0044804835 -0.005049795 0.0030864165 1.4730932e-05 1.1545e-41 0.00025929054 0.00057290535 -0.005477367
6.083656e-08 -5.739891e-08 -9.164065e-07 -7.235438e-07 0.0054806117 -2.8446752e-07 1.7631712e-05 -0.0008329484
-5.9086863e-10 0.001765178 -1.7507591e-07 2.9863745e-06 -0.0007275775 -0.00013693096 -0.002199649 0.0010195643
0.0021993127 -1.9122666e-09 -0.0036406666 -0.005286887 1.586646e-17 0.0003723252 -0.0011565764 9.5944846e-29
-0.0017571796 -0.0047260495 0.0011217541 -0.006964105 -0.0004935087 -0.0024167937 0.0046029864 0.0022853757
0.0009126119 -0.002413093 -0.0074910335 0.001778069 -0.00081339024 -0.0029954163 0.0005545342 -0.0009302935
-0.0038733277 -0.001868867 0.0021888826 -0.0018718815 -0.0013639566 -0.0035823807 0.0006724614 0.0042102826
-0.00021586957 -0.0012779582 -0.0012222112 0.0026679016 0.0043548574 -0.0045102416 5.0864495e-05 0.004059775
0.001829712 -0.005653116 -0.0029658526 0.00015583474 -0.00026119984 -0.0005865764 -0.006953558 -0.0025474315
0.007101405 -0.003519313 -0.00056919997 0.00397507 0.0005766293 0.004133907 0.007544558 0.0066586975
-0.004033758 -0.0012315469 -0.0036826464 -0.0017324473 0.001494839 0.0020605652 -0.0058955657 0.00088342675
0.0072898963 -0.0011172498 -0.0022039856 0.003843526 -0.0037583509 0.0012952528 0.00022362941 0.0018124245
0.011762897 0.0025846865 0.004381283 -1.0917434e-05 0.03373648 1.147059e-30 -0.0018483328 0.00083216187
9.65005e-05 -5.6919265e-07 0.005895429 7.181497e-05 2.6630778e-05 0.0024996968 0.009288765 -7.448241e-07
-0.0025189572 -1.3229167e-08 -2.1409235e-07 -2.2643063e-07 -0.0005477334 0.0016657888 -1.0310961e-06 -0.0043084146
6.2811046e-15 -0.0008925664 0.0054047154 -4.586101e-05 0.0023529253 -9.545467e-07 4.0777587e-10 0.00030045083
0.004834114 0.006356034 -0.0018194483 -1.4258136e-05 -1.1244e-41 0.00027952893 -0.0013141305 7.296522e-05
-1.0992743e-07 -8.9479066e-08 1.5958462e-06 -1.2283708e-06 0.001572367 1.38027465e-08 3.6016663e-06 0.009187915
9.89188e-10 7.569791e-05 2.313308e-07 7.856205e-06 0.014715717 -0.00022260037 0.01753295 0.00048699148
-0.0022284617 3.9840007e-09 0.021205707 0.0027922206 7.81853e-18 0.00064170104 0.013744845 5.6373895e-28
0.00021473183 0.011420723 0.00376443 0.00380802 -0.0016586458 0.0052687093 0.0013024764 -0.0003596592
-0.0033668366 0.0023647347 -0.0021649762 0.0007100521 -0.0060029197 -0.009315602 0.0030551068 0.00810439
3.5968158e-06 0.0009954292 -0.006347562 0.0015362715 -0.0013014283 0.00090703956 0.00902085 0.00015127535
-0.005451973 -0.00714292 -0.0059837312 0.0059143747 -0.0035532932 -0.0034670213 0.0025970319 -0.004596197
0.0020620571 -0.0008993886 0.0013991053 -0.0020254925 0.0063532125 -0.0010034677 0.004077361 0.00044346895
-0.009434439 -0.0013078824 0.009197705 0.0018485072 0.003766708 -0.008301127 -0.0030097626 -0.0027346094
0.0038169387 -0.004460606 0.0009839393 0.009034837 0.0032435616 0.0035179001 -0.0025116673 0.00391341
0.0010536436 0.0033359525 -0.0022874891 9.190281e-05 0.007097238 0.0022799103 -0.0033425714 0.003992474
00000000: f03a 723a eb41 a43b c43c 463b 1f8c 2d36
00000010: 135d f1bb 0601 e30b 0d19 1b3a a2b7 933a
00000020: 051f 0339 a247 4e36 7733 b5ba 268a 0f39
00000030: fd32 2839 2b08 a23b 1c8e cebb 7d55 f7b2
00000040: 17c9 893b b2d4 bbb2 401b 0636 6f9a 0035
00000050: 4eb8 803b a128 873a ae25 b8b3 a1fe 23bb
00000060: c0ab 2b2b 728d 16ba abe9 8a3b d709 8db6
00000070: 59e2 603b fb0b 7635 e87a 4bb0 4496 5fb9
00000080: 05d1 92bb c078 a5bb 7a45 4a3b df24 7737
00000090: 2f20 0000 63f1 8739 072f 163a 7c7b b3bb
000000a0: 41a5 8233 c586 76b3 fafe 75b5 8d39 42b5
000000b0: b496 b33b ebb8 98b4 d0e7 9337 395a 5aba
000000c0: af6a 22b0 8c5d e73a 80fc 3bb4 8669 4836
000000d0: e6ba 3eba 2095 0fb9 fd27 10bb e7a2 853a
000000e0: 5822 103b f368 03b1 4098 6ebb 9f3d adbb
000000f0: 9f57 9223 a434 c339 4498 97ba c43f f310
00000100: 2a51 e6ba fadc 9abb d207 933a 2633 e4bb
00000110: cf5e 01ba 1263 1ebb a6d4 963b 3ec6 153b
00000120: 593c 6f3a fc24 1ebb 5877 f5bb 180e e93a
00000130: b239 55ba bf4e 44bb 295e 113a f1de 73ba
00000140: a8d7 7dbb c5f4 f4ba 5b73 0f3b ec59 f5ba
00000150: cac6 b2ba 60c6 6abb 1f48 303a 69f6 893b
00000160: 0c5b 62b9 2981 a7ba 9a32 a0ba f6d7 2e3b
00000170: 31b3 8e3b a6ca 93bb 5657 5538 dc07 853b
00000180: f2d2 ef3a c63d b9bb c05e 42bb 9267 2339
00000190: a6f1 88b9 7ac4 19ba acda e3bb cff2 26bb
000001a0: e7b2 e83b 46a4 66bb 5d36 15ba 4e41 823b
000001b0: f028 173a ba75 873b 5738 f73b 3431 da3b
000001c0: 9d2d 84bb db6b a1ba 8e58 71bb 4913 e3ba
000001d0: 79ee c33a 8c0a 073b 972f c1bb c495 673a
000001e0: 15e0 ee3b af70 92ba be70 10bb aae3 7b3b
000001f0: aa4e 76bb 79c5 a93a 107e 6a39 e08e ed3a
00000200: 2ab9 403c d863 293b de90 8f3b 062a 37b7
00000210: 432f 0a3d f71e ba0d c243 f2ba 7025 5a3a
00000220: 5060 ca38 9fca 18b5 712e c13b 5e9b 9638
00000230: 2965 df37 f4d1 233b e72f 183c ecef 47b5
00000240: 1715 25bb 7e46 63b2 42e1 65b4 c720 73b4
00000250: c495 0fba 9956 da3a 3164 8ab5 9a2d 8dbb
00000260: f74c e227 1efb 69ba 0a1a b13b e25a 40b8
00000270: 8933 1a3b fa1d 80b5 5a2d e02f d485 9d39
00000280: 7d67 9e3b 4746 d03b 8e7a eeba 3a36 6fb7
00000290: 581f 0080 bd8d 9239 e73e acba e704 9938
000002a0: 3e11 ecb3 a327 c0b3 dc30 d635 80de a4b5
000002b0: e217 ce3a 1f21 6d32 28b4 7136 e988 163c
000002c0: f5f3 8730 02c0 9e38 ba63 7834 25ce 0337
000002d0: 311a 713c d569 69b9 43a1 8f3c e452 ff39
000002e0: 620b 12bb a4e3 8831 97b7 ad3c b0fd 363b
000002f0: f739 1023 d437 283a 0f32 613c f0a7 3212
00000300: a329 6139 fc1d 3b3c a8b4 763b f98f 793b
00000310: eb66 d9ba 23a5 ac3b dbb7 aa3a a490 bcb9
00000320: 25a6 5cbb aaf9 1a3b 46e2 0dbb ca22 3a3a
00000330: 24b4 c4bb 77a0 18bc 3038 483b 47c8 043c
00000340: d360 7136 1079 823a 36ff cfbb b85c c93a
00000350: b094 aaba 65c6 6d3a 30cc 133c ab9f 1e39
00000360: 77a6 b2bb 280f eabb 2d13 c4bb 5fcd c13b
00000370: 5ede 68bb f736 63bb f732 2a3b b29b 96bb
00000380: 9423 073b f2c4 6bba 2f62 b73a 20be 04bb
00000390: 9c2e d03b ca86 83ba 629b 853b 6581 e839
000003a0: e892 1abc 406d abba f9b1 163c 9c49 f23a
000003b0: e0da 763b 7301 08bc 703f 45bb 2237 33bb
000003c0: 9b25 7a3b 462a 92bb 86f7 803a da06 143c
000003d0: ef91 543b 928c 663b c99a 24bb 103c 803b
000003e0: 6a1a 8a3a ff9f 5a3b b3e9 15bb f2bb c038
000003f0: f38f e83b 8c6a 153b 0b0f 5bbb 4dd3 823b

tgcn_cells.0.graph_conv2.bias f4 [64]
0.007668775 -0.11165439 -0.018244242 -0.025612686 0.02173864 -0.14328709 -0.049112875 -0.016717955
-0.1177792 0.020125479 0.12637809 0.01204728 0.022184733 0.011230407 0.039058328 0.010447586
-0.24049516 0.020334566 0.06160837 0.05704551 0.2089922 0.0016721799 -0.024053931 0.007858018
0.0026006293 -0.024558034 0.061556444 -0.08020319 0.0011271697 0.0019083521 -0.006228408 -0.16652653
0.029781792 0.13025364 -0.013447545 0.015737751 0.38471258 0.17302315 -0.039974943 0.05337914
-0.017917443 0.0154048195 -0.13718039 0.0076782713 0.010511757 -0.29548308 -0.06375078 0.18024406
-0.15833384 -0.08221166 -0.10285743 -0.2363782 0.00043281447 0.0064601838 -0.019591607 0.0027541067
-0.04656032 0.03974387 -0.0016029614 0.027573902 -0.100731865 -0.049124785 0.28607887 0.044202942
00000000: 594a fb3b 0fab e4bd f374 95bc b2d1 d1bc
00000010: 3b15 b23c dab9 12be 952a 49bd 18f4 88bc
00000020: 3936 f1bd 30de a43c 4269 013e f461 453c
00000030: c2bc b53c beff 373c a0fb 1f3d 5a2c 2b3c
00000040: 5d44 76be ad94 a63c 0f59 7c3d 8da8 693d
00000050: 0d02 563e 0c2d db3a c00c c5bc ebbe 003c
00000060: 526f 2a3b ee2d c9bc 9c22 7c3d 9241 a4bd
00000070: 8abd 933a ac21 fa3a ac17 ccbb ee85 2abe
00000080: f2f8 f33c 3661 053e 1753 5cbc 75ec 803c
00000090: 0cf9 c43e fb2c 313e c4bc 23bd 16a4 5a3d
000000a0: 9ac7 92bc 7f64 7c3c 0479 0cbe 029a fb3b
000000b0: 8139 2c3c 8f49 97be c58f 82bd e691 383e
000000c0: 4422 22be 965e a8bd eba6 d2bd 200d 72be
000000d0: 60eb e239 f3af d33b 947e a0bc 3e7e 343b
000000e0: 09b6 3ebd 78ca 223d 761a d2ba aae2 e13c
000000f0: 824c cebd 1237 49bd ee78 923e 250e 353d

tgcn_cells.0.graph_conv2.lin.weight f4 [64, 128]
0.008886194 0.04182212 0.0627019 -2.016352e-05 0.0044510323 -1.594751e-29 0.018499881 0.0059100753
-0.00012962267 2.4123224e-07 0.013090639 -2.093225e-05 1.9438642e-06 -0.00038496713 -0.008772024 1.5360896e-06
0.02419418 2.6060018e-08 1.7632123e-05 -2.807821e-08 0.050606783 0.007815201 -4.711451e-08 -0.004739738
-1.9720165e-12 0.026392698 0.008721599 -3.919829e-06 0.041015 -1.5569992e-06 8.663319e-12 0.0003674323
0.002666252 0.027323734 0.016502075 -0.00020718566 1.0342e-41 0.0062271953 0.0026021881 0.004045102
-4.5234393e-07 -7.934728e-07 -2.0684071e-07 -6.978766e-06 0.0020940271 4.7754605e-07 8.306891e-08 0.023886848
-1.6542653e-10 -0.0031417292 -5.6126485e-08 -5.164033e-06 -0.003974397 -0.000101748774 0.030386638 -0.0041314154
0.011761455 -4.170903e-08 0.014025917 -0.009527312 -1.4653462e-16 -0.00028241097 0.019796493 -6.3136856e-27
-0.005493953 -0.009718367 8.297934e-05 -0.006670971 -0.004405304 0.0009030315 -0.0014325939 0.0076818345
-0.0027797488 0.0014955796 -0.001481415 0.00497765 0.0022678177 0.0044691325 0.0018243623 0.0016930436
-0.0049441764 -0.002916876 -0.0013190251 0.002301633 0.0066233245 -0.0042502186 -0.00066926575 0.009148287
-0.004690664 -0.0040349495 -0.0057179104 0.00075257546 0.004377273 -0.0051035956 -0.0039826566 -0.0032560034
0.0039645135 0.002096929 0.00017092006 -0.0051293615 -0.0034725247 -0.0005067902 -0.005967127 0.004857941
0.006858435 -0.00589371 -0.008030943 -0.0016556905 0.0024025831 0.0036393849 0.0071783774 0.006786278
9.542195e-05 0.0044121854 0.0014747158 0.0056451177 0.0011561004 0.0030934068 -0.008607803 0.0005820612
0.010281276 0.00011193081 -0.003974357 -0.0005170854 0.0021173686 0.004931817 0.00529924 -0.0011427462
0.07784222 -0.0614726 -0.07812194 -9.328298e-05 -0.04255342 -1.063689e-30 0.015078263 0.0034403524
-1.50399e-05 1.5052458e-06 0.027058031 -9.871034e-06 -5.5420696e-06 -0.03890793 -0.0060066297 2.4085707e-06
-0.06666331 1.6544655e-08 5.001229e-06 -1.5729695e-07 -0.062038906 0.00089130556 1.1069662e-06 0.019173145
2.8281872e-13 0.0015580585 0.06446403 5.412163e-06 -0.050459757 -1.3789908e-07 -9.348225e-13 -1.9265088e-05
0.0061678104 -0.04133562 0.022425259 0.00020018901 1.0563e-41 0.047503654 0.014364969 0.0069153067
-1.2753071e-06 -1.3642727e-07 1.7530663e-06 -3.1506227e-06 -0.022427497 -6.053366e-07 -4.860192e-08 -0.01382253
7.84488e-09 -0.032761555 4.6319368e-08 -1.1788724e-06 -0.019527808 -0.00039870726 0.006577561 -0.0004751018
0.02282147 -8.435773e-09 -0.033326726 -0.018419102 -4.821927e-17 -0.0023826414 -0.0109939985 -1.8372877e-27
-0.00085882813 -0.0026681756 -0.0045329756 -0.00066206517 -0.001483793 -0.012395551 -0.0038692213 -0.0053141955
0.010359818 0.015255937 0.0052317767 -0.0005467002 0.010394324 0.017181005 0.016161753 -0.0074992143
0.007818724 0.00061742973 0.00742473 0.0045783343 0.021644156 -0.0013247704 -0.018089678 -0.0039752265
0.00053349603 0.008960795 0.009170935 -0.02070099 0.0077591753 0.0028780557 -0.01659359 0.0071095075
-0.0102071585 0.004103535 -0.0047503654 0.0025051085 -0.003044884 -0.009322685 -0.0075415247 0.016801296
0.0052753356 0.0025671206 -0.0059500583 -0.0037384725 -0.0068989913 0.012035012 0.012294453 -0.0019097932
-0.003974407 0.006420393 -0.0020538364 -0.005588826 0.0006121865 -0.008188404 9.773135e-05 -0.0161729
5.473274e-05 -0.008123033 -0.0063271886 -0.0059821233 -0.011142618 -0.00014559098 -0.010300586 -0.01637457
00000000: 6697 113c ac4d 2b3d db69 803d d424 a9b7
00000010: f7d9 913b 1aba a18f 108d 973c 4ea9 c13b
00000020: 52eb 07b9 b582 8134 1f7a 563c aa97 afb7
00000030: 5573 0236 6ad5 c9b9 89b8 0fbc a32b ce35
00000040: df32 c63c 96da df32 b2e8 9337 a330 f1b2
00000050: 0f49 4f3d 540b 003c f45a 4ab3 ce4f 9bbb
00000060: b1c4 0aac 8035 d83c 0ae5 0e3c 1387 83b6
00000070: 58ff 273d 16fa d0b5 1f68 182d eea3 c039
00000080: 49bc 2e3b 06d6 df3c 5c2f 873c fa3f 59b9
00000090: d41c 0000 800d cc3b 7989 2a3b c68c 843b
000000a0: add9 f2b4 09ff 54b5 f117 5eb4 252b eab6
000000b0: f23b 093b b730 0035 9e63 b233 5aae c33c
000000c0: 6ee3 35af 78e5 4dbb b90f 71b3 b546 adb6
000000d0: a93b 82bb f561 d5b8 66ed f83c d360 87bb
000000e0: 1eb3 403c 9023 33b3 f6cc 653c 7118 1cbc
000000f0: 63f1 28a5 8f10 94b9 412c a23c 611c fa93
00000100: 9e06 b4bb c939 1fbc 3205 ae38 2998 dabb
00000110: 5e5a 90bb 6bb9 6c3a e0c5 bbba e6b7 fb3b
00000120: 722c 36bb 5307 c43a 0a2c c2ba 8e1b a33b
00000130: ab9f 143b cd71 923b 711f ef3a 1ee9 dd3a
00000140: c202 a2bb 0f29 3fbb 23e3 acba fed6 163b
00000150: 7908 d93b 6b45 8bbb aa71 2fba b2e2 153c
00000160: 24b4 99bb 9c37 84bb 4f5d bbbb 7c48 453a
00000170: 3a6f 8f3b 103c a7bb f280 82bb ac62 55bb
00000180: c0e8 813b a16c 093b 0139 3339 3414 a8bb
00000190: 4c93 63bb 1dda 04ba e487 c3bb 5d2f 9f3b
000001a0: b9bc e03b 0620 c1bb 3794 03bc c103 d9ba
000001b0: a874 1d3b bf82 6e3b 9838 eb3b 6d5f de3b
000001c0: 451d c838 1894 903b 404b c13a aefa b83b
000001d0: 4b88 973a c1ba 4a3b be07 0dbc 7795 183a
000001e0: cc72 283c 65bc ea38 533b 82bb 048d 07ba
000001f0: 8dc3 0a3b 149b a13b 3fa5 ad3b 33c8 95ba
00000200: be6b 9f3d b1ca 7bbd 65fe 9fbd eba0 c3b8
00000210: 7f4c 2ebd ea97 ac8d d20a 773c 8977 613b
00000220: e153 7cb7 da07 ca35 cea8 dd3c c59b 25b7
00000230: 04f6 b9b6 ec5d 1fbd 43d3 c4bb eea2 2136
00000240: c686 88bd 151e 8e32 3bd0 a736 75e5 28b4
00000250: 821c 7ebd 81a6 693a 1293 9435 0011 9d3c
00000260: 7936 9f2a c537 cc3a b805 843d 209a b536
00000270: e4ae 4ebd 6911 14b4 8890 83ab 769b a1b7
00000280: 581b ca3b 8a4f 29bd 2db5 b73c d4e9 5139
00000290: 721d 0000 3193 423d 0c5b 6b3c cc99 e23b
000002a0: 382b abb5 d87c 12b4 e64a eb35 496f 53b6
000002b0: dfb9 b7bc 6a7e 22b5 60be 50b3 e577 62bc
000002c0: 26c6 0632 fb30 06bd aff0 4633 bf39 9eb5
000002d0: c8f8 9fbc 9509 d1b9 9588 d73b 1617 f9b9
000002e0: 17f4 ba3c ecec 10b2 9b81 08bd a8e3 96bc
000002f0: 445f 5ea4 1726 1cbb 2c20 34bc 9f90 1193
00000300: fb22 61ba 8fdc 2ebb 5b89 94bb 718e 2dba
00000310: d57b c2ba b616 4bbc c392 7dbb b422 aebb
00000320: 3abc 293c 0af4 793c 536f ab3b 6e50 0fba
00000330: f44c 2a3c 2ebf 8c3c a765 843c f8bb f5bb
00000340: 1b1a 003c 02db 213a 264b f33b da05 963b
00000350: 164f b13c eba3 adba ce30 94bc 9e42 82bb
00000360: 50da 0b3a 4cd0 123c b041 163c 1f95 a9bc
00000370: ae40 fe3b c39d 3c3b 48ef 87bc dff6 e83b
00000380: ed3b 27bc f276 863b f4a8 9bbb bf2c 243b
00000390: ad8c 47bb 2dbe 18bc e51e f7bb dfa2 893c
000003a0: b9dc ac3b 233d 283b b5f8 c2bb 2901 75bb
000003b0: ef10 e2bb 802e 453c ac6e 493c 0752 faba
000003c0: be3b 82bb 2962 d23b a899 06bb 7822 b7bb
000003d0: 247b 203a a828 06bc 1ef5 cc38 087d 84bc
000003e0: d590 6538 7816 05bc 4e54 cfbb b005 c4bb
000003f0: 878f 36bc c8a9 18b9 cac3 28bc f623 86bc

tgcn_cells.0.graph_conv3.bias f4 [64]
-0.007845541 0.034310862 0.035051532 0.031145044 -0.030460106 0.061739005 0.007871105 0.010892154
-0.008173296 0.02240471 -0.038748436 -0.012256788 0.02608747 -0.010019301 0.024004273 -0.0030058692
0.010525444 0.048954636 0.023734605 0.05194251 0.10557885 0.03755115 0.00038784344 0.047633387
-0.030994482 0.03198603 0.076652326 0.031234695 -0.0027860247 0.028102301 -0.04451099 -0.09700309
0.0109781865 -0.004221696 0.03577766 0.04542216 -0.05673984 -0.022875102 -0.0015814407 0.07187026
-0.05986828 -0.009441108 0.023368036 -0.009526027 0.0014647598 -0.024811538 0.032761388 0.011027334
0.06132438 -0.0633929 0.062089007 0.09435521 -0.0020140852 -0.016235793 0.0145077845 0.004458491
0.07102744 -0.04414245 0.02308341 -0.008237435 0.012625151 0.060635086 -0.06798879 -0.054998945
00000000: 968a 00bc 8c89 0c3d 3292 0f3d e423 ff3c
00000010: 7987 f9bc 0ae2 7c3d cff5 003c 0175 323c
00000020: 4ae9 05bc 158a b73c aeb6 1ebd b2d0 48bc
00000030: 64b5 d53c ff27 24bc 9ca4 c43c 1efe 44bb
00000040: e972 2c3c a884 483d 136f c23c abc1 543d
00000050: b939 d83d 3ccf 193d 7757 cb39 3a1b 433d
00000060: 24e8 fdbc c903 033d e5fb 9c3d e7df ff3c
00000070: bd95 36bb cc36 e63c 2851 36bd 8ea9 c6bd
00000080: dadd 333c 2756 8abb 988b 123d 960c 3a3d
00000090: 0968 68bd 9164 bbbc 5848 cfba b730 933d
000000a0: 7138 75bd e1ae 1abc 536e bf3c 0e13 1cbc
000000b0: 2ffd bf3a 9141 cbbc ce30 063d feab 343c
000000c0: 462f 7b3d 23d4 81bd 0b51 7e3d 4e3d c13d
000000d0: befe 03bb ed00 85bc 0fb2 6d3c 8918 923b
000000e0: d676 913d b7ce 34bd 6b19 bd3c 4ef6 06bc
000000f0: b9d9 4e3c 7f5c 783d b53d 8bbd 9346 61bd

tgcn_cells.0.graph_conv3.lin.weight f4 [64, 128]
0.010442511 0.096645765 0.045126624 0.00067198166 0.15654622 -3.234968e-11 -0.0445821 0.02346424
0.007306892 4.5633965e-06 -0.053645648 -0.00043663898 -0.0005923773 -0.0114473095 -0.059160292 0.0001601401
-0.05488825 -5.8986636e-08 3.189026e-05 7.366671e-06 0.0073666647 0.014311404 9.3311337e-07 -0.024936676
2.4140106e-12 -0.0573014 -0.051105034 -0.00030740135 0.014138646 -0.00018127038 -3.993764e-09 -0.016044488
0.0113276625 0.054751907 0.12804866 0.00037832238 -6.4568814e-35 -0.034575418 -0.0020026797 0.048231613
-0.0015380511 7.7165964e-07 -9.812547e-06 -3.9598717e-06 -0.047574036 3.4301147e-06 -6.025627e-05 -0.11908109
-5.057019e-08 0.029547954 3.040153e-07 0.0001106347 -0.0743149 0.0017785649 -0.02302775 0.0007045841
0.09830113 -1.3792089e-08 -0.0793589 0.010128382 5.556197e-12 -0.0011628642 0.0760993 1.2174731e-19
-0.043581933 -0.009575084 -0.013327171 -0.010163238 -0.015688702 -0.008550673 0.0013073662 0.010625198
0.013343984 0.009637798 0.0082592 0.0042383424 -0.00687452 0.00068528706 0.011823263 -0.0031838869
-0.014929388 -0.008531085 0.011590196 0.012124304 0.0019114586 -0.007959345 -0.006718676 0.009760991
-0.013256895 -0.0048641437 0.0019770102 0.0037168928 0.0105366185 -0.0025860805 -0.0035606902 0.014148361
0.0017162891 0.01236251 -0.010361076 -0.004464527 -0.010160155 0.009955788 -0.024858871 -0.0056393165
0.018953692 -0.02086555 -0.017049635 0.0016438833 0.008719805 0.023008773 0.031660285 0.006669911
0.0024884227 -0.0032409779 0.017050335 -0.012655354 0.0050519123 0.0026586305 -0.007299766 -0.0081579145
0.013350102 -0.01509701 -0.006733602 -0.0016473728 -0.010027134 0.01030304 -0.08540296 -0.0040720077
0.24383205 0.011454036 -0.00019488808 0.0009038658 0.21088734 1.2706336e-08 0.026627403 0.056379743
0.007610987 5.873672e-05 0.0053412337 0.0010232085 -0.00028831797 0.063907914 -0.0879539 -0.00010663918
-0.08736354 2.1645876e-08 -1.0367449e-05 -1.1159083e-05 -0.10650385 0.008819512 -4.1127984e-07 -0.011792947
-9.352318e-09 -0.12568428 0.018001817 6.7489666e-05 -0.05064675 9.864468e-05 -1.96358e-09 -0.025288526
0.039909247 -0.027834615 0.14133412 -0.0013481029 1.977474e-32 0.058003712 -0.019753635 0.14597133
-0.007708035 1.3685408e-06 3.0760504e-05 -0.00038400333 -0.025999324 4.4246895e-05 -2.8297822e-05 -0.06776213
7.7912865e-08 0.051404472 -2.3323579e-05 -5.782149e-05 -0.060343575 -0.0064093065 -0.11292702 -0.019510897
0.13325447 4.8348863e-07 -0.23248073 0.0031456272 2.225465e-11 -0.01770838 0.08354214 -7.086744e-21
-0.044687215 -0.14790107 0.009514552 -0.057532255 -0.032879163 0.07777382 0.057158742 0.06166655
-0.03420315 0.0010022202 -0.019384565 0.012690722 0.0009854515 -0.0132444 0.0021552495 -0.0025321997
0.018224439 0.0044758376 -0.019759195 -0.022935912 0.056847367 -0.066237725 -0.027410042 0.07411553
-0.026005287 0.005123436 0.003952743 0.030785372 0.020100195 -0.051255498 0.029733598 -0.044984322
-0.01978089 -0.05761758 -0.02645088 -0.026628265 -0.016288245 -0.024036732 -0.070273705 0.027342608
0.038956013 -0.014533851 0.009399606 -0.023130473 0.007424385 -0.029108435 0.087013364 0.01561807
-1.63733e-05 -0.052483324 -0.012071635 0.063379034 0.029875806 0.008804703 -0.023602907 -0.010626329
0.055476226 -0.024969948 -0.024040649 0.010657372 -0.017842831 0.021283906 -0.17246602 -0.010789242
00000000: 1117 2b3c 37ee c53d b2d6 383d ed27 303a
00000010: a74d 203e 8046 0eae b89b 36bd 1438 c03c
00000020: a76e ef3b 471f 9936 8abb 5bbd b1ec e4b9
00000030: c549 1bba 7f8d 3bbc 1052 72bd 48eb 2739
00000040: 80d2 60bd 7e58 7db3 e8c1 0538 392f f736
00000050: 1064 f13b 617a 6a3c 107b 7a35 0048 ccbc
00000060: f3de 292c dfb4 6abd 8353 51bd b62a a1b9
00000070: c8a5 673c 6613 3eb9 8539 89b1 bb6f 83bc
00000080: a997 393c 8943 603d 301f 033e 9259 c639
00000090: 42a7 ab86 f49e 0dbd 643f 03bb 838e 453d
000000a0: 6e98 c9ba 0c24 4f35 92a0 24b7 0adf 84b6
000000b0: fedc 42bd ec30 6636 adbb 7cb8 c9e0 f3bd
000000c0: 8332 59b3 8d0e f23c 8b37 a334 8d04 e838
000000d0: 6932 98bd bc1e e93a b1a4 bcbc d7b3 383a
000000e0: 1a52 c93d 40f2 6cb2 eb86 a2bd 83f1 253c
000000f0: c67d c32c 3f6b 98ba f3d9 9b3d debb 0f20
00000100: f882 32bd d0e0 1cbc 355a 5abc b683 26bc
00000110: 9885 80bc 1f18 0cbc ee5b ab3a 4f15 2e3c
00000120: baa0 5a3c dbe7 1d3c 9851 073c cbe1 8a3b
00000130: a743 e1bb d6a4 333a 5cb6 413c c2a8 50bb
00000140: 649a 74bc f7c5 0bbc cee4 3d3c 04a5 463c
00000150: e889 fa3a ea67 02bc 5728 dcbb 90ec 1f3c
00000160: 7333 59bc 6563 9fbb ba90 013b 1d97 733b
00000170: c8a1 2c3c 3b7b 29bb 785a 69bb 87ce 673c
00000180: 1bf5 e03a 208c 4a3c 81c1 29bc 2b4b 92bb
00000190: c776 26bc 9a1d 233c d5a4 cbbc 04ca b8bb
000001a0: c644 9b3c 3bee aabc adab 8bbc 9277 d73a
000001b0: 83dd 0e3c e57c bc3c 37ae 013d 458f da3b
000001c0: ce14 233b 9666 54bb 25ad 8b3c 6758 4fbc
000001d0: 838a a53b 6b3c 2e3b e032 efbb c6a8 05bc
000001e0: 63ba 5a3c 7359 77bc 8ca5 dcbb a9ec d7ba
000001f0: d948 24bc 15ce 283c bfe7 aebd 7a6e 85bb
00000200: 1caf 793e b6a9 3b3c df5a 4cb9 68f1 6c3a
00000210: daf2 573e 0f4b 5a32 b621 da3c 72ee 663d
00000220: 9665 f93b 135c 7638 8405 af3b 2e1d 863a
00000230: 6229 97b9 27e2 823d 2d21 b4bd 79a3 dfb8
00000240: a8eb b2bd c9ef b932 dbef 2db7 e637 3bb7
00000250: b11e dabd b77f 103c dfcd dcb4 3437 41bc
00000260: eeab 20b2 61b3 00be 8c78 933c 3d89 8d38
00000270: f772 4fbd 76df ce38 aaef 06b1 e229 cfbc
00000280: e177 233d 6b05 e4bc e4b9 103e d4b2 b0ba
00000290: 475a cd0a 4d95 6d3d 60d2 a1bc 8279 153e
000002a0: af93 fcbb b4ae b735 d704 0138 0e54 c9b9
000002b0: 89fc d4bc be95 3938 1c61 edb7 dfc6 8abd
000002c0: 0d51 a733 7f8d 523d 01a7 c3b7 5a85 72b8
000002d0: d32a 77bd 2905 d2bb 4846 e7bd 51d5 9fbc
000002e0: dc73 083e 16c9 0135 6e0f 6ebe de26 4e3b
000002f0: 04c1 c32d 2a11 91bc 2418 ab3d 64dd 059e
00000300: f109 37bd 6173 17be ece2 1b3c f1a6 6bbd
00000310: 4dac 06bd e147 9f3d 491f 6a3d 1096 7c3d
00000320: 9a18 0cbd ee5c 833a 61cc 9ebc bfec 4f3c
00000330: 442a 813a 0aff 58bc 163f 0d3b 43f3 25bb
00000340: 6b4b 953c 0caa 923b 09de a1bc 18e4 bbbc
00000350: c9d8 683d a5a7 87bd 068b e0bc e2c9 973d
00000360: 0a09 d5bc 7fe2 a73b 0386 813b 9b31 fc3c
00000370: 2aa9 a43c 49f1 51bd e093 f33c 7b41 38bd
00000380: 880b a2bc 6900 6cbd 84af d8bc 8523 dabc
00000390: ed6e 85bc aee8 c4bc a9eb 8fbd 9bfd df3c
000003a0: 5790 1f3d 641f 6ebc ce00 1a3c 1e7c bdbc
000003b0: 4148 f33b d074 eebc 1034 b23d efe2 7f3c
000003c0: 6559 89b7 c1f8 56bd 1bc8 45bc decc 813d
000003d0: 1bbe f43c 9a41 103c e25a c1bc 0e1a 2ebc
000003e0: 0a3b 633d c78d ccbc e5f0 c4bc 429c 2e3c
000003f0: 212b 92bc 965b ae3c ef9a 30be 5cc5 30bc

tgcn_cells.1.graph_conv1.bias f4 [64]
-0.0015872788 -0.0006403997 -0.00037359336 0.040579345 0.030757787 -0.006315817 -0.0010936789 0.0024886765
-0.005753033 -0.053460654 -0.0036926803 -0.014811853 -0.012569501 -0.012771516 1.2225383e-05 -0.0020644658
0.07050952 -0.0012196098 -0.0045594447 0.058992438 -0.0035953654 -0.022033026 0.025536194 -0.0014844096
-0.0047689965 -0.00021307527 -0.0052779103 0.013784986 -0.00038357172 0.02969073 -0.00017640302 0.015528117
-0.0013870427 -0.00017743079 -0.01734926 -0.012857839 -0.012118905 0.15825 -0.0016601273 0.16354139
0.07368735 -0.005173238 -0.00066173595 0.09526899 -0.014184983 -0.0022988867 -0.0040025194 0.046051633
-0.009499834 -0.0026623812 -0.00055775273 -0.08638308 -0.0056285136 -0.0008952723 -0.00073767756 -0.0010126302
0.01685155 -0.0040320666 -0.0015367883 0.027540935 -0.0032814369 -0.0067680604 -0.0013160738 0.08379659
00000000: 3d0c d0ba 7fe0 27ba dade c3b9 8736 263d
00000010: c1f7 fb3c eaf4 cebb c659 8fba 1019 233b
00000020: f083 bcbb 8ff9 5abd e500 72bb 6aad 72bc
00000030: 4ff0 4dbc 9f3f 51bc 9f1b 4d37 fd4b 07bb
00000040: 4c67 903d 50db 9fba 6567 95bb 0ea2 713d
00000050: 39a0 6bbb 9b7e b4bc 4831 d13c 8590 c2ba
00000060: 3e45 9cbb f56c 5fb9 52f2 acbb 6cda 613c
00000070: 201a c9b9 f939 f33c d3f8 38b9 a569 7e3c
00000080: 6ecd b5ba b70c 3ab9 0920 8ebc b0a9 52bc
00000090: 5f8e 46bc 4a0c 223e a198 d9ba 6577 273e
000000a0: 65e9 963d 4484 a9bb 5978 2dba 631c c33d
000000b0: 2268 68bc eba8 16bb 9127 83bb a3a0 3c3d
000000c0: 31a5 1bbc 587b 2ebb 2736 12ba 9de9 b0bd
000000d0: 656f b8bb b5b0 6aba b460 41ba 3bba 84ba
000000e0: 430c 8a3c 6d1f 84bb 0f6e c9ba 879d e13c
000000f0: 600d 57bb 9bc6 ddbb 1c80 acba 8c9d ab3d

tgcn_cells.1.graph_conv1.lin.weight f4 [64, 128]
-5.925869e-05 -0.0002318487 -0.00026978567 -0.00015725948 0.00010504376 -5.4827018e-05 -9.068743e-05 6.485197e-05
0.0001931897 4.8322414e-05 -4.870861e-05 -3.6767015e-05 0.00019597691 6.702551e-05 0.00018711206 -0.00012263466
-0.0003137073 -1.9897194e-05 2.5856543e-05 -9.897077e-05 7.817708e-07 -0.000119963544 -0.00055120996 0.00018274014
0.00015478565 9.423168e-05 -3.8026054e-05 -1.03225875e-05 0.00018658396 -0.00024073657 -9.1154514e-05 0.00040856857
-0.0002627225 -0.00014404247 0.00016232586 1.1692269e-05 -6.582599e-05 -0.00018739946 -0.00013852093 3.492209e-05
0.0003572019 0.00015502829 -0.000118551485 -0.00024970772 -0.00019469591 0.0002804847 0.00016855601 -6.138984e-05
-0.00030951836 0.00012085326 -0.00034022756 -0.0004645743 -9.4274845e-05 -9.79828e-05 7.268672e-05 -0.00011936218
9.36538e-05 -0.00011995343 -5.5710374e-05 -8.629741e-05 -0.0004300078 -0.0003486073 -0.00026342605 -0.00015873316
2.2134813e-05 8.2084145e-05 6.2953215e-05 -0.00016143217 0.00036118948 0.00016902818 -5.4329365e-05 0.0001461886
-8.756858e-05 0.0015171531 -9.160287e-05 0.00020239086 -0.0001737428 -0.00016409236 1.6041875e-05 0.00014208395
0.00023172122 -1.4468362e-06 -2.8461049e-05 -0.0008580414 0.00010543767 0.00022671335 -0.00086797203 -6.1026865e-05
-0.00010995595 -2.3216333e-05 -0.00010464471 0.00020944905 2.4396784e-05 8.479395e-05 -5.9576047e-05 -0.00013565856
0.00010023245 -7.359281e-06 0.00017242567 -0.0001816829 -0.00015565682 0.0014799989 -1.3722669e-05 -4.5461467e-05
0.0008292827 7.471984e-05 -5.7966787e-05 0.0002233164 -9.377967e-05 0.0001044382 0.00016029463 0.0015530275
-0.00013668122 -5.137975e-05 -7.882652e-05 0.00059193023 -9.054178e-05 -0.000111894915 6.06223e-06 7.7667275e-05
0.0015225862 0.00013643457 1.9129555e-05 0.00029204882 -4.966331e-05 0.00021220864 -0.00011165709 0.00011773918
0.00034992947 0.0003287964 -0.0007849371 0.0005328009 0.00044888296 -0.00108477 -0.0010206624 5.792545e-06
0.0014091085 0.0002685998 -0.0002643026 0.0001333244 0.00085135846 0.0002662224 -0.0009614084 -0.0003825838
-0.0009819727 -0.00013905147 -5.0291437e-05 -7.5599484e-05 -0.0016622709 0.0003126544 7.25613e-05 -0.00034946649
0.00052925013 6.559476e-06 -0.00032923452 -0.0011903004 5.4639873e-05 0.00016209575 3.1608815e-05 0.0009180519
-0.00049546605 0.00038253327 0.00022522591 -0.00028918587 0.00041535654 0.0002927127 0.0005320633 -0.00021891679
-0.00030960332 0.0003782529 -0.0010235102 -0.00028433648 0.00027590204 0.00095023686 -0.000852111 0.000101824495
-0.00066098996 0.0014379646 -0.0006748888 -0.0013155119 0.00017187293 -0.00025185905 0.0002039001 0.0005776018
-0.00045883292 0.00044870574 -0.00010031925 -0.00014921417 -0.0012041181 -0.00053338794 0.0012319408 0.00019778746
0.00012365544 5.3650318e-05 5.0463364e-05 1.11623085e-05 6.8521863e-06 0.000180693 -0.0001087849 -0.00024221792
-0.00018825017 0.00072306936 -0.0001852937 0.00033143398 -0.0002950189 -0.00029623663 5.193834e-06 -9.0858266e-05
-0.0012732043 3.1710933e-06 -0.00010763562 -0.0009412393 0.00020032692 -0.00020889475 -0.00023894147 -0.00011259508
-6.967713e-05 -2.0536296e-05 -0.00018212033 0.0007210144 2.6853271e-05 -5.2689196e-05 -4.7185684e-05 0.00047838682
2.222642e-05 -5.5859375e-05 0.00030849734 -0.0003340203 -0.00032201692 0.0006833567 -4.3677202e-05 0.00044431578
0.0002563851 0.00017343945 -1.9752377e-05 -0.00032942367 -0.00019253582 0.0001042922 0.00012852266 0.00076167245
-0.00022468361 -0.0001443084 -0.00010814034 0.0021207202 -0.00025461303 -4.9100625e-05 4.8909373e-05 8.9182075e-05
0.00072777376 -0.0002854267 9.952529e-05 0.0004937523 -0.00015414925 0.00018698203 -5.024388e-05 0.00064820045
00000000: 898c 78b8 691c 73b9 0572 8db9 05e6 24b9
00000010: f04a dc38 10f6 65b8 712f beb8 2301 8838
00000020: f792 4a39 ccad 4a38 794c 4cb8 4836 1ab8
00000030: 277f 4d39 0c90 8c38 8333 4439 7e97 00b9
00000040: 1579 a4b9 e6e8 a6b7 81e6 d837 878e cfb8
00000050: e1da 5135 f094 fbb8 137f 10ba ef9d 3f39
00000060: f54d 2239 3f9e c538 2a7e 1fb8 2d2f 2db7
00000070: c0a5 4339 3b6e 7cb9 352a bfb8 2535 d639
00000080: 04be 89b9 1b0a 17b9 0436 2a39 ea29 4437
00000090: 0f0c 8ab8 a980 44b9 ee3f 11b9 4f79 1238
000000a0: d446 bb39 178f 2239 d89e f8b8 34eb 82b9
000000b0: 4927 4cb9 050e 9339 69be 3039 6bbe 80b8
000000c0: da46 a2b9 9a72 fd38 9260 b2b9 1b92 f3b9
000000d0: 6cb5 c5b8 1d7c cdb8 636f 9838 1552 fab8
000000e0: 0068 c438 828f fbb8 8faa 69b8 92fa b4b8
000000f0: ac72 e1b9 48c5 b6b9 721c 8ab9 9c71 26b9
00000100: 26ae b937 9724 ac38 c005 8438 1e46 29b9
00000110: 085e bd39 283d 3139 b6df 63b8 344a 1939
00000120: 06a5 b7b8 36db c63a eb1a c0b8 e238 5439
00000130: ba2e 36b9 3510 2cb9 aa91 8637 5ffc 1439
00000140: 31fa 7239 ea30 c2b5 a3bf eeb7 2fee 60ba
00000150: 6b1e dd38 e7b9 6d39 9e88 63ba 19f7 7fb8
00000160: 2798 e6b8 b2c0 c2b7 b374 dbb8 8d9f 5b39
00000170: b2a7 cc37 68d3 b138 4be1 79b8 913f 0eb9
00000180: e333 d238 beef f6b6 2acd 3439 2282 3eb9
00000190: cf37 23b9 86fc c13a 6a3a 66b7 e1ad 3eb8
000001a0: 3864 593a e9b2 9c38 5d21 73b8 0a2a 6a39
000001b0: 94ab c4b8 d505 db38 c314 2839 f58e cb3a
000001c0: 1652 0fb9 9680 57b8 aa4f a5b8 c42b 1b3a
000001d0: 3fe1 bdb8 20a9 eab8 296a cb36 4de1 a238
000001e0: 8491 c73a e00f 0f39 6878 a037 211e 9939
000001f0: 934d 50b8 5384 5e39 7229 eab8 beea f638
00000200: bd76 b739 4e62 ac39 3dc4 4dba aaab 0b3a
00000210: 0d58 eb39 d72e 8eba bfc7 85ba 955d c236
00000220: d6b1 b83a dbd2 8c39 1892 8ab9 ffcc 0b39
00000230: b32d 5f3a c493 8b39 0707 7cba 8795 c8b9
00000240: 89b5 80ba 58ce 11b9 05f0 52b8 2a8b 9eb8
00000250: 8ee0 d9ba c3eb a339 0d2c 9838 9938 b7b9
00000260: 60bd 0a3a 7819 dc36 1c9d acb9 db03 9cba
00000270: 1e2d 6538 3ff8 2939 b593 0438 6ca9 703a
00000280: 2ae2 01ba bf8e c839 9f2a 6c39 df9d 97b9
00000290: 36c4 d939 3c77 9939 2a7a 0b3a 078d 65b9
000002a0: 4152 a2b9 3f50 c639 4e27 86ba ff12 95b9
000002b0: f2a6 9039 5119 793a 3460 5fba 9c8a d538
000002c0: 4946 2dba 167a bc3a 05eb 30ba 416d acba
000002d0: ca38 3439 f30b 84b9 04ce 5539 336a 173a
000002e0: 838f f0b9 4440 eb39 7d62 d2b8 6076 1cb9
000002f0: 80d3 9dba 0fd3 0bba 1379 a13a 2b65 4f39
00000300: 81a9 0139 9706 6138 a0a8 5338 c045 3b37
00000310: d5eb e536 6878 3d39 7323 e4b8 e1fb 7db9
00000320: 0565 45b9 5d8c 3d3a 664b 42b9 51c4 ad39
00000330: c4ac 9ab9 3550 9bb9 b246 ae36 298b beb8
00000340: a6e1 a6ba f8ce 5436 6fba e1b8 80bd 76ba
00000350: d90e 5239 c20a 5bb9 5d8c 7ab9 0621 ecb8
00000360: a01f 92b8 5c45 acb7 8ef7 3eb9 7502 3d3a
00000370: f642 e137 98fe 5cb8 3ee9 45b8 fecf fa39
00000380: e072 ba37 8c4a 6ab8 d0bd a139 721f afb9
00000390: 61d4 a8b9 4b23 333a 0a32 37b8 0ef3 e839
000003a0: 6d6b 8639 4cdd 3539 e8b1 a5b7 7fb6 acb9
000003b0: 71e3 49b9 73b7 da38 0ac4 0639 f9aa 473a
000003c0: 0c99 6bb9 7e51 17b9 67c9 e2b8 c8fb 0a3b
000003d0: 957d 85b9 65f1 4db8 0a24 4d38 4307 bb38
000003e0: 12c8 3e3a 53a5 95b9 3cb8 d038 286f 013a
000003f0: 20a3 21b9 9b10 4439 f5bc 52b8 ffeb 293a

tgcn_cells.1.graph_conv2.bias f4 [64]
0.0013478128 0.00059855625 0.00024014922 -0.09631873 -0.15184534 0.0021439388 0.0014076694 0.16254236
0.0032323652 -0.015732266 0.003118685 0.0068634218 0.0046890336 0.0056659747 9.417059e-06 0.20261651
-0.093517385 -0.00012888337 0.0004887744 -0.18250744 0.0035007084 0.09163606 -0.060297836 0.00080856326
0.0008187962 0.00010157326 0.0033207922 -0.103560634 9.657702e-05 0.2686155 0.00045091636 -0.051998753
-0.00040311983 0.0005479267 0.005920094 0.0069901096 0.0075016394 -0.018643247 0.00011167575 -0.24612136
-0.026721813 0.0020277186 0.00019741418 -0.20232587 0.025704224 0.0006600333 0.0013192807 -0.032441154
0.0012437686 0.0010114403 0.0011110649 0.050785128 0.0033470618 0.0019999247 0.00072811707 0.0012062587
-0.0069442973 -0.011662677 0.0013206349 -0.18556866 0.0020602099 0.00096506544 0.00022465849 0.13021375
00000000: 18a9 b03a 6ee8 1c3a 91d0 7b39 c142 c5bd
00000010: 587d 1bbe 5381 0c3b 8c81 b83a 8171 263e
00000020: 17d6 533b f4e0 80bc da62 4c3b 8ee6 e03b
00000030: 77a6 993b a4a9 b93b f6fd 1d37 b47a 4f3e
00000040: 0b86 bfbd de24 07b9 1821 003a 3be3 3abe
00000050: 246c 653b b0ab bb3d ddfa 76bd c3f5 533a
00000060: 7ca4 563a bb03 d538 a6a1 593b 9917 d4bd
00000070: 6589 ca38 f987 893e f868 ec39 a5fc 54bd
00000080: d459 d3b9 bda2 0f3a 59fd c13b 4a0d e53b
00000090: 50d0 f53b b9b9 98bc 7633 ea38 3d07 7cbe
000000a0: b4e7 dabc 79e3 043b f700 4f39 832e 4fbe
000000b0: aa91 d23c 1606 2d3a b7eb ac3a 04e1 04bd
000000c0: f305 a33a 4e92 843a 27a1 913a 1104 503d
000000d0: 615a 5b3b 2b11 033b 1cdf 3e3a 531b 9e3a
000000e0: fd8c e3bb d014 3fbc 2719 ad3a b605 3ebe
000000f0: 9604 073b 72fc 7c3a 4e92 6b39 c156 053e

tgcn_cells.1.graph_conv2.lin.weight f4 [64, 128]
0.00013230155 0.00012678324 4.809263e-05 0.00022271872 0.0001079216 -0.00018297962 -0.00030179534 -0.00033807926
0.00034555688 0.00024578022 0.00028357143 -0.00011659659 -2.3925304e-05 -2.5975045e-05 -0.00011010385 1.7885513e-05
-0.00029620968 0.00017038434 -1.5150842e-05 4.768545e-05 4.0145685e-05 0.00027541915 -0.00022647373 -0.00027152526
2.282672e-05 0.00016566917 -2.4798883e-05 -0.00017768287 -8.893615e-05 0.0002832371 -0.00018398864 0.00023717317
-0.00035819484 0.0004962481 0.0003360914 9.3039635e-05 -0.00018501951 -0.0001867815 0.00040871915 8.19241e-05
-0.0002662864 0.0002696757 -0.0003047123 -0.00035803855 -6.814869e-05 0.00012675456 -0.0004469263 -0.0001938636
-0.00025171647 0.00011653455 -0.0005538529 -3.864922e-05 -5.3680273e-05 -0.00025777766 0.0002935289 3.1579926e-05
-0.00028876727 -0.00015845182 0.00014628934 -7.57878e-05 -0.0001823519 -0.00026582912 -0.0003415935 -3.0267072e-05
-7.795354e-05 -0.00017327242 -0.00013944092 -0.00014631185 -0.00056040357 -0.00035113626 0.00015937169 -0.0006024182
0.00023277805 -0.0012825378 0.00029729158 -0.0005321646 0.00043893562 0.00047779235 -2.4392977e-05 0.00020173394
-0.00027681288 2.1572247e-05 8.905301e-05 0.00069588906 -0.00029850638 -0.00078445283 0.00089002267 0.00019828316
0.00019431784 6.386313e-05 0.00031158797 -0.00024828737 -6.834628e-05 -1.504616e-05 0.00014651648 0.00064368197
-0.00020752366 -5.9010916e-05 -0.00046440994 0.000504631 0.00048241942 -0.0012734494 2.5085004e-05 0.00023656063
-0.00090093503 -0.000225621 7.9785226e-05 -7.0303327e-06 -0.0001400733 -0.00019331936 -0.00029084214 -0.0013100764
0.00027228898 0.00013408593 0.00023207416 -0.0011051375 0.00026799072 0.00038824946 -5.269593e-05 -0.00014629377
-0.0012912112 -0.0006962298 -0.0002093336 -0.00013568811 0.00018489339 -0.00022422611 0.00015200174 6.852809e-05
0.00010715899 -4.6393184e-06 -0.00010575597 0.00023097427 8.763893e-05 3.368701e-05 -3.8895e-05 -7.613396e-05
0.000116340285 -6.95173e-05 3.239958e-05 -0.000105059335 2.1817494e-05 -2.0279846e-05 -0.00017962726 -0.00032779068
3.982069e-06 8.504445e-05 0.00011227559 -0.00014880416 8.652505e-06 6.503111e-05 -3.8262395e-05 -0.00010347998
0.00015899478 0.00022376588 2.2778522e-05 0.00012525081 -0.00010553125 5.0893897e-05 0.00014302848 -2.492583e-05
-8.962018e-06 6.16846e-05 0.00019914821 0.00012827522 -4.6070414e-05 -0.00012193585 0.00021422945 -3.019989e-05
0.00014656075 0.00012323046 -0.0001215829 -4.289809e-05 -0.00013945987 0.0001045647 -0.00023007249 -2.5847494e-05
-9.631743e-05 -0.00023411066 -0.0001768603 -9.0675334e-05 -0.000114138005 -8.121334e-05 3.0012756e-05 3.187867e-05
-0.00020926479 1.9838764e-05 0.00015205167 -0.00013891365 0.00027884517 -0.0001320227 1.168397e-05 8.750886e-05
-2.7853737e-05 -1.2720169e-05 -7.2235175e-06 -2.9474186e-05 -0.00016592741 -2.2094911e-05 9.641911e-06 -0.0002532766
1.8085431e-05 -0.0005682165 5.4342336e-06 -3.1458934e-05 9.9732515e-06 2.6751022e-05 -6.084715e-06 -1.1012886e-05
1.6326285e-05 1.2964518e-06 -2.7059398e-06 0.00032562195 2.1287717e-06 -0.00017027666 0.00033717457 6.2087865e-06
1.8048544e-05 -2.2310543e-07 1.183059e-05 -7.186441e-05 -9.958117e-07 -3.023065e-05 -1.1313163e-05 -3.611128e-05
-2.0679367e-05 -1.0845868e-05 -4.011041e-05 2.5098301e-05 1.8155642e-05 -0.000563759 -7.1990635e-06 1.2356846e-05
-0.0003748499 -1.292236e-05 8.280966e-06 3.1862575e-05 -2.499725e-05 -1.25884e-05 -2.3136796e-05 -0.00058369804
8.056447e-06 1.0092164e-05 -1.3348431e-06 -0.0004946205 1.6776814e-05 0.00019171422 1.5011731e-05 1.8836023e-05
-0.00057333964 -4.7393587e-05 1.744864e-05 -4.722598e-05 1.0680454e-05 -3.6252197e-05 1.1155246e-05 -0.00011738543
00000000: 6dba 0a39 1ef1 0439 11b7 4938 9a89 6939
00000010: f853 e238 38de 3fb9 493a 9eb9 3b40 b1b9
00000020: dc2b b539 10dc 8039 50ac 9439 5185 f4b8
00000030: 33b3 c8b7 fce4 d9b7 8ee7 e6b8 d908 9637
00000040: 974c 9bb9 33a9 3239 5f30 7eb7 dd01 4838
00000050: 1a62 2838 2266 9039 9479 6db9 815b 8eb9
00000060: 027c bf37 7bb7 2d39 3207 d0b7 6250 3ab9
00000070: 3b83 bab8 717f 9439 13ed 40b9 b0b1 7839
00000080: 19cc bbb9 a516 023a 6d35 b039 461e c338
00000090: cc01 42b9 c7da 43b9 5b49 d639 abce ab38
000000a0: 5b9c 8bb9 4263 8d39 cbc1 9fb9 1fb7 bbb9
000000b0: 0deb 8eb8 6be9 0439 6f51 eab9 dd47 4bb9
000000c0: d0f8 83b9 0364 f438 7030 11ba 491b 22b8
000000d0: c126 61b8 5526 87b9 c8e4 9939 b074 0438
000000e0: b065 97b9 1626 26b9 3f65 1939 44f0 9eb8
000000f0: b735 3fb9 fb5e 8bb9 e717 b3b9 0be6 fdb7
00000100: fd7a a3b8 76b0 35b9 e336 12b9 4a6b 19b9
00000110: 0ce8 12ba b618 b8b9 031d 2739 9aeb 1dba
00000120: e215 7439 d41a a8ba cddd 9b39 f680 0bba
00000130: f120 e639 3480 fa39 859f ccb7 8b88 5339
00000140: 3221 91b9 0cf6 b437 f8c1 ba38 536c 363a
00000150: d980 9cb9 bda3 4dba 6950 693a 3bea 4f39
00000160: ccc1 4b39 42ee 8538 a15c a339 912c 82b9
00000170: 2155 8fb8 c46e 7cb7 38a2 1939 c4bc 283a
00000180: b59a 59b9 7d82 77b8 0c7c f3b9 3749 043a
00000190: 3ded fc39 dfe9 a6ba a36d d237 430d 7839
000001a0: ba2c 6cba ad94 6cb9 5e52 a738 19e6 ebb6
000001b0: a4e0 12b9 c5b5 4ab9 2c7c 98b9 dfb6 abba
000001c0: 02c2 8e39 6b99 0c39 ef58 7339 43da 90ba
000001d0: 1b81 8c39 f68d cb39 d305 5db8 6f66 19b9
000001e0: dc3d a9ba 3183 36ba 8f80 5bb9 8047 0eb9
000001f0: f1df 4139 3d1e 6bb9 a862 1f39 bdb6 8f38
00000200: 8bba e038 71ab 9bb6 4ec9 ddb8 af31 7239
00000210: cbca b738 274b 0d38 3023 23b8 1caa 9fb8
00000220: b7fb f338 d1c9 91b8 c9e4 0738 4d53 dcb8
00000230: b604 b737 a31e aab7 535a 3cb9 52db abb9
00000240: b69d 8536 e459 b238 8075 eb38 5008 1cb9
00000250: 3a2a 1137 5061 8838 ef7b 20b8 6403 d9b8
00000260: d6b7 2639 b2a2 6a39 8114 bf37 c255 0339
00000270: a950 ddb8 e876 5538 eaf9 1539 d017 d1b7
00000280: 935b 16b7 ab5c 8138 71d2 5039 9e81 0639
00000290: bb3b 41b8 d0b7 ffb8 c8a2 6039 c555 fdb7
000002a0: 1aae 1939 6d37 0139 53fa feb8 79ed 33b8
000002b0: f93b 12b9 bf49 db38 9d3f 71b9 12d3 d8b7
000002c0: 07fe c9b8 9a7b 75b9 9373 39b9 f328 beb8
000002d0: 605d efb8 1451 aab8 e7c3 fb37 76b5 0538
000002e0: 176e 5bb9 6c6b a637 0f70 1f39 59a9 11b9
000002f0: f731 9239 936f 0ab9 4506 4437 f684 b738
00000300: 72a7 e9b7 b668 55b7 8b61 f2b6 553f f7b7
00000310: cdfc 2db9 7658 b9b7 b1c3 2137 36ca 84b9
00000320: 2bb6 9737 5df4 14ba b657 b636 c6f2 03b8
00000330: ca52 2737 6267 e037 4e2b ccb6 fcc3 38b7
00000340: 6ef4 8837 bf01 ae35 b197 35b6 3db8 aa39
00000350: 05dc 0e36 4b8c 32b9 cec6 b039 1255 d036
00000360: f466 9737 c18e 6fb4 ff7b 4637 e9b5 96b8
00000370: d4a7 85b5 d497 fdb7 aacd 3db7 3176 17b8
00000380: 9a78 adb7 a6f6 35b7 3a3c 28b8 318a d237
00000390: f24c 9837 3ac9 13ba 7c8f f1b6 4050 4f37
000003a0: 8087 c4b9 1dcd 58b7 7aee 0a37 2ea4 0538
000003b0: 30b1 d1b7 c432 53b7 e415 c2b7 5003 19ba
000003c0: 2d2a 0737 8451 2937 dc28 b3b5 6ba9 01ba
000003d0: efbb 8c37 e506 4939 e5da 7b37 0d02 9e37
000003e0: 2c4c 16ba 7ac8 46b8 ab5e 9237 8314 46b8
000003f0: 3330 3337 800d 18b8 6b27 3b37 d32c f6b8
