checkpoints/gcn_checkpoint.pth (torch, 438197 bytes, 55 tensors)

lin_in.weight f4 [64, 6]
00000000: 3c1b 18ba 292f 80ba 0315 cf3b a756 853a
00000010: d079 d2b7 ca8c e0b9 1e0e 78be 4a90 223f
00000020: 9a2a 36bd cc5e b43c f083 4c38 90ca 27ba
00000030: f777 41bc 0fad 2a3a f3af 203d 6e1b 0b3b
00000040: 2bd8 6e39 72ae ccbc 8a26 25be c269 f7bd
00000050: 8b82 7cbd 683b 35bc 9f7b 973c 0643 a63c
00000060: de27 61bf 5486 453e 3ccf be3c 169f 56be
00000070: 27f8 80be 5335 bbbc dd0e f23e 8580 f7be
00000080: 8d66 2a3d b14a 65be 74c6 da3e 83cb d3bc
00000090: 68f2 7abd eacc ccbc 34e0 8e3d 5137 283c
000000a0: 9c23 513c 08bb 47bc 3222 9cbd 00dd 00be
000000b0: 2977 673d 2421 753b e0b1 98bc 24dc 073d
000000c0: 9060 753f faa8 51bf 7769 883c 3978 b4bd
000000d0: 466d 9c3d e338 483b c4d1 62b4 88ad 05b5
000000e0: affa 1bb6 52d7 0f34 ceb1 9635 4e27 9e36
000000f0: 734a fdbb 1a1b dcbc 7db8 a93c ce8f 81bb
00000100: 0855 613c 3e4e c1bc fdc7 1bbb ad5b 59ba
00000110: 2ebd 2dbb a96d 8b3a 03a8 9738 5d18 aa3b
00000120: 3631 b3bc 959c 91bd 2bab 193d 6c2d 263c
00000130: 983d 0a3d c59d 39bd 202c acbf 1e57 25bd
00000140: fe2a 1dbd 226f 633b da7e 11bc 4542 b13c
00000150: ec73 6abc 6c66 28bb b278 533c e4b6 323c
00000160: d357 723b 499e 0abc a982 b2b9 c58d 56b9
00000170: 7ae6 f43a a2ac ed39 f21b c039 0e1c 36bc
00000180: e97c efb7 6195 b8ad 0b26 91b5 4456 4a35
00000190: 1000 8b30 5bea 2ab3 0374 6dbc 442a 87bd
000001a0: cf18 6b3c 4e99 a1b9 d6e3 833d 12d7 50bc
000001b0: d5e7 81be 5a58 a2be d8cf 213e 5e3a d23c
000001c0: 00c5 543d 92e7 0bbd eb38 82bb b714 10bd
000001d0: 8b4a 033d efec 7e3b 3e8d 543b dd90 69bc
000001e0: 66c5 c0bd 7c1e 61bd d7a8 fd3c 2cde 6d3d
000001f0: 39b8 373c 4cd3 143c d5df 08bd b553 fdbc
00000200: 50df 823d 1205 493c 0f07 d8ba c480 893c
00000210: 23de 52bd a4ca 92bb bada 813b d5d0 013d
00000220: ae84 3b3c 2ae7 123c 3df6 14ba 6af2 e3ba
00000230: 0d9c 053a a842 91b9 a9c0 bf35 cda1 18bb
00000240: 742d 59bd 9c4b c0bd 5e76 0abb 46e1 c13c
00000250: 5a40 b83d 24b0 c03b d9e7 6e3d f543 563d
00000260: 2f2a 1d3d 1276 193d 18f6 6fbc 7389 35bb
00000270: 05fd 44bb b4b9 d2ba f136 533b ecce 563b
00000280: 6adb ca3a cecd 53b8 5b52 3e3f 56b3 e3be
00000290: be44 b33d fa47 043e 251c e63d f0cc fcbc
000002a0: c6ee 0ebd 27c7 99bd b7b0 613d 08f4 9d3b
000002b0: 2762 183b 0274 c53c 0c49 6dbb 0c42 c5ba
000002c0: 4c95 ae3c 9a6d 2f3a a3ef cf38 4be9 9cbc
000002d0: 0af9 a2b7 a001 b7b3 e814 873a 1190 7f38
000002e0: 42e6 1938 15ff 20b6 5dcc 1837 5b43 6cba
000002f0: 2561 1a3a 1a56 14b8 676f e137 b623 2bba
00000300: d88e e7b9 d50d f5b8 79b2 3d3b ddb0 e839
00000310: 6390 db35 7552 0738 147f bcbd bb3a c1bb
00000320: 7cbf ab3c 7103 90bb 20f4 17bc 0967 b1bc
00000330: 21ba 6eb9 43ab 9ab7 acb2 1339 866d be37
00000340: f142 2ab7 9a76 0b38 48c1 9cbf 878c 163d
00000350: bfaf bbbc 2bc3 073f 9412 3d3c 2c1c 0a3c
00000360: b9f6 0cbe c107 c7bd f7d8 d73c 1693 673d
00000370: 9bac c13c 278b 413c 9785 1f3e 6d6a 85bf
00000380: 13a7 3a3c 723e f639 f25c cb3e 42cb 9dbc
00000390: eb2a 62bd b560 61be 34fb e53d f2a2 073e
000003a0: 1680 723c 826b 7f3d e716 18b2 d265 dfa7
000003b0: c2c9 8c37 8563 d734 e087 bc34 39ba 5f38
000003c0: da5e 53bd 6f6f 253e edda 333e dd54 3d3d
000003d0: 5f16 68be 5422 1abb e98e 7cbd 133a b83c
000003e0: 244d 333c baae 03ba 7d44 833d 0b81 023c
000003f0: 54f6 e63e 528e 84bf 5ee5 183c 1257 ce3d
-0.0005802398 -0.000977968 0.0063196435 0.0010172919 -2.5090674e-05 -0.00042829505 -0.24224135 0.6350142
-0.04447422 0.022017859 4.8760267e-05 -0.00064007286 -0.011808387 0.0006510773 0.0392303 0.0021226066
0.00022777978 -0.024985526 -0.16127983 -0.120807186 -0.061647933 -0.011061527 0.018491564 0.020295631
-0.8795146 0.19289523 0.023292176 -0.20959124 -0.25189325 -0.022852575 0.47276965 -0.4834024
0.041601706 -0.22391774 0.42729533 -0.025853878 -0.061266333 -0.025000054 0.06976357 0.010267095
0.012764838 -0.012190588 -0.0762371 -0.12584305 0.056510124 0.0037403787 -0.018639505 0.033168927
0.9585047 -0.8189846 0.016651852 -0.08811993 0.0763803 0.0030551485 -2.1124202e-07 -4.979888e-07
-2.3242717e-06 1.3396246e-07 1.1227619e-06 4.7133426e-06 -0.0077298223 -0.026868392 0.020717854 -0.0039539104
0.013753183 -0.02359688 -0.0023770325 -0.0008291554 -0.0026510465 0.001063754 7.231536e-05 0.0051908926
-0.021874052 -0.07109944 0.037516754 0.010142665 0.033750147 -0.045316476 -1.3450966 -0.040366285
-0.03837108 0.0034703691 -0.008880341 0.021638045 -0.0143098645 -0.0025695814 0.012907194 0.010907862
0.0036978617 -0.00846059 -0.00034048155 -0.00020461444 0.001868441 0.00045332784 0.00036641915 -0.011115087
-2.8549186e-05 -2.0984716e-11 -1.0814414e-06 7.5376397e-07 1.0113599e-09 -3.9794354e-08 -0.014492991 -0.065998584
0.014349177 -0.00030822534 0.06439941 -0.012746589 -0.25372186 -0.31708032 0.15801942 0.025662597
0.051945686 -0.03415639 -0.0039740703 -0.035176005 0.03205351 0.0038898548 0.003243282 -0.0142557295
-0.09412651 -0.054960713 0.030964298 0.058073208 0.011213356 0.00908358 -0.033416588 -0.030923704
0.0639025 0.012269275 -0.0016481596 0.016785033 -0.051481377 -0.004479723 0.003962842 0.0316933
0.0114452075 0.008966247 -0.00056824443 -0.0017390971 0.0005096801 -0.00027706218 1.428668e-06 -0.00232898
-0.053021863 -0.09389421 -0.0021127681 0.023666989 0.08996649 0.0058803726 0.058326576 0.052310903
0.038370308 0.037466116 -0.014646076 -0.0027700334 -0.0030058038 -0.0016077072 0.0032228793 0.0032777144
0.0015476767 -5.049799e-05 0.74344414 -0.4447276 0.08753346 0.12918082 0.11235837 -0.03085944
-0.03489568 -0.075086884 0.05510017 0.0048203506 0.0023251863 0.024103168 -0.003620687 -0.0015049591
0.021311425 0.0006692052 9.915165e-05 -0.019154212 -1.9427873e-05 -8.521897e-08 0.0010305913 6.093091e-05
3.6692487e-05 -2.3990335e-06 9.107488e-06 -0.00090127223 0.00058891095 -3.5366138e-05 2.6873966e-05 -0.00065284537
-0.0004416618 -0.00011685087 0.002894549 0.00044382262 1.6358794e-06 3.2263302e-05 -0.09203926 -0.005896894
0.02096533 -0.0043949415 -0.0092745125 -0.021655576 -0.00022766787 -1.843798e-05 0.00014085573 2.2700766e-05
-1.0148376e-05 3.325064e-05 -1.2246485 0.03675511 -0.02291095 0.5303218 0.011540074 0.008429568
-0.13765992 -0.09718276 0.026348574 0.056536756 0.023641875 0.011812962 0.15578304 -1.0423104
0.011392373 0.00046967302 0.3971935 -0.01926196 -0.05521671 -0.22009547 0.11229554 0.13245752
0.014801046 0.062358387 -8.852772e-09 -6.2005327e-15 1.6783251e-05 4.011928e-07 3.511659e-07 5.3340777e-05
-0.05160413 0.1615579 0.17563982 0.04622351 -0.22664784 -0.0023518996 -0.061659727 0.02248863
0.010943685 -0.00050232897 0.064095475 0.007965337 0.45109808 -1.0355933 0.009332029 0.10075201

lin_in.bias f4 [64]
00000000: a3ed f4bc bf74 a8bf c327 acbd 8726 743f
00000010: cde6 36bf 3632 ecbe 9df1 3ebe d883 bbbe
00000020: dd9f 63bf a86f 18b9 b66d b2bd c2e8 1bbd
00000030: fa69 26be 36a6 d8be 220d 82bd 322a 78bd
00000040: 6fd8 02ba 29ec ccbd 8280 7fbe 11d5 a5bd
00000050: 9ff3 4fbe 3da4 37be 594f 35be 0663 35bc
00000060: 51f8 6fbe e775 e53f c800 a9bd 5619 a7bf
00000070: 4653 68be 0db9 82bd 6ef7 4dbb 3cb3 fbba
00000080: 55a4 d5bb 5a9f afbe 04f3 dfb9 3f75 dbbe
00000090: ca1b 63be dc40 49be 26c0 39be 1aad 69ba
000000a0: 5862 c8be d829 9bbd 7b07 c0be b981 dfbd
000000b0: e0a4 66be 138e e2bd 12ab d5bb f91f 16bf
000000c0: 535d b5bd 4daa 54be b1bb ccbe 3a84 e9bb
000000d0: ffe2 6ebe e285 5dbf 694b 57bf 0da4 7abc
000000e0: e2f2 30bf 3706 88be 44a7 cdbd a309 25bf
000000f0: 3f7f 7ebc f3a4 d7bd 7861 1bbf e73a 43be
-0.02989847 -1.3160628 -0.084060214 0.9537129 -0.71445924 -0.46132058 -0.18646856 -0.36624026
-0.88915807 -0.00014537445 -0.08712332 -0.038063772 -0.16251364 -0.4231431 -0.06350161 -0.060587116
-0.00049913576 -0.100059815 -0.24951366 -0.0809728 -0.20307778 -0.17933746 -0.1770605 -0.011070972
-0.23434569 1.7926606 -0.08252102 -1.3054607 -0.22688016 -0.06382952 -0.0031427997 -0.0019203196
-0.006519834 -0.34301263 -0.00042714935 -0.4286289 -0.2217857 -0.19653648 -0.18139705 -0.0008914039
-0.3913753 -0.075763404 -0.37505707 -0.109134145 -0.22523832 -0.11062255 -0.0065206373 -0.58642536
-0.08855691 -0.2076809 -0.39986947 -0.0071263583 -0.2332878 -0.86532414 -0.8409944 -0.015297902
-0.6912061 -0.26567242 -0.10041669 -0.6446783 -0.0155332675 -0.105295084 -0.606956 -0.19065438

conv1.bias f4 [128]
00000000: e92d 1933 0d8a 82b9 2adf 6035 f49e 7eb9
00000010: 7cd2 4d35 20cf 9034 7719 0db4 da0d 2e38
00000020: caf8 28b6 4020 2737 8fc4 5ab8 b2ef 12ba
00000030: c86e 2fb8 47b4 3ab9 c8fe 82b7 b694 c135
00000040: 547b 033a c435 3d39 4c5b d5b8 d4f7 a138
00000050: b905 edb8 87be c5b7 9358 f8af c8c2 cbb7
00000060: 6ac4 4339 c808 f1ae 5825 79b8 793e 3139
00000070: 5479 feb8 c986 4c38 34ad eab0 b22e 6e36
00000080: 40d1 f238 0fec 7cb8 02eb 8db8 007c 4534
00000090: 9ca7 3631 eae6 f6b8 d26a 0f39 9f97 feb9
000000a0: 4814 9b38 f620 7f38 bc50 93b9 4ad0 bbb7
000000b0: 8cce 89ac 38c5 f0b7 e83e a337 bec9 033a
000000c0: a2e3 dcb8 bce1 2b38 4214 022d 8277 4d39
000000d0: c820 ee38 3c88 d037 68e8 4e39 f806 1fb8
000000e0: 7c75 a932 487e 3a2c b02a 8cb6 c5d0 a538
000000f0: c4e7 bab1 de05 44b8 f01a 6a38 dc21 5537
00000100: a8f9 30b9 38c5 1039 7ed3 c9ac 22c4 a039
00000110: 0482 9b2d d896 222a 17e9 b739 20c2 b4b7
00000120: d032 1f2d 8d40 c1b8 a210 f438 d53d 0039
00000130: a4dc ebb3 027e b938 c28e ad36 fea8 0238
00000140: 426b 12b8 0c2a 06b9 6492 b838 9877 57b4
00000150: 0c9f 63b9 c8f4 1738 0e13 97b8 0dce 21b9
00000160: ceb7 263a 6ac8 1039 ea4b 37b4 34e2 f1b7
00000170: 4c12 afb5 6d9b dfb8 d6b1 a1b8 9c4e dbab
00000180: eac8 f436 934c 19ac 92ad afac ecfc d938
00000190: 407c c936 fecc c338 36f7 352d e064 d7ab
000001a0: 98b4 9eb0 534f c2b8 e797 0eb9 4696 fa39
000001b0: 12f1 9938 6eb2 5e39 2dac 9039 c411 94b8
000001c0: cca6 1730 bff5 1438 3c6e 2fb8 a667 efb9
000001d0: 5649 01b7 70e9 19b8 7b59 d4b8 1cb6 3eae
000001e0: f4ac 6238 cc08 f1b9 46f5 7738 cc53 1bb9
000001f0: 7a1c 6a39 1ab8 9f38 fead 332d d8af 4bb8
3.5664844e-08 -0.00024898388 8.377125e-07 -0.00024282542 7.6674746e-07 2.6972793e-07 -1.3140912e-07 4.1497733e-05
-2.5178765e-06 9.9614845e-06 -5.215831e-05 -0.00056051754 -4.1826424e-05 -0.00017805501 -1.561585e-05 1.4422901e-06
0.0005015631 0.00018044474 -0.00010173637 7.72324e-05 -0.000113021066 -2.3572951e-05 -4.5173873e-10 -2.4290188e-05
0.00018669819 -1.0960971e-10 -5.9401005e-05 0.00016903308 -0.00012134263 4.876292e-05 -1.7074968e-09 3.5491944e-06
0.00011578435 -6.030133e-05 -6.7671775e-05 1.8392166e-07 2.657976e-09 -0.00011773205 0.00013677336 -0.00048559622
7.3947536e-05 6.0827435e-05 -0.00028098177 -2.238913e-05 -3.9167055e-12 -2.8702067e-05 1.9460407e-05 0.00050273153
-0.000105328174 4.097981e-05 7.394143e-12 0.00019594844 0.0001135483 2.4858971e-05 0.00019732269 -3.7915044e-05
1.9727615e-08 2.650229e-12 -4.1772946e-06 7.9066995e-05 -5.439661e-09 -4.6735506e-05 5.5815035e-05 1.2703673e-05
-0.00016877672 0.0001380638 -5.736244e-12 0.00030663708 1.7679198e-11 1.4440825e-13 0.00035078145 -2.1548069e-05
9.049386e-12 -9.214981e-05 0.00011637925 0.00012230065 -1.09831745e-07 8.844958e-05 5.172421e-06 3.11518e-05
-3.4909004e-05 -0.000127949 8.801071e-05 -2.0066943e-07 -0.00021707657 3.6229176e-05 -7.20379e-05 -0.00015430916
0.00063597865 0.0001380757 -1.707082e-07 -2.8834773e-05 -1.3043841e-06 -0.00010662419 -7.710203e-05 -1.5582704e-12
7.295156e-06 -2.1785115e-12 -4.9930693e-12 0.00010394477 6.0047314e-06 9.336507e-05 1.0343551e-11 -1.5304667e-12
-1.1547341e-09 -9.265416e-05 -0.00013598763 0.00047795678 7.3405114e-05 0.0002123804 0.000275941 -7.060499e-05
5.517051e-10 3.551482e-05 -4.1825915e-05 -0.00045662856 -7.706074e-06 -3.669545e-05 -0.00010125615 -4.3362744e-11
5.4043674e-05 -0.00045973656 5.9117818e-05 -0.00014813169 0.00022326587 7.6160024e-05 1.0213606e-11 -4.856274e-05

conv1.lin.weight f4 [128, 64]
00000000: b8d8 9ab8 5e53 fdb9 b8be 0e00 ae02 552c
00000010: 7007 ccb7 5748 fc28 7a22 2781 10fe 9fb9
00000020: ffef 4e31 4c33 042e 2ddb 3401 26b9 39b9
00000030: 8f44 2503 fc4e 6ea6 ccc2 7305 a2f1 7bac
00000040: 0ceb 4fb9 ecac b681 8c80 4e89 a200 5280
00000050: 1f17 3a80 3377 1980 d091 3e00 9348 0d02
00000060: 9e62 0e80 546c 06a4 d6b0 1c80 5c43 0ab3
00000070: b241 69b2 653c 70a3 9e8a 9736 7d64 cc37
00000080: d87d 132f a030 bf80 2d81 0000 f423 7d82
00000090: 009b 9ca7 3149 ee14 e0b5 1829 fa7c 5a30
000000a0: 3b8c 58b3 362f 8829 bf17 a632 1a11 5c00
000000b0: bb0c 0000 d710 d114 370c d000 d932 65bb
000000c0: 001d 7232 7c1f 5b82 c68f 8281 03b2 0100
000000d0: b099 8026 af4f a803 65ed 6606 5854 ce00
000000e0: 0d09 9304 6723 0080 2c3e d402 0008 8635
000000f0: efe4 1498 b524 f502 2266 c702 9444 5103
00000100: ec7a b5b0 53b6 d6bd 164d e83a 97e6 14bd
00000110: d9e3 203b d14a 0bbe 7673 9fbb d1a9 bdbd
00000120: 71ae 253e 8bfb d892 a8d7 02bb 467d 2935
00000130: 8cb0 00bc 4020 653e 518f cab7 6652 00b7
00000140: 7872 0280 c7ed 65bc 4a3c 63bd 89a2 b0b9
00000150: 8733 27bb c5f0 13bd 8a6e 83bd 2301 3838
00000160: bfcb 8bbd dba0 e03c dbcb 63ba 9df1 cabe
00000170: 4e82 393c ca58 5db8 ff8f 4ca8 7c3e 5cb6
00000180: eca7 0eb1 2e19 2bbc ece5 d0ae d296 b5bd
00000190: 4284 2bbd 0144 2bbf dfca 343e 2981 e5a5
000001a0: 0298 0cbe c1d3 b1bc ded7 0cbe f022 313b
000001b0: 2715 9d3c 4c5e 3c3a 9cc2 42b9 d182 b1be
000001c0: 292d b8b9 af44 d437 88e2 14be 7311 b3b7
000001d0: 5594 f7bc 2025 b3be 7ff7 85be d839 9da8
000001e0: 51c5 113e ec63 72bd 864e 11ba f830 8abe
000001f0: afea 0538 6eaa 26ba 4f97 d9be 5714 0638
00000200: 9617 08af fc0a 4237 bc03 b6b1 73ea 4da8
00000210: 6b8b fe2f 4801 9533 f37a 8cb7 e24c 8f33
00000220: 867b ca32 b633 f632 10eb 0b0c 66ce 59b8
00000230: fa77 0d16 2b4f bc17 204f 8f32 1e13 0080
00000240: 1d78 8f2e 7075 1185 f824 3d19 8e72 4a8e
00000250: d886 f99b cfc2 2995 b149 591b 9941 0783
00000260: 9094 a10f 6ecb 0f2f 88e9 35b7 c23f 9b2f
00000270: c828 0e35 94eb 84ac 2f8b 3600 601d ba8d
00000280: c40f 97b6 05e3 c00e 467b 94b4 1350 c898
00000290: d79c 530c e5b8 daa3 10e0 a191 0c9d 0200
000002a0: 2711 1cb7 928a de16 44bd 6726 70cf bc14
000002b0: 742e 0e1a 2043 b733 512a d30f 0af8 0b35
000002c0: b45e 3101 24f0 2618 2682 1ab4 6001 c039
000002d0: c859 5d9c e59c 689d 93ab 331b 827d 71ac
000002e0: 52bc 4498 8a7b 0108 4341 6915 7d6f be29
000002f0: 43f3 0430 82be c396 2aa4 9e17 eb91 50af
00000300: c6c0 1f13 4c96 d23d 6577 9b38 2431 efbe
00000310: 68e7 bbbd 4b41 bd3c f5ad 12b9 3925 af3b
00000320: 2e9f 4b3e 1f6b 0180 2276 36b9 1523 9db2
00000330: 8b3f 4cbc e2d4 8abe a348 3ab9 1b7f aeb8
00000340: a0f0 0080 7666 88ba 8770 523d ad39 fbb8
00000350: 6ab8 413b 4dfa dc31 9523 44ba 4692 a636
00000360: aad2 8b3c 0901 27be 5675 3db3 0f97 3dbe
00000370: e61e 9039 afba 7baf cd8d a689 87eb 9a36
00000380: 0674 0134 1e2c 423a 6e3c 4c31 0d82 31be
00000390: 6ad9 93bb 7887 94be 9a74 1dba 7299 0000
000003a0: bebe 913c 1606 d3bc 5d05 8abd a67f 8cba
000003b0: a87e c6bb c648 ee39 cd0e 1c34 061b 51bd
000003c0: 2a07 d838 ea36 1ab8 af10 0c3e 70ed ba36
000003d0: 52ca e3bb cbc6 fabc fc7a c0be ecbc 0000
000003e0: 79ea 14be c960 2c3e 7b4c b13a fe53 163e
000003f0: c8ee 29b4 b124 cd37 fea3 4abc 5f62 a2b3
-7.383659e-05 -0.00048318034 1.354114e-39 3.0270608e-12 -2.4322158e-05 2.8008993e-14 -3.0697791e-38 -0.00030516135
3.0113367e-09 3.0058886e-11 3.321803e-38 -0.00017711948 4.8567843e-37 -8.267988e-16 1.14615836e-35 -3.5803378e-12
-0.0001982862 -6.710437e-38 -2.485679e-33 -7.530738e-39 -5.334753e-39 -2.338648e-39 5.746108e-39 1.0379872e-37
-1.321074e-39 -2.9148376e-17 -2.63483e-39 -3.2191892e-08 -1.3577322e-08 -1.3023215e-17 4.516288e-06 2.4365489e-05
1.3414281e-10 -1.7558023e-38 4.634e-41 -1.8597822e-37 -4.346675e-15 2.4060728e-26 3.390853e-14 7.948554e-10
-5.0418958e-08 6.047803e-14 1.9335742e-08 8.455e-39 4.567e-42 2.1110249e-26 1.9106165e-38 -0.0034972935
1.4092848e-08 -1.6098614e-37 -4.796076e-38 1.55694e-40 8.923441e-16 9.892447e-37 4.3432602e-35 1.8948369e-38
3.4567846e-36 -1.27e-41 3.1186285e-37 9.986106e-07 -1.9244134e-24 3.6020583e-37 2.9299043e-37 6.1498304e-37
-1.320442e-09 -0.10483994 0.0017723169 -0.03635272 0.002454987 -0.13602759 -0.004866059 -0.092609055
0.16179825 -1.3693527e-27 -0.0019964967 6.3139703e-07 -0.007854592 0.22375584 -2.4147013e-05 -7.648579e-06
-2.24735e-40 -0.014033741 -0.055477418 -0.00033690434 -0.002551289 -0.036118288 -0.06417568 4.3870077e-05
-0.06825971 0.027420452 -0.00086897396 -0.3963746 0.011322571 -5.2773197e-05 -1.1355499e-14 -3.2818925e-06
-2.0759172e-09 -0.010443015 -9.499587e-11 -0.08866657 -0.041874178 -0.6690064 0.17655514 -3.981269e-16
-0.13729861 -0.021707417 -0.13754222 0.002702888 0.019175125 0.0007185682 -0.0001857378 -0.34670117
-0.00035128862 2.5304353e-05 -0.1453954 -2.1346588e-05 -0.030222097 -0.34989262 -0.26165387 -1.7455587e-14
0.14235426 -0.059177324 -0.0005543012 -0.26990485 3.1928237e-05 -0.00063577935 -0.42498252 3.1967033e-05
-1.2377507e-10 1.1565859e-05 -5.2973217e-09 -1.1430624e-14 4.6301393e-10 6.938586e-08 -1.6746553e-05 6.672941e-08
2.3572067e-08 2.8661685e-08 1.0778907e-31 -5.1929055e-05 1.1427747e-25 1.21692e-24 1.6683373e-08 -6.858e-42
6.5242235e-11 -6.839437e-36 9.778537e-24 -2.4953578e-30 -4.1280735e-22 -3.4282955e-26 1.797363e-22 -3.9748237e-37
1.593305e-29 1.3078047e-10 -1.0842814e-05 2.8239638e-10 5.2958467e-07 -3.77782e-12 5.009046e-39 -1.1470207e-30
-4.501986e-06 4.7550266e-30 -2.7656841e-07 -5.1779643e-24 1.6302046e-31 -2.3713913e-17 -2.553941e-28 2.40009e-40
-9.302318e-06 3.5953485e-25 8.0400727e-16 1.9064968e-26 2.9402436e-23 8.5338115e-08 2.0822506e-29 5.214248e-07
3.2577712e-38 2.1576237e-24 -1.4389715e-07 0.00036622118 -7.3238806e-22 -3.0786057e-21 1.4861972e-22 -3.431783e-12
-2.5427484e-24 3.8964745e-34 4.7105458e-26 8.457035e-14 4.8367016e-10 -3.1624176e-25 1.0251952e-24 -1.896933e-10
2.0163666e-27 0.10282573 7.413215e-05 -0.4671718 -0.091749966 0.023102423 -0.00013988449 0.0053450135
0.19884941 -1.30263e-40 -0.0001740088 -1.8293159e-08 -0.012466322 -0.27115542 -0.00017765402 -8.320642e-05
-8.632e-41 -0.0010406512 0.051376846 -0.000119793556 0.0029559382 6.4312986e-09 -0.0007482109 4.964214e-06
0.017068226 -0.16308989 -4.4111708e-08 -0.18514656 0.0002748884 -2.289464e-10 -4.0096395e-33 4.6169766e-06
1.205627e-07 0.00074070867 2.9720257e-09 -0.17334767 -0.0045120018 -0.29009604 -0.00060064497 5.5046e-41
0.017791148 -0.025759738 -0.06739304 -0.0010719195 -0.006057579 0.00045449118 1.4534017e-07 -0.051051162
0.00010301017 -3.6767604e-05 0.1367824 5.5708733e-06 -0.0069516087 -0.03061237 -0.3759383 6.7772e-41
-0.14542569 0.16833796 0.0013526821 0.14680478 -1.582622e-07 2.445499e-05 -0.0123682 -7.5616065e-08

bn1.module.weight f4 [128]
00000000: 0bb4 db3b d6f7 4a3f 7afb 17bc 2fea 5b3e
00000010: 7952 0100 fa2b 0100 6c40 97bb 489b a13d
00000020: cced 0080 41c9 b41e 8855 fc3d cde9 103e
00000030: e28b 9f3e 2490 8d3d 6351 a63e 0836 0180
00000040: a81d 0100 670a 2f3e 3d8b 993e 5624 af3e
00000050: 4f02 843e f336 613d 294c c23a a6ab fd3d
00000060: bafa 0080 45dd 0080 ed09 913d de18 343f
00000070: 8eb6 c23d ec88 8e3e 251b 73b5 737e 013b
00000080: 4be7 aa3e 6045 0000 25bf 0e3f 92e5 8c3d
00000090: a773 0180 076d cd3d f265 9e3e 74ef 583e
000000a0: 0462 6abd 7534 4b3e f684 493f bee8 733e
000000b0: 1b25 009c 3b17 883e 3e64 333f b3ca 603f
000000c0: 701a ee3d 11fd 923e ae40 0180 8002 743e
000000d0: 7e39 083e 8869 0000 c595 b4b5 8b52 0080
000000e0: 9fdd 0280 7e39 0200 030c 0000 27d4 213e
000000f0: 9313 a0b8 f512 9c3e 439e 963e 509b 7c3e
00000100: 9588 0180 d049 4a3e 49b3 0080 764a 313d
00000110: a0ac c53a 8fab 3800 e4eb 023f 1387 323d
00000120: b61b 0100 254e 013e db1e 273f 4101 402d
00000130: c8df 0080 64f5 463f 8c88 0280 4136 953e
00000140: 9f1a ff3c 7358 613d 3862 60bd 7106 8434
00000150: 5a49 f43e eb22 0280 7bf3 be3e 77c3 0a3f
00000160: 1dfd a43e 5076 13be acbd 2eb0 3807 44bd
00000170: 5183 b83c dce5 aa3e 4d46 943e 14d4 b6b2
00000180: daae a7bd bc7b 1599 6193 0180 6882 6b3e
00000190: 8f6f 1e3f 32f4 a63e b7b1 0180 773b 0000
000001a0: 4cc7 762d fc85 713d fea3 6d3e 8df7 a33e
000001b0: 17e3 4a3d bf65 5b3e fb61 553e f660 0280
000001c0: ef36 0080 ed6c 143e 9705 113f 27a3 553f
000001d0: 215d 3c3e 40cb 833e 58cd 823e 76a7 84b1
000001e0: 7704 e63d 46b0 0180 82d8 0080 487b 5a3e
000001f0: 3f84 0c3f 5f24 0f3f fd2d 0200 c1b6 163e
0.0067048124 0.7928442 -0.009276265 0.21476053 1.21421e-40 1.07611e-40 -0.004615834 0.07890946
-8.5305e-41 1.9141478e-20 0.12321001 0.14151688 0.3116141 0.06912258 0.32483968 -1.11218e-40
1.02474e-40 0.17093812 0.29989043 0.3420741 0.2578301 0.054984044 0.0014823723 0.12386255
-8.9944e-41 -7.9377e-41 0.07081971 0.70350444 0.09507476 0.27838838 -9.0564055e-07 0.0019759207
0.33379588 2.4887e-41 0.55760413 0.068797246 -1.33324e-40 0.10030561 0.30937153 0.21185094
-0.05722238 0.1984423 0.7871851 0.23819253 -4.2399605e-22 0.26580223 0.7007483 0.87809294
0.11626136 0.287087 -1.15038e-40 0.23829079 0.13303182 3.7857e-41 -1.3454634e-06 -2.9611e-41
-2.63174e-40 2.04295e-40 4.309e-42 0.15803586 -7.6330405e-05 0.30483213 0.2941762 0.24668622
-1.40832e-40 0.1975472 -6.4315e-41 0.043283902 0.0015081353 5.204331e-39 0.5114119 0.043585848
1.01776e-40 0.12627466 0.65281457 1.0914215e-11 -8.0278e-41 0.77718186 -2.32655e-40 0.29142955
0.031140624 0.055015992 -0.05478117 2.4591603e-07 0.47712213 -1.96197e-40 0.37295136 0.54204506
0.3222436 -0.14400601 -6.357037e-10 -0.047858447 0.022523554 0.33378494 0.28959885 -2.128403e-08
-0.08187647 -7.7281074e-24 -1.44705e-40 0.22998965 0.61888975 0.3260818 -1.55588e-40 2.1332e-41
1.4027734e-11 0.058965668 0.2320709 0.32024804 0.049532976 0.21425532 0.20838158 -2.18454e-40
-1.9706e-41 0.14494677 0.56649154 0.83452076 0.18394901 0.25741005 0.2554729 -3.8607437e-09
0.1123132 -1.5507e-40 -7.7668e-41 0.2133609 0.5488929 0.5591487 2.00168e-40 0.14718153

bn1.module.bias f4 [128]
00000000: f7fe 11bc 1897 1abe 8bf8 0ebc a04b 93bd
00000010: 3b05 0280 b978 0180 769a f3bd cb48 4f3d
00000020: 5dbd 0080 6697 08b1 50b7 89bd 595b 7dbe
00000030: add7 253d 312a 2c3d a829 6dbd b05e 0280
00000040: fe3e 0180 83eb 87bd 6729 cb3c b6ce 143c
00000050: 0e2e 733c f3d0 603d 2d7f e8b8 4adf b63d
00000060: d484 0080 3cc6 0280 b992 923d b14d 61be
00000070: 3b07 c53d 2a6e 7c3b 1031 01b1 ac04 82b9
00000080: 6524 63ba 16c6 0280 2c67 37bd b4be aa3d
00000090: 2016 0180 0758 e33d e04f 8fbc 64b4 ebbc
000000a0: b0e6 343d b3d2 2dbd d086 22be 121f 4f3d
000000b0: 0751 a42d 6d22 073d c9f7 1fbe f320 81be
000000c0: b367 59bc fa3c 9cbd 62f5 0280 dea0 5fbe
000000d0: ab3d d13b 9a9c 0180 7559 42b3 753a 0180
000000e0: c82b 0080 a2a4 0180 874d 0180 ee85 40bd
000000f0: 86e0 5cb8 2231 cbbc 4227 7e3d 7f1d 10bc
00000100: 5011 0280 99a3 ecbc 5ea3 0180 8bec adbc
00000110: fcb4 07b9 1c6c c997 678a 30be 632b 873d
00000120: c4c3 0080 bb53 4dbc eb69 d0bd 8030 49b2
00000130: 7d16 0080 3289 10be cf46 0080 cbe4 a23c
00000140: 2ea1 c43d fc05 8b3d a0e1 c63d e465 98ba
00000150: eccf aebd b00f 0280 703d 90bb ebab e4bd
00000160: fb6c 42bc 6fa3 e73d f727 29b5 dbc4 a13c
00000170: aa88 40bd 1959 923c 8495 59bc e8f1 27af
00000180: 96bc 52bd bd42 19a1 f873 0080 f60e 20be
00000190: f5ef 5ebe 95ab 81bc 0fd3 0080 5674 0080
000001a0: 6fe6 c4b8 d3c4 6d3d 7a92 59bc bc36 003d
000001b0: 720f a4bb dccc 2fbe ece5 11bc c7de 0080
000001c0: 90ed 0080 4d3f 45be efeb 38be 9452 2fbe
000001d0: a302 16bd bd08 8cbd cd61 73be fa46 d0b4
000001e0: 8696 313d 6723 0180 405b 0180 103d 6dbd
000001f0: dca4 8cbd abf9 c1bc 6161 0180 acf4 dcbb
-0.008910886 -0.150967 -0.008726249 -0.07192159 -1.85547e-40 -1.35143e-40 -0.118946955 0.05060653
-6.7931e-41 -1.9876665e-09 -0.06724417 -0.24741878 0.040488888 0.042032424 -0.057901055 -2.17638e-40
-1.14433e-40 -0.06636717 0.024800016 0.009082487 0.014842523 0.05488677 -0.000110863104 0.08929308
-4.765e-41 -2.54784e-40 0.071568914 -0.22002293 0.0962052 0.0038517811 -1.879986e-09 -0.00024799013
-0.0008664786 -2.54731e-40 -0.044776127 0.08337155 -9.9772e-41 0.11100774 -0.017494142 -0.02877254
0.044165313 -0.042437267 -0.1587174 0.05056674 1.8680625e-11 0.032991815 -0.15621866 -0.2522045
-0.013269353 -0.07628818 -2.71698e-40 -0.2183871 0.006385525 -1.48014e-40 -4.5250506e-08 -1.12806e-40
-1.5706e-41 -1.50895e-40 -1.19647e-40 -0.047002725 -5.266119e-05 -0.024803702 0.062049158 -0.008796095
-1.89882e-40 -0.028886603 -1.5044e-40 -0.021230957 -0.00012942025 -1.3016611e-24 -0.17240296 0.06600072
-7.0227e-41 -0.01253217 -0.10176452 -1.17107675e-08 -8.067e-42 -0.14114836 -2.5401e-41 0.019884488
0.09601055 0.06788251 0.09711003 -0.0011627045 -0.08535752 -1.89299e-40 -0.004401855 -0.11165603
-0.011866803 0.11310469 -6.301556e-07 0.019747188 -0.047005333 0.01786475 -0.013280276 -1.5274504e-10
-0.05144938 -5.1926744e-19 -4.1602e-41 -0.15630707 -0.21771224 -0.015828887 -7.5714e-41 -4.1733e-41
-9.38893e-05 0.058049034 -0.013279552 0.0313022 -0.005006724 -0.17167991 -0.008904915 -7.9917e-41
-8.5221e-41 -0.19262429 -0.18058752 -0.17121345 -0.03662361 -0.06837604 -0.23767777 -3.879466e-07
0.04335644 -1.04535e-40 -1.2457e-40 -0.057919562 -0.06867382 -0.023678621 -1.26768e-40 -0.0067430343

bn1.module.running_mean f4 [128]
00000000: 3aa7 a3b9 e9ba 21bd 0eb9 0935 7c17 42bf
00000010: 4a33 11b3 3447 a533 60fa 723c d2ef 19be
00000020: e77e 3f34 b015 bdb5 d0ee 943f e345 4d3f
00000030: 9d66 99be a7c3 903e 8655 c9be bad0 88b3
00000040: bd82 22b8 8632 57bf bad0 e8bd bab8 3cbe
00000050: ac7a d3bd 0b03 dd3d 60d4 342d 7f10 2dbe
00000060: 0200 28b7 fecf 922c ab54 273e d615 54bd
00000070: 9a6c 943e 8136 5b3c 36d4 a42e dea3 2eb4
00000080: 2b17 e3be fe24 0836 4fb8 63bd 2c06 ef3c
00000090: 6270 f4ae 22fe afbd 187c d5be 728a 823f
000000a0: b83e 463e cd27 2cbf 3e58 bfbc fb78 2abe
000000b0: c5d3 5f2a 5ced 8abd d501 23bd 4240 b8bc
000000c0: 3aa3 1c3f 7405 f9be 05d6 c8aa b21a 54bf
000000d0: d155 623f 6e03 1bb6 a447 91b7 5926 8236
000000e0: a200 75b0 5d6f 2eaa 79ff 8c34 266d 7cbf
000000f0: ee0e a5b1 689a 3c3e 61f8 70be 820e 94be
00000100: 3643 c737 dfb4 0abe 0028 7327 7e80 3dbb
00000110: 3d38 0a32 29da 712c 48f1 03be 18cd 1cbe
00000120: 83f0 f3aa 4aef 923f c8b7 0dbc 7ea8 c6b6
00000130: 9b2a 2d32 698e 58bb 0458 19b4 4802 bbbe
00000140: b229 0cbe 6eec e0bd 1b0b d03e b80a dc32
00000150: 8db7 6dbe 4c6a beb6 f450 08be 1bfa 673c
00000160: aacd c6be 5454 833a 5b40 bb33 f475 83be
00000170: 0fed 34bc 6035 7fbd 0f13 9d3e 2b46 8faf
00000180: 1e37 b33a 944d d0b0 e0ff 8b2a 2efc 18bf
00000190: 7810 eabc 80b3 a6be 3f09 0eab b46c 4cab
000001a0: a2f6 882e f593 acbe 9111 edbe 0acd 453d
000001b0: e478 44b6 4d8a 82bf 3d42 373f a36b 1536
000001c0: c871 d9ad 3e0e 273f 7df8 a1bc 7a85 52bd
000001d0: 668f 913f d19d 00bf 0d2e 06bf 50ee 4cb3
000001e0: 74f5 f43d 6c4d ee37 40b4 5f35 f325 8f3f
000001f0: b553 9bbd 6d4f e8bd 5ea5 07ab 9fb5 eebe
-0.00031214376 -0.039484892 5.1305767e-07 -0.75817084 -3.380709e-08 7.696363e-08 0.014830202 -0.1503289
1.7834428e-07 -1.4087909e-06 1.163538 0.80184764 -0.299611 0.2827427 -0.39323062 -6.370961e-08
-3.874557e-05 -0.8406147 -0.113679364 -0.18429843 -0.10326132 0.10791596 1.0278972e-11 -0.16900824
-1.0013582e-05 4.1726613e-12 0.16340892 -0.051778637 0.28989106 0.013379694 7.495553e-11 -1.6264627e-07
-0.44353613 2.0287112e-06 -0.055595692 0.029177748 -1.11157986e-10 -0.08593394 -0.4169624 1.01985
0.19359863 -0.6724823 -0.023357507 -0.16647713 1.9879851e-13 -0.06783554 -0.03979667 -0.022491578
0.61186564 -0.48636973 -3.5675643e-13 -0.82853234 0.88412195 -2.3098796e-06 -1.7318707e-05 3.878766e-06
-8.913138e-10 -1.5492941e-13 2.6262913e-07 -0.9860405 -4.8038293e-09 0.18418276 -0.23532249 -0.2891732
2.3753946e-05 -0.1354556 3.3744708e-15 -0.0028915699 8.045444e-09 3.4369263e-12 -0.1288501 -0.15312612
-4.333236e-13 1.1479275 -0.008649774 -5.920475e-06 1.0079613e-08 -0.0033043867 -1.4281255e-07 -0.36525178
-0.1368778 -0.109825954 0.40633473 2.5616245e-08 -0.2321455 -5.674816e-06 -0.13312131 0.014158751
-0.38828784 0.0010019639 8.719572e-08 -0.2567593 -0.011042847 -0.06230676 0.30678603 -2.6061406e-10
0.0013673042 -1.5156041e-09 2.486891e-13 -0.59759796 -0.028572306 -0.32558823 -5.0461366e-13 -7.2626215e-13
6.228375e-11 -0.33706632 -0.46302465 0.048291244 -2.9276644e-06 -1.0198456 0.71585447 2.2265383e-06
-2.4720573e-11 0.65256107 -0.019771809 -0.051396824 1.1371887 -0.5024081 -0.5241402 -4.7714195e-08
0.11960879 2.8407863e-05 8.333627e-07 1.1183456 -0.07584325 -0.11343274 -4.819113e-13 -0.4662294

bn1.module.running_var f4 [128]
00000000: 8579 f035 8a92 5a3d 08c4 6d2d 187d 303c
00000010: 2d55 4416 06f6 131c 85ae 453b 4aa3 2c3c
00000020: b4c6 801b 7d38 a627 f996 9f3c 4f2e 8a3c
00000030: 5ad3 b63d 4e25 773c 453c 6a3c 86f9 9217
00000040: 473c 0422 0d8e 163c a7de 083d dac2 b63d
00000050: cd9f cc3d dae1 c43c fd2a e71b b3c1 6e3c
00000060: f4a0 6620 74dd e70d 6d23 b43c be48 fa3b
00000070: d1c9 a23c e0de 693c 40de 1e24 9df9 7c26
00000080: 89f4 ab3b 0487 b11f 46d9 b83d a295 a13c
00000090: 9829 0212 ddda c93c 11b3 903c 85fe 383c
000000a0: db31 a03c 01a9 373c 0fef af3c 369e 113d
000000b0: 0c45 3e08 3693 ad3c bb16 9d3b ed1a ad3b
000000c0: f589 193c 54fa 283d bfe7 7d06 855c 883c
000000d0: 0aab 0f3c 4196 361f 28b1 2c2d da07 c31f
000000e0: 5d38 f910 d479 0408 414f f51b 2ab7 a93c
000000f0: 40c0 cc29 337c bc3c df2e ee3c 6dad b43d
00000100: b238 7121 cc64 e13b 0736 390b 9690 0a39
00000110: 373a bf2b 625e f123 2e63 4a3c cf36 1f3c
00000120: 793b 9806 9d2f 523c ec68 003d 4309 f12e
00000130: 8a17 1718 7aa7 f83c 0bd6 971c 629e b43d
00000140: 3305 a93b 6338 9f3c c9fb 523c 726e ca28
00000150: 6549 db3c 44d6 9120 6ff1 7e3d aa9d 6b3c
00000160: 587c c83b 214f b73c 1752 6f2e 25f2 e53c
00000170: 396c 8938 6acc 8d3d ed39 7e3c 4965 cd27
00000180: d14a e737 3ce8 682a 4785 e106 4138 303c
00000190: ca02 cd3b 7b81 423d ea9c c106 15b7 8d0c
000001a0: 850f 8126 a3a6 c63b 0c21 c73c 055f 3b3c
000001b0: 4ae1 042b 5eab 563c 46a7 183c acec df1f
000001c0: f2be c90f 2695 603c 944e b43b dc47 1d3d
000001d0: f9fb 343c 0af9 f73b 0cf4 fa3b 520a 9a2e
000001e0: 3260 be3c beab 8421 c9d4 bb20 b64b 373c
000001f0: 8197 2e3d 5453 443d 57cf e409 f5d4 d53d
1.791676e-06 0.053362407 1.3515418e-11 0.010772012 1.5859631e-25 4.89562e-22 0.0030163836 0.010536978
2.1304233e-22 4.61355e-15 0.019481169 0.016867785 0.08927031 0.015084578 0.014296596 9.498017e-25
1.7921246e-18 0.009189141 0.033415463 0.08923884 0.09991417 0.024033476 3.8243525e-22 0.014572549
1.9535013e-19 1.4289787e-30 0.021989549 0.007638066 0.019871624 0.014274329 3.4449042e-17 8.776835e-16
0.0052476567 7.518578e-20 0.090258166 0.01972467 4.1072035e-28 0.024640495 0.01766351 0.011291151
0.019555023 0.011209727 0.021476297 0.035551272 5.725721e-34 0.02118836 0.0047939694 0.005282751
0.00937127 0.041254357 4.7754271e-35 0.01664568 0.008768806 3.8664286e-20 9.816405e-12 8.25987e-20
9.8300024e-29 3.9865513e-34 4.0583067e-22 0.020717222 9.09277e-14 0.023008442 0.029075084 0.08822141
8.172901e-19 0.006878471 3.567035e-32 0.00013214568 1.3587524e-12 2.6169245e-17 0.012352748 0.009717657
5.726343e-35 0.012828735 0.03135006 1.09610564e-10 1.9528177e-24 0.030353297 1.0047671e-21 0.088192716
0.0051580905 0.019436067 0.012877413 2.2474403e-14 0.026768396 2.4705745e-19 0.062241968 0.014380852
0.0061183386 0.022376599 5.441522e-11 0.028069565 6.552827e-05 0.069237545 0.01551674 5.7008744e-15
2.7572185e-05 2.0686312e-13 8.4831427e-35 0.0107555995 0.006256436 0.047486763 7.2829096e-35 2.1834678e-31
8.95538e-16 0.006062345 0.02430775 0.011436229 4.720847e-13 0.013102381 0.009317225 9.4835714e-20
1.989368e-29 0.013707435 0.0055025313 0.03839861 0.011046403 0.0075675296 0.007658487 7.0049425e-11
0.023239229 8.990128e-19 3.1819842e-19 0.0111874845 0.042624954 0.04793103 5.5083985e-33 0.10441009

conv2.bias f4 [128]
00000000: 269e 6fb9 5ef0 65b8 b0e7 1f2c b0bb 28b8
00000010: 64f6 ca37 42ed 9432 4437 43af 52c8 c838
00000020: 4605 f231 f270 04b6 4cf6 642b f459 ea38
00000030: 54bd f938 1823 b434 24db 61b9 4830 cc36
00000040: c02f 4037 ca16 7aba 9c5f 82b9 e80c d0b8
00000050: d2ca 6237 b8de 083a fccb 8637 fee6 2739
00000060: 4d3b abb8 5b7c 69ad ea7d b7b7 30d0 b9b1
00000070: 56a3 63b9 c0aa c0b6 754c 0aad 1517 2135
00000080: 4438 82b0 cc88 7eb8 f777 16b7 b0b7 8736
00000090: 9bf4 53b8 5210 832f 7afd e6ab c2ae 2033
000000a0: fa34 e1b8 c266 40ac a871 2c34 5471 d9b7
000000b0: 889e 06b7 4053 bc30 825b 27b2 7e6f 23b9
000000c0: f02f 5f39 545b a133 ad10 0238 dad9 932e
000000d0: 9d07 8d33 aa46 b2b6 e008 9a37 4ea7 0838
000000e0: 866d 2eb9 08c6 c7b4 be3d 3736 1a83 deb6
000000f0: d075 8f30 9ad1 4938 5c13 c4b3 ae5f 9237
00000100: 2829 2838 9bec 2437 debd 8e36 4c21 1138
00000110: bc28 2eb8 588f 6938 b0fb b737 584d 4c38
00000120: 4e02 8eab da02 d2b6 712f 8fb8 c80e 97b8
00000130: a70f 7db8 1b64 13ba f26a f038 45b2 8635
00000140: d622 9f38 923f 29b7 020a f139 601e 05b6
00000150: 8cb8 c538 3c92 282c e6ba d8b8 9ce5 9d38
00000160: 08d4 7e33 6e01 fdb8 60a6 f6ad 4083 8cae
00000170: 8889 6431 305f 42b8 5ccc 2b38 a8d8 54b7
00000180: b269 5a36 509d b2b8 dcac e32c 7a1e cf38
00000190: 10ed c5ad 837a 0d2b 5ea0 adb9 c2f1 8538
000001a0: 304f ccb7 a64a 552d 845c 5e2d 18ab e330
000001b0: 219a 94b9 fa1d b4af 5bbc ee2d 2e33 31b0
000001c0: f01e b338 2afd a837 dd74 a335 0dcd a730
000001d0: d7cc 49b3 a7b5 9c31 0e6b 8bb5 c847 0ab9
000001e0: de73 0e38 8d96 4cb9 084a ccb4 ea2a 0eb9
000001f0: 2007 a3b7 cea4 46b8 ea7b afb8 3084 fc2b
-0.00022851731 -5.4821714e-05 2.2723871e-12 -4.022912e-05 2.4195011e-05 1.733736e-08 -1.7754781e-10 9.574056e-05
7.0437265e-09 -1.9735276e-06 8.134368e-13 0.000111747446 0.0001190851 3.3553147e-07 -0.00021539308 6.0852944e-06
1.14552095e-05 -0.0009540139 -0.00024866767 -9.920617e-05 1.35178725e-05 0.0005221176 1.6069032e-05 0.00016012412
-8.164961e-05 -1.3272129e-11 -2.1873933e-05 -5.407877e-09 -0.00021709254 -5.741924e-06 -7.861369e-12 6.001076e-07
-9.474737e-10 -6.068572e-05 -8.968628e-06 4.0446976e-06 -5.0534127e-05 2.3840357e-10 -1.6412837e-12 3.7411844e-08
-0.00010738704 -2.7341883e-12 1.6060096e-07 -2.5921188e-05 -8.023933e-06 1.3702461e-09 -9.741486e-09 -0.00015586425
0.00021284795 7.513759e-08 3.1009946e-05 6.723484e-11 6.567209e-08 -5.3130398e-06 1.8362363e-05 3.258074e-05
-0.00016634734 -3.7210725e-07 2.7305064e-06 -6.631378e-06 1.0438104e-09 4.811734e-05 -9.130483e-08 1.744911e-05
4.009265e-05 9.830251e-06 4.2540332e-06 3.4601704e-05 -4.152277e-05 5.568503e-05 2.1932501e-05 4.8709422e-05
-1.0090347e-12 -6.2588197e-06 -6.827608e-05 -7.202994e-05 -6.0334478e-05 -0.0005622522 0.00011464012 1.0035661e-06
7.5881995e-05 -1.0087986e-05 0.00045974558 -1.9836225e-06 9.4280666e-05 2.3955412e-12 -0.00010334495 7.5291115e-05
5.9331825e-08 -0.000120642464 -2.8040847e-11 -6.3897776e-11 3.3256544e-09 -4.6341855e-05 4.09599e-05 -1.2686629e-05
3.2546054e-06 -8.517003e-05 6.4709193e-12 9.876206e-05 -2.2501584e-11 5.026328e-13 -0.00033116614 6.386965e-05
-2.435557e-05 1.21242235e-11 1.2639782e-11 1.6565052e-09 -0.00028343595 -3.276311e-10 2.7141114e-11 -6.4464956e-10
8.541148e-05 2.014505e-05 1.2178458e-06 1.2209128e-09 -4.698526e-08 4.560849e-09 -1.0387464e-06 -0.00013187446
3.3963348e-05 -0.0001951104 -3.8051826e-07 -0.00013558162 -1.9434432e-05 -4.7360365e-05 -8.367731e-05 1.7942366e-12

conv2.lin.weight f4 [128, 128]
00000000: 29d6 860b eea6 163d efe7 389a abb4 b2bd
00000010: 5547 0200 3b9e 0200 060c ebb3 687e 553e
00000020: 341e 0280 9f64 0080 45c4 b2bd b2aa debd
00000030: 57b8 81bd e2f3 613c 20bf 363d 536e 0280
00000040: b868 0280 d76a c3bd 9819 293e ed04 ed3c
00000050: 2a64 693d 4db3 1fbd 22d9 d4a2 9e00 703e
00000060: a56c 0280 dda7 0080 c412 0b3e 6cd7 413d
00000070: 598b d63d 4c63 84bd 2768 2aa1 bf15 29a9
00000080: 07bd 943d 06de 0100 edb2 783d e917 1d3d
00000090: 4280 0180 71a7 463e 94b9 9c3d 00b3 01bd
000000a0: b07d 90bd b8ec ffbb 35d8 77bc b81b 8abc
000000b0: 46bf 1d2d b1ea 3aba 9f1b bf3d 7ce8 c53d
000000c0: aae3 e43b 8b9d c63c 3f11 0100 196b b6bd
000000d0: d5a5 f2bc 849a 0080 4c35 3a31 2ab2 0080
000000e0: e619 0080 3cc4 0080 ec50 0180 82cb 2f3d
000000f0: b4d1 b301 2600 0d3e 6b8a 923d 65e3 d53d
00000100: dc69 0100 132c c2bc 49e5 0280 c66b 27b7
00000110: 0509 0000 de05 3e0e 25ef 93bc b1fa a63c
00000120: b002 0100 ff6b d9ba d22c 113d 9a71 8a31
00000130: 3e08 0080 dfb2 5dbc 0128 0280 8665 d6bc
00000140: d9bd 19bd a3a3 b1bc f5aa d8bc cb35 3f37
00000150: d4a1 533d b2bd 0280 353b 92bd ebed 0a3d
00000160: acab c03c 886e fc3d 53ba a132 4a29 47bc
00000170: 9e5f c537 696d 363d 6737 333d 7163 182b
00000180: e34d a13a 950c 0100 6c54 0000 5d4c a5bd
00000190: 1ed8 d93d 2133 02be 90e3 0200 78e1 0000
000001a0: 6418 03b7 5ac4 30be 85fb 863d 0620 af3d
000001b0: 3906 0300 8c1b b3bd 4606 b7bd f820 0080
000001c0: 1299 0080 8425 fbbd 6594 903d 0691 c3bc
000001d0: 3e8d 2abc 180f 8d3d 0874 f0bd d82b afb1
000001e0: a0a1 8f3b f360 0100 a360 0080 48d0 5ebd
000001f0: 9d20 473b b7a7 de3c a14c 0200 ff1f b03d
00000200: 34c9 4824 b68d 013e 5afd d51e 5937 80bd
00000210: 1669 0180 5b64 0080 d555 c5ae 68a3 ad3d
00000220: 5809 0000 35b2 0200 1891 073b 98a9 66be
00000230: 0a20 1cbe e902 763d 7a57 1abd 4b86 0000
00000240: a207 0100 7fff 9c3c ee7b 943d d436 90bd
00000250: c8dd b63c e970 9cbd 29a8 0e9c a066 473c
00000260: 561e 0200 1904 0300 2b84 d53d d4b7 6dbe
00000270: 0676 163e fd23 82bc 698c 61a4 7fd5 daa6
00000280: 8009 18ba c408 0080 de38 bbbc f187 8ebc
00000290: 7e8d 0200 780b 7e3d 3dd1 29bd f156 c7bd
000002a0: d3fd 47be 575a 7abd e03a 6ebb 06f9 1cbd
000002b0: 20b7 3caa bc15 953c efaf 10bc 028c b5bd
000002c0: 7229 89bd 7652 04bb 06c0 0200 05f0 19be
000002d0: d49e b8bd 500d 0080 08c8 64b1 13b6 0080
000002e0: 7ced 0080 ab13 0200 471c 0100 698f 393d
000002f0: 94b0 dc92 8349 e03d 986f 5bbc ea6e 10bd
00000300: 6245 0200 3b4e 633d 6172 0180 1498 abb4
00000310: 35fd 0000 36f5 760c 0a10 dfbc 173e 00be
00000320: f81a 0280 5fd2 1cbe d8e8 ca3c e209 d2b0
00000330: 4a02 0280 d40a c2bd 8275 0000 d535 02be
00000340: f1bd 4ebd 5667 003c b8fd c2bd 25ce 6237
00000350: 3de0 90bd 917a 0280 4d0f 50bd 509d babc
00000360: bc75 64bd ba16 173e 0ae5 71b2 5a1e 663d
00000370: 3309 cfb9 8f6b b03c 345e 083e 8b8e 142b
00000380: 7645 0fba 3856 0000 928f 0000 3625 2c3d
00000390: 3411 f3bd 3de9 74bd 90ee 0080 d867 0280
000003a0: caaf 4eb7 bec4 26be 4a10 00bd 3f2d 5c3c
000003b0: 45dc 0080 004c d0bd 0c77 ebbd 74a8 0080
000003c0: 6a8e 0100 6f23 10be 5fd3 c2bd e51c 073b
000003d0: af8c a53c f50f f8bc 089a b6bc f0ea 7031
000003e0: 8f26 8c3d 113d 0180 9ea2 0200 3747 05bd
000003f0: 1f3f 0a3e ff61 f1bd fd6d 0080 3696 1a3d
5.1937155e-32 0.03678029 -3.8237663e-23 -0.08725866 2.0926e-40 2.40433e-40 -1.0945227e-07 0.20849001
-1.94506e-40 -3.6096e-41 -0.08728842 -0.10872401 -0.06333988 0.013791056 0.044615865 -2.23248e-40
-2.21237e-40 -0.095418625 0.1651367 0.028933013 0.05698029 -0.038989354 -5.7692613e-18 0.23437735
-2.22645e-40 -6.0218e-41 0.13581377 0.047324583 0.10475797 -0.06464252 -5.7736085e-19 -3.75444e-14
0.072626166 1.71482e-40 0.060717512 0.03835288 -1.37846e-40 0.19399811 0.07652584 -0.03166485
-0.07055223 -0.0078102015 -0.015127231 -0.01685892 8.966888e-12 -0.00071303087 0.0933144 0.096634835
0.0069851475 0.024245044 9.8022e-41 -0.08907146 -0.02962009 -5.543e-41 2.7096858e-09 -6.3913e-41
-9.29e-42 -7.0396e-41 -1.20865e-40 0.04291869 6.6055124e-38 0.13769588 0.071553074 0.10443763
1.2981e-40 -0.023702657 -2.65923e-40 -9.979069e-06 3.236e-42 2.3422133e-30 -0.018058369 0.02038321
9.28e-41 -0.0016587971 0.035443135 4.0292436e-09 -2.957e-42 -0.013531416 -1.98022e-40 -0.026171457
-0.03753457 -0.021684473 -0.026448706 1.1397012e-05 0.051668003 -2.51721e-40 -0.07140199 0.033918303
0.02351936 0.1232577 1.8827597e-08 -0.01215584 2.3528755e-05 0.044537935 0.043754008 5.413925e-13
0.0012306537 9.6349e-41 3.0285e-41 -0.08071206 0.10636924 -0.12714817 2.65305e-40 8.0883e-41
-7.813887e-06 -0.17262402 0.06590942 0.0855103 2.77739e-40 -0.087454885 -0.089367434 -1.1827e-41
-5.4911e-41 -0.12263015 0.07059554 -0.023872864 -0.010409651 0.068876445 -0.11740881 -5.098155e-09
0.004383281 1.26614e-40 -3.4667e-41 -0.05439785 0.003038443 0.027179582 2.1116e-40 0.08599853
4.3538513e-17 0.12651715 2.2657036e-20 -0.06260557 -1.29533e-40 -3.6001e-41 -8.9737696e-11 0.08478433
3.352e-42 2.476e-40 0.0020685848 -0.22525632 -0.15246597 0.06006137 -0.03768108 4.8175e-41
9.4574e-41 0.019164799 0.072502 -0.07041708 0.02232255 -0.076387234 -4.72012e-22 0.012170464
1.94553e-40 2.76976e-40 0.104256 -0.23214656 0.1469346 -0.015886301 -4.890803e-17 -1.5184657e-15
-0.00057997555 -3.145e-42 -0.022854265 -0.017398806 2.34429e-40 0.062022656 -0.04145931 -0.0973338
-0.1953042 -0.06112131 -0.003635101 -0.038323425 -1.6761289e-13 0.01819884 -0.008831008 -0.08864595
-0.06697358 -0.0020190752 2.52556e-40 -0.15032966 -0.09014669 -4.776e-42 -3.3292071e-09 -6.5316e-41
-8.5193e-41 1.90727e-40 1.0198e-40 0.045302782 -1.3927482e-27 0.10951521 -0.013393305 -0.035262026
2.08561e-40 0.05549453 -1.32867e-40 -3.1961883e-07 9.0834e-41 1.9024941e-31 -0.027229328 -0.12523685
-1.93346e-40 -0.15314625 0.024769232 -1.528232e-09 -1.84492e-40 -0.094747216 4.2154e-41 -0.12715848
-0.05047411 0.007837137 -0.09521049 1.35186465e-05 -0.0707402 -2.2764e-40 -0.050795842 -0.02278009
-0.055776343 0.14754763 -1.4080124e-08 0.05618129 -0.0003948897 0.021535663 0.13317186 5.277798e-13
-0.00054653676 3.093e-41 5.1503e-41 0.042027675 -0.118685156 -0.059792746 -8.558e-41 -2.20923e-40
-1.2319486e-05 -0.16285989 -0.031265534 0.013438522 -7.9018e-41 -0.10170746 -0.11497316 -6.043e-41
1.42924e-40 -0.14076017 -0.09512972 0.0020616588 0.020208685 -0.030281046 -0.022290245 3.5058143e-09
0.06843292 -1.13742e-40 2.42007e-40 -0.03253862 0.13500641 -0.117862694 -3.9456e-41 0.03774091

bn2.module.weight f4 [128]
00000000: 69d5 2d3e 2ee3 d73d d97c cb38 79b9 103e
00000010: 2c45 4e3e 784e a9bb d1b3 0000 2e53 0d3e
00000020: e063 0180 5a48 0080 e215 0000 5db4 0c3c
00000030: d228 883e d632 70b5 a2bf 3c3e d0b7 53bb
00000040: 36e8 913e 57b0 f4ac da04 093f d407 0080
00000050: c89d 11be b5d0 0180 03f0 003e ba9e 113f
00000060: f154 643e 8fdd 0000 b12f 1a3e a478 5838
00000070: d344 0100 9f1f 693e b94b 0eb3 232a f4ab
00000080: 5505 812a 76e8 f63d c84d 183e a75f 4fbb
00000090: 7c16 d73d 4a7c 1029 86ec 1238 c723 0380
000000a0: cf82 9c3e 56b5 202d 8563 0080 5c45 7c3e
000000b0: 4820 1c3e 4b28 c3a9 a05b cf20 b813 6f3e
000000c0: 882e 063f 868b 0080 ab69 473e 1a9d 9d34
000000d0: e729 213c 9bfe e999 0ae2 013f 857a 26bb
000000e0: ba1a 7a3e c0a4 f63c e7a4 3ca5 103c 9531
000000f0: b56d 0000 ecf3 073e 6941 bba3 6817 0d3e
00000100: 39c2 a53d eaba 1433 b16c 6139 5fac 423e
00000110: 9bd3 5f3e 95fd 203e e0d0 0d3e 63d5 3d3e
00000120: 590f 0080 bd3c 08a3 a69a 7d3e 5cbd 573e
00000130: fe33 583e b66e 300b ca94 893e e5bd 159e
00000140: f788 213e eb60 ec3d 6455 3a22 6074 3320
00000150: cb11 8f3e 0ba4 0080 6847 8f3e af8a f83d
00000160: 4e30 0100 6adf 843e 87c8 b026 fa67 0180
00000170: a92f 533b 5d0f ca3e b18c 0a3e a9b0 0080
00000180: 881e 0000 a90f 6e3e b993 0000 b003 0280
00000190: f13e 3e10 0d16 0080 f056 513e b434 463e
000001a0: 6f05 413e 6fa7 0280 9055 a0b8 06bf 8c3b
000001b0: 8960 743e a1f5 f19e b05d 6a34 1449 cb34
000001c0: 2a16 ba3e a553 243e 32a0 fc3b a676 9118
000001d0: a1a8 13af aa82 e623 d82c 4936 f3d3 733e
000001e0: f301 6f3e 2bd9 4d3e 3519 ebb3 f45d 873e
000001f0: daea 443e 43e9 633e 83dc 303e 2e49 0000
0.16975941 0.10541378 9.703049e-05 0.14133252 0.20143574 -0.005166825 6.4506e-41 0.13801262
-1.27664e-40 -2.5955e-41 7.85e-42 0.008587924 0.26593643 -8.9480943e-07 0.18432477 -0.0032305606
0.28497475 -6.9544748e-12 0.5352303 -2.808e-42 -0.14220345 -1.66705e-40 0.12591557 0.5688282
0.22298028 7.948e-41 0.15057255 5.161077e-05 1.16525e-40 0.22765969 -3.313082e-08 -1.7348938e-12
2.2918703e-13 0.12056057 0.14873421 -0.0031642707 0.105023354 3.2082227e-14 3.5029392e-05 -2.88341e-40
0.3056855 9.135212e-12 -3.5701e-41 0.24635834 0.1524669 -8.666729e-14 3.5127796e-19 0.23347366
0.5241475 -5.0052e-41 0.19473903 2.9357835e-07 0.00983665 -2.419447e-23 0.50735533 -0.0025402617
0.24424258 0.030107856 -1.6362272e-16 4.343299e-09 3.9355e-41 0.13276643 -2.0302283e-17 0.1377846
0.08093686 3.4628933e-08 0.00021498163 0.19011067 0.21858065 0.15721734 0.1384921 0.18538432
-5.506e-42 -7.385437e-18 0.24766025 0.21068329 0.21113583 3.3979657e-32 0.2687133 -7.9272636e-21
0.15774904 0.11541923 2.5252906e-18 1.5200395e-19 0.27943262 -5.8848e-41 0.27984166 0.12135827
1.09164e-40 0.259517 1.2266806e-15 -1.29135e-40 0.0032224453 0.39464846 0.13530232 -6.3374e-41
1.0953e-41 0.23248161 5.2993e-41 -1.84994e-40 3.751938e-29 -7.91e-42 0.2044332 0.19356042
0.18849729 -2.43735e-40 -7.645332e-05 0.0042952327 0.2386495 -2.5618457e-20 2.1827032e-07 3.7864868e-07
0.36345035 0.16047533 0.0077095265 3.7601426e-24 -1.3429481e-10 2.4991988e-17 2.9977436e-06 0.23811321
0.23340587 0.20102374 -1.09476254e-07 0.26438868 0.19230214 0.22256951 0.17271619 2.6252e-41

bn2.module.bias f4 [128]
00000000: 1029 853e 7935 643e b956 b5ad d273 7e3e
00000010: 778f a23e 3e76 22bd 5f07 0180 b934 6b3e
00000020: 0d48 0080 8da8 0280 dc07 0080 9d81 7dbb
00000030: b3b0 e33d 07a7 76aa 7e11 f93d 607b 13bd
00000040: 6d96 943d e0b3 6d1f e337 a7bd d968 0080
00000050: 5484 96be f12d 0180 26b5 f2bd 3c63 cdbd
00000060: 16f5 833d ff9b 0080 1663 5bbd d791 16ad
00000070: 39ac 0080 2020 303e 0f7b a5a4 5b73 6ca4
00000080: ca4b f0ba 788d ec3d a60f 073c 7b01 9dbd
00000090: 2385 d5bc ce86 1aba b0dd f3af b094 0080
000000a0: 86fe 8d3e 4614 2ab5 18f7 0080 27e1 5e3e
000000b0: 6253 183e 40d3 98b7 a82d dcae fcc0 12bd
000000c0: cee2 babd 9eb4 0080 6e26 753e 249e 22bb
000000d0: 70c6 3bbc a08f dba6 dd18 ddbd a434 86b4
000000e0: 9e58 413e 5d14 efbc f2e5 c6b4 3151 11ab
000000f0: 6b02 0080 71e9 63be 1a17 95b1 897c a2be
00000100: 83d0 143e 16aa 1eaa 4cc3 c4bd 6455 b73d
00000110: 7a96 d63d d54a ef3d c94d 213e 6cfe 053e
00000120: 3801 0180 fc81 36b1 9c56 4e3e c143 8a3d
00000130: 370d 863d 40c5 0188 b2aa 843e e327 19ad
00000140: 8775 2a3e 1c38 8dbe 2cc6 44b0 4a88 acae
00000150: 91b0 233e 32d8 0080 1957 073e 4195 2f3e
00000160: 1363 0180 8818 4a3e eb60 91a9 8ec9 0180
00000170: ef68 2cbb e74b 943e b738 383e 661b 0080
00000180: 165b 0280 3327 7c3e 5b4b 0180 ee6c 0080
00000190: b8a0 789e c9c3 0080 98d1 3f3e a793 0c3c
000001a0: 8af1 30bc be1d 0080 2e38 85b9 ecb4 26ba
000001b0: 5b55 683e dd32 f0ac b158 3ab5 f00f 74ae
000001c0: 93ab 0bbe 9977 a3be 8f36 eabd 0656 03a4
000001d0: 5256 b2b6 5e26 29a8 4e0c eab0 24ae fe3d
000001e0: 3125 213e 94db 013e 420a 9da9 e966 803e
000001f0: 265e ee3c 3234 453e 450c b03e 7dc4 0280
0.2600789 0.22286023 -2.061583e-11 0.2484887 0.3175008 -0.039663546 -9.448e-41 0.22969331
-2.5847e-41 -2.44136e-40 -2.82e-42 -0.0038681992 0.11117687 -2.1907138e-13 0.121615395 -0.03600633
0.07255254 5.033549e-20 -0.081649564 -3.7612e-41 -0.29397833 -1.08316e-40 -0.118509576 -0.10028693
0.06443231 -5.5961e-41 -0.053561293 -8.558896e-12 -6.1782e-41 0.17199755 -7.176581e-17 -5.1272052e-17
-0.0018333134 0.115504205 0.008243477 -0.07666298 -0.026064461 -0.0005894721 -4.435896e-10 -5.3339e-41
0.27733248 -6.3359437e-07 -8.864e-41 0.21765576 0.14875558 -1.8218183e-05 -1.0012552e-10 -0.035828575
-0.09125291 -6.4793e-41 0.23940441 -0.0024813497 -0.011460885 -1.5235107e-15 -0.10795758 -2.4997746e-07
0.18881461 -0.029184515 -3.704768e-07 -5.1627024e-13 -8.67e-43 -0.2225702 -4.339097e-09 -0.31735638
0.14532666 -1.409223e-13 -0.096075624 0.08951834 0.1047792 0.11684195 0.15752329 0.13085335
-9.2273e-41 -2.6558373e-09 0.20150226 0.06751204 0.06545489 -3.905139e-34 0.2591148 -8.7059e-12
0.16646396 -0.2758187 -7.1586004e-10 -7.845864e-11 0.15985323 -7.7556e-41 0.13216819 0.1714678
-1.27377e-40 0.1973592 -6.456106e-14 -1.6414e-40 -0.0026307662 0.2896416 0.17990385 -9.829e-42
-2.16346e-40 0.24624328 -1.18868e-40 -3.9077e-41 -1.31622465e-20 -7.0234e-41 0.18732297 0.008580125
-0.010799775 -1.067e-41 -0.00025409594 -0.0006359357 0.2268881 -6.8268572e-12 -6.941946e-07 -5.5493332e-11
-0.13639669 -0.31927183 -0.114361875 -2.847896e-17 -5.3148624e-06 -9.389704e-15 -1.7029238e-09 0.124355584
0.15736844 0.12681419 -6.97398e-14 0.25078514 0.029097628 0.19258192 0.3438436 -2.54158e-40
