result/ngc/model.pth (torch, 348423 bytes, 31 tensors)

causal_weight f4 [129, 129]
00000000: 1918 31b7 2789 6db9 065a 3738 6970 ae38
00000010: 1114 79b9 a469 243a 52b9 2939 ea9c 51b9
00000020: 2590 bb39 3758 8f39 9bf0 1bba 1c2f 1cb9
00000030: 4f48 6aba 8f85 09b9 6592 b039 9955 23b9
00000040: ba14 7cb9 c94e 59b9 2fd1 fb37 0975 29b9
00000050: 508a 64b9 6844 a7b9 d9e6 6fb8 6690 f7b9
00000060: abef d6b8 79fd 1eba 67f7 7038 9f98 9739
00000070: d9b3 9eb9 aed1 e239 52f3 b3b9 f99b ef38
00000080: cfea bf38 78be aeb9 feb1 2a39 bcf4 0aba
00000090: 2ae2 62b9 d9de 8e39 ef07 da39 8b51 0cba
000000a0: f406 a2b9 aee3 8e39 7351 23b9 69bf 00ba
000000b0: 68c5 71b8 534c ffb8 b57b dcb9 6231 adb8
000000c0: 09b6 173a 88f3 bfb9 2cc3 63b9 867a 9bb9
000000d0: 639f 33ba 3d17 07ba 8c55 13b9 0be5 99b8
000000e0: b7fb e9b9 0c4f c1b9 6c5b 0ab9 6f92 98b8
000000f0: aa50 e836 c3f7 d4b9 634b 6eb9 cdbe 0839
00000100: e1d3 71b9 b753 e2b9 bd77 dbb8 560c 1739
00000110: cafc 7ab9 6b20 e239 df9f f638 8495 c8b9
00000120: d195 2139 0343 38ba ece3 dcb9 4db4 27ba
00000130: 1e85 b939 5121 0f39 7203 ba39 de9b c3b9
00000140: 0a3f 10ba 4a6f d7b8 fe70 58b9 6ea2 62b8
00000150: 7fa2 8836 eca1 64b9 fc71 a138 bc9e c337
00000160: 9c3a 4836 005f 6239 0c6c 4338 e07a 1bba
00000170: 119f fd38 bd1c fe39 0089 553a 2435 6739
00000180: 34db 69b9 c2e5 12ba 1ec7 c339 6953 b5b8
00000190: bca2 ce39 9e33 e1b8 5881 023a 70b1 bc39
000001a0: b785 97b9 213a 08ba 5b22 6c3a 229a 38b9
000001b0: 8e62 c7b9 d088 dc39 6b93 52b9 7b62 bbb9
000001c0: 4e4f 6739 557b dcb9 de7c d5b9 da06 4838
000001d0: 3a26 5e3a c785 cf39 95d4 10b9 367a 39b9
000001e0: f54b a739 091a ef37 b07a 04ba d23b 58b9
000001f0: 7426 f7b6 fb31 543a 83fe 75ba c341 c239
00000200: 5aa1 4c3a ffd8 aab9 2673 40b9 314a 23b9
00000210: d951 8cb9 18e5 103a 5f21 2db8 de33 1639
00000220: 3425 5fba fb7b a239 d84b 9739 e500 84b9
00000230: e795 2bb8 618a 3eb9 e412 bfb9 6922 dfb9
00000240: 81fa 5b39 db56 d4b8 62e9 373a cd54 07ba
00000250: daf1 0f3a 1026 f5b8 bfe3 be39 2364 93b9
00000260: 7854 b939 c76d 0cb7 22ab b1b9 2f5e 0eba
00000270: 935d 82b8 9675 cab9 ba00 4638 5dda 5f3a
00000280: 56ff 1f3a 10e5 9f39 3c3f c0b9 1d63 55b9
00000290: 37d8 23ba 68d1 77b9 ee9d c739 2594 4f39
000002a0: be5a 54b9 5e17 18b8 40c9 08ba 0692 f3b8
000002b0: 569d c1b9 11bb ddb9 66b1 fcb9 e626 93b9
000002c0: 6bc0 f6b9 6ff9 bd39 9fb2 aab9 95cb 8739
000002d0: 05da d438 287f f5b8 176c 9939 8b9f 5bb9
000002e0: 2dc4 01b9 3cdf 253a 0ee1 7fba 8bcd a0b8
000002f0: 2f59 b1b9 1ed2 4c3a 8cbb 3b39 70a7 35b9
00000300: bddf e3b9 6ba1 a939 8ba3 b2b9 fd92 a639
00000310: e3dc 00ba 9cdd ed39 8cc9 ed39 ab3c 913a
00000320: 6207 d4b9 3437 bd39 d2b8 c037 b5b5 16ba
00000330: 6365 0338 7a3f fc37 3afa 2dba a247 48b9
00000340: 803b 39ba bd2f 9437 7b7e e539 48f3 4aba
00000350: 911f 7339 6d81 8039 b34b 90b8 18a1 a1b9
00000360: 687b 7db8 5746 00b9 6c82 03b9 4a6a 08b9
00000370: ead7 8538 36f0 81b9 3d82 0eba bdbf 14ba
00000380: 9d42 9a38 8f16 e939 994b 0d3a 6e42 4cb9
00000390: d3d4 4aba 36b9 9138 2c22 3539 c42b 26b9
000003a0: a438 ed38 389c 1fb8 5184 dcb9 28f3 93b6
000003b0: 0ebb 9438 3283 4bb9 e0d9 453a 7fe8 d5b9
000003c0: 3b5a 37ba 06f1 ae39 eb30 66b9 68d1 24b7
000003d0: cb89 8436 835e ae39 e383 33b9 5516 4d37
000003e0: 8beb 83b9 623c 53ba c2e8 c4b6 31a4 213a
000003f0: 1cb4 91b8 553d 8239 2246 e3b9 8aa5 bbb9
-1.0555633e-05 -0.00022653175 4.371444e-05 8.3179046e-05 -0.00023753966 0.0006271845 0.00016186133 -0.00019990248
0.00035774815 0.0002734081 -0.0005948634 -0.00014894869 -0.00089371664 -0.00013115093 0.00033678408 -0.00015576779
-0.00024040314 -0.00020724082 3.001894e-05 -0.00016160695 -0.000217953 -0.0003190369 -5.7197034e-05 -0.00047219096
-0.00010248957 -0.0006064992 5.745087e-05 0.00028914676 -0.00030270105 0.00043262303 -0.00034322828 0.0001142546
9.151326e-05 -0.00033329776 0.0001627877 -0.00053007505 -0.00021637292 0.00027250385 0.0004158611 -0.0005352727
-0.00030904228 0.00027253985 -0.00015575234 -0.0004911335 -5.7642726e-05 -0.00012173564 -0.0004205384 -8.258481e-05
0.0005787318 -0.00036611804 -0.00021721114 -0.0002965519 -0.00068520586 -0.0005153304 -0.00014050881 -7.338271e-05
-0.00044628765 -0.00036870723 -0.00013194763 -7.2752e-05 6.9235293e-06 -0.00040620388 -0.00022725532 0.0001304105
-0.00023062482 -0.00043168452 -0.00010465037 0.00014405078 -0.00023936029 0.00043130232 0.000117599724 -0.0003825837
0.00015409967 -0.00070290285 -0.00042131485 -0.00063974113 0.0003538513 0.00013649954 0.00035479252 -0.00037309428
-0.00055025576 -0.00010272728 -0.00020641458 -5.4033873e-05 4.072033e-06 -0.00021804095 7.6983095e-05 2.3319728e-05
2.9836438e-06 0.0002158843 4.659225e-05 -0.00059310906 0.000120936085 0.00048468067 0.000814572 0.00022049673
-0.00022302271 -0.00056036946 0.00037341652 -8.646289e-05 0.00039412628 -0.000107384505 0.000497838 0.00035990356
-0.0002890059 -0.000519665 0.0009007805 -0.00017605026 -0.00038029667 0.00042063603 -0.00020082078 -0.00035740793
0.0002205942 -0.0004205356 -0.0004071956 4.7690097e-05 0.0008474324 0.0003958179 -0.00013812103 -0.00017688502
0.00031909315 2.8503144e-05 -0.0005053682 -0.0002062165 -7.36565e-06 0.0008094606 -0.00093839335 0.0003705156
0.00078060257 -0.000325866 -0.00018353443 -0.0001557253 -0.00026763862 0.00055273017 -4.1277493e-05 0.00014324437
-0.00085123186 0.0003099142 0.00028857472 -0.00025177668 -4.0909184e-05 -0.00018171362 -0.00036444433 -0.00042559512
0.00020978788 -0.00010125126 0.0007015673 -0.00051624776 0.0005491056 -0.000116896 0.00036409308 -0.00028112633
0.00035348884 -8.37021e-06 -0.00033887575 -0.00054309046 -6.2163126e-05 -0.0003861605 4.7207555e-05 0.00085393136
0.00061034167 0.00030497508 -0.00036668207 -0.00020350186 -0.0006250175 -0.00023633766 0.00038073905 0.00019796246
-0.000202517 -3.6261386e-05 -0.0005217977 -0.00011614342 -0.00036929053 -0.0004229178 -0.00048197358 -0.00028067006
-0.0004706414 0.00036234732 -0.0003255801 0.00025900887 0.00010149557 -0.00011706195 0.00029262967 -0.00020944902
-0.0001237548 0.0006327515 -0.0009761014 -7.66768e-05 -0.00033826518 0.00078132923 0.00017903576 -0.0001732388
-0.00043463512 0.00032354458 -0.00034072655 0.00031771502 -0.0004915727 0.00045369274 0.00045354327 0.0011080703
-0.00040441292 0.0003609002 2.2974247e-05 -0.00057491224 3.1327258e-05 3.00703e-05 -0.0006636713 -0.00019100172
-0.0007066056 1.7665205e-05 0.0004377252 -0.000774194 0.00023186045 0.00024510492 -6.880555e-05 -0.00030828337
-6.043483e-05 -0.00012233235 -0.0001254172 -0.00013009566 6.382151e-05 -0.00024783768 -0.0005436277 -0.0005674323
7.3557e-05 0.0004445803 0.0005389988 -0.00019479703 -0.0007737402 6.948637e-05 0.00017274235 -0.00015847298
0.00011311591 -3.8054044e-05 -0.00042060253 -4.4092485e-06 7.0920316e-05 -0.00019408463 0.00075474195 -0.0004079975
-0.00069943414 0.00033367443 -0.00021952733 -9.823918e-06 3.9499478e-06 0.00033258283 -0.00017119902 1.2224152e-05
-0.0002516176 -0.0008058009 -5.8683518e-06 0.0006166129 -6.947687e-05 0.00024841228 -0.00043349067 -0.00035790756

lin_in.weight f4 [64, 12]
00000000: d254 f8bb aa2c 193b 3d33 183a 4daa b0bb
00000010: d71a 193c 3bb3 aebb 7b17 8eba 8bda 8eba
00000020: a629 9d3c c648 893b b82a 3cbc 0376 863c
00000030: fbff 593e 695c 69be a9ca eebb 1aaf 333d
00000040: 3abc c33d cf65 1b3d b55b acbd d578 6dbd
00000050: f815 9b3e afb2 cabd 40c1 85bd 11e6 0c3e
00000060: b29f 36bc 3825 c6bc 635a bb3c 86fa e0bc
00000070: f707 d53c 6aff e2bc 4141 433c 36b6 aebc
00000080: e12c 64bc a0fe 263d d198 14bd d02d cf3c
00000090: 83c6 13ba 31b5 16bd fb4a b23d e491 f2bc
000000a0: 8d00 5c3d 4872 06bd 37cb bcbc e15c a6bc
000000b0: cc12 9bbb d91d ebba d99c e1bd 8c95 fc3c
000000c0: 9f2a 6c3d b354 9abd da27 b03c 1ed6 74bd
000000d0: ea9f 20bc 06a6 74bd 28dd 0a3d f4ca c83d
000000e0: c123 c53c d9ff acbd c26d c0bb e1a7 afbc
000000f0: e302 493c 7361 10bc 4bf5 df3b e2df 75bc
00000100: c304 873b 1ed0 73bc 4c4e 7f3b 7ea6 7fb8
00000110: ecc4 2b3a 26fc fd3b a669 083c d08b 2f3c
00000120: 4e33 adbe ec6a 1dbe 83a0 553d 5623 86be
00000130: b9b5 ec3d dc14 87be 289a 51bd a008 e6be
00000140: 33e6 d0bd c23b edbd 7f16 5c3c d5b9 133e
00000150: 908c 33bd 4054 4cbb 138c a63c e1c5 12bd
00000160: 40fa ce3c da40 12bd 36cb f33c b142 65bc
00000170: bcd5 183d c52f 7f3c 347b f93a d406 2f3c
00000180: e831 1dbf 3015 d33d 48c0 a1bc 460b 83be
00000190: d263 3abd a053 86be 14ee fe3c d404 633e
000001a0: f371 c1be 1f0f 93bc c914 7b3c 44d8 f0bc
000001b0: ac38 ad3b 9e08 9cba e764 2b3c 0b7d aebc
000001c0: 7a53 0a3d 21b0 b0bc 0fec bc3c 88e6 76bd
000001d0: 7354 a0bc f2ee 0e3d 9f02 563c 499d d13c
000001e0: bf1e 93be c6f7 533d bfed 1d3c f111 1ebe
000001f0: a2ab 7abe 2a43 1ebe 60da 0cbc 62e3 853c
00000200: 777c 103f bf28 3abd 43e6 0a3d 9b48 3a3e
00000210: 09f1 c0ba 5ab8 36bc f612 d73b 23d3 52bc
00000220: 653f df3b 3854 53bc 7a83 bebb 3d7c d139
00000230: 9b40 9339 5735 603c 4d85 b7b9 fa37 363c
00000240: 406a dbba 0f2a a3bc be7c 7e3b 03ae 7dbc
00000250: 41c3 aa3c 889f 7dbc 867f 093b 8c72 a3bc
00000260: ddef 123c e85f 3a3b f306 81bb a1ab 92ba
00000270: 791e c5b6 43cc 5b35 e3ba 8837 6b1e 8eb6
00000280: 7ccf 3c37 087a 8db6 1080 afb5 af9f 8235
00000290: 2eee c136 9402 0a35 b10b bcb5 59c0 2636
000002a0: d64e 06bb 5c0b 7bbd dfc4 ec3c cca8 38bd
000002b0: 6250 253d 6f70 37bd 5185 0e3c 8651 0abd
000002c0: 4248 103b c454 883d ad91 5d3b 6c73 193d
000002d0: aba0 843e 6258 48bd bada 9c3c d1a5 b83d
000002e0: 2e9e a23e 96f2 8f3d ad97 0dbd 9e5d 85be
000002f0: a25f 00be 7eff 94bb 5e76 d53c 504d 0ebe
00000300: 1c0c 973b a63c abbc df2d c33b d865 31bc
00000310: d1e2 c13c 9afc 34bc 2fc3 b7bb 8049 bfbb
00000320: 5a39 30bb 3e50 203c 0bfd 0a3c b492 053c
00000330: 3735 e2b8 24a8 c2b9 ac94 1e3a d530 7bb9
00000340: 97b3 d038 adc8 7bb9 f94d 5239 4286 81b7
00000350: 0112 9e39 9c21 3c3a f3c0 ceb9 fda5 7bb9
00000360: 4bc1 093d fdd5 8c3e 9211 203d 2797 f739
00000370: ae7c 833e 961d 323b a518 07bd 8ba1 0e3d
00000380: 2828 323f 2b65 57bd ead5 163d 6486 323d
00000390: b54e 813b b11a 33bd 478b c43d 8812 c2bc
000003a0: a1ad 96bd f1d9 b4bc b09d 943d 162c 443c
000003b0: 568f 8abe 8249 7e3d a167 42bd b242 98ba
000003c0: 6891 54b9 eee2 f3b7 1a08 2b3a 48de 69b9
000003d0: 1645 6d37 9e27 6db9 b728 4eb9 8780 12b8
000003e0: 77a5 04b9 2e3a c1b7 9396 8a39 6427 8e39
000003f0: aec9 d039 f79a ecbc 5d97 b23b dff5 33bc
-0.0075784707 0.002337257 0.0005805975 -0.005391395 0.009344778 -0.0053314245 -0.0010840738 -0.0010898871
0.019184899 0.0041895835 -0.011484794 0.016413694 0.21289055 -0.22789158 -0.0072873426 0.04386816
0.09557386 0.03793889 -0.08415929 -0.057976563 0.30290198 -0.098973624 -0.06531 0.13759638
-0.011146473 -0.02418767 0.022870248 -0.027463209 0.026004774 -0.027709682 0.011917413 -0.02132712
-0.013926716 0.040770173 -0.03627855 0.0252904 -0.00056371855 -0.03679389 0.08705708 -0.029610582
0.053711463 -0.03282383 -0.02304612 -0.02030796 -0.0047324654 -0.0017937972 -0.110162444 0.030833028
0.057657834 -0.07535686 0.021503378 -0.05977451 -0.0098037515 -0.059728645 0.033902317 0.09804335
0.0240649 -0.084472366 -0.005872459 -0.021442356 0.012268755 -0.008812296 0.006834661 -0.015006991
0.0041204407 -0.014881162 0.003895658 -6.0951796e-05 0.0006552476 0.0077510057 0.00832597 0.010714486
-0.33828205 -0.15372819 0.05215503 -0.26198834 0.11558098 -0.26383102 -0.051172405 -0.44928455
-0.10200157 -0.115836635 0.013433098 0.14426358 -0.043835223 -0.0031178147 0.020330464 -0.035833243
0.025265813 -0.03570638 0.029759984 -0.013992951 0.037313208 0.015575354 0.001903391 0.01068278
-0.61404276 0.103067756 -0.019745007 -0.25594538 -0.045505352 -0.26235676 0.031119384 0.2216981
-0.3778225 -0.017951546 0.01532478 -0.029399998 0.005286297 -0.0011904424 0.010461069 -0.02129986
0.033771016 -0.02156836 0.02306178 -0.060278445 -0.019571519 0.034895845 0.013062148 0.025587695
-0.28734395 0.051749967 0.009639203 -0.15436532 -0.24479535 -0.15455309 -0.0085969865 0.016343776
0.5643992 -0.045449015 0.033911 0.1819176 -0.0014720272 -0.011152351 0.0065635396 -0.012867722
0.006812977 -0.012898497 -0.005814013 0.0003995615 0.0002808616 0.013684592 -0.00035003797 0.011121744
-0.0016740039 -0.019917516 0.0038831676 -0.015483382 0.020845057 -0.01547993 0.002098055 -0.019952081
0.008968321 0.0028438512 -0.003937596 -0.0011190065 -5.874605e-06 8.18811e-07 1.629949e-05 -4.235471e-06
1.1253982e-05 -4.2163338e-06 -1.3075787e-06 9.732229e-07 5.779576e-06 5.141276e-07 -1.4010494e-06 2.4847889e-06
-0.0020493767 -0.06129013 0.02890247 -0.045082852 0.040359862 -0.04478496 0.008698777 -0.033769153
0.0022015725 0.06656793 0.0033808753 0.03746359 0.2590383 -0.048912413 0.019147266 0.09016002
0.31761307 0.070286915 -0.034568477 -0.26047987 -0.12536481 -0.0045470586 0.026057418 -0.1389668
0.004609598 -0.020902943 0.005956396 -0.010827504 0.023667725 -0.011046553 -0.0056079845 -0.0058376193
-0.0026889653 0.009784756 0.008483182 0.0081526525 -0.00010786432 -0.00037127838 0.00060493755 -0.00023955417
9.951664e-05 -0.00024011983 0.00020056208 -1.5440517e-05 0.00030149522 0.0007176639 -0.0003943514 -0.00023999061
0.033631604 0.2750701 0.039079256 0.00047224129 0.2568106 0.002717828 -0.032982487 0.034822028
0.69592524 -0.052586716 0.036825098 0.043585196 0.00394615 -0.043726627 0.095968775 -0.023690477
-0.07357336 -0.022076579 0.07256639 0.0119734015 -0.27062482 0.06208182 -0.04746211 -0.0011616556
-0.00020272064 -2.907353e-05 0.00065243396 -0.00022303418 1.4142386e-05 -0.0002261684 -0.00019660858 -3.4928813e-05
-0.00012650141 -2.3034485e-05 0.00026433598 0.000271137 0.00039823115 -0.028882487 0.005450173 -0.010983913

lin_in.bias f4 [64]
00000000: 1e44 ebbc 6f93 833e 1526 15be 8268 83bd
00000010: bfb8 30be dda6 56bd 96db 72be 7e67 30be
00000020: bff2 87be 6c32 08be 21a1 bbbe f8b5 a7bc
00000030: 5e50 a8bc 3a25 64b8 bcef 47be b55e 49be
00000040: 077f c2bd fcf9 18bb d1d8 e7bd 862b c0be
00000050: 439a c2ba 7a16 24bd a32b fabd 245d b6bd
00000060: c410 863d 72e0 f7bd 7755 ebbd 9bc5 ccb9
00000070: 36c4 18be 48fb f4bc ecc8 55bb 4eeb bfbe
00000080: 05ee f5bc c807 87bd 5266 06bf 475e 8bbe
00000090: 2e27 a0bd 3cb1 2abe a6ec 1cbe 61de 0dbd
000000a0: 491a febd d1d1 44ba 4eae 92bd 45c4 d6bd
000000b0: 7626 0fbc 5d80 79be ff22 fdbe 3ea1 22bd
000000c0: 16c4 b7bc b4e7 e1be 88b9 bebe fec2 39bd
000000d0: 3a02 07be 9607 a3be ce91 efbb c8d8 a0bd
000000e0: 9fce 19be 16fa 92bc aa1d 8dbe f4e2 aabd
000000f0: 6073 04bd dd99 e5bc 984d 66bd 07b5 acbe
-0.028719004 0.2569842 -0.14565308 -0.06416418 -0.17257975 -0.052405227 -0.23716578 -0.17226979
-0.26552388 -0.13300484 -0.3664637 -0.020472512 -0.020546135 -5.4394106e-05 -0.19525045 -0.19665034
-0.09496885 -0.0023342362 -0.11320651 -0.37533206 -0.0014846999 -0.040060498 -0.12215354 -0.08904484
0.065461665 -0.121033564 -0.114909105 -0.0003905714 -0.14918599 -0.029904976 -0.003262098 -0.3748421
-0.030020723 -0.06593281 -0.5249988 -0.27220365 -0.07819973 -0.16669172 -0.15324649 -0.034635905
-0.12407357 -0.0007508072 -0.07162152 -0.10486654 -0.008737197 -0.24365373 -0.49440762 -0.039704554
-0.022432368 -0.44122088 -0.37250924 -0.045351975 -0.13184443 -0.31841725 -0.0073110824 -0.07853848
-0.15020226 -0.017941516 -0.27561694 -0.08344069 -0.032336593 -0.02802747 -0.056226343 -0.33731863

causal_fusion.weight f4 [64, 128]
00000000: 641b 0080 af45 3da3 5a1b 0080 c51b 0080
00000010: 291d 0000 bd1c 0080 8c1b 0000 a31b 0080
00000020: 7a1b 0000 d81b 0000 f20c a592 c31f 0000
00000030: d31b 0080 2a1f 0000 bc1b 0000 0bf9 dc03
00000040: 591b 0080 3821 0000 418d e4a5 a920 0080
00000050: 1620 0080 651b 0080 831c 0080 a11e 0000
00000060: a11b 0000 711c 0000 8320 0000 be1c 0000
00000070: 681b 0080 a91b 0000 751d 0080 16a5 ea1b
00000080: 8b21 0080 841c 0080 791b 0080 831d 0000
00000090: fd07 b8ac 451c 0000 cc1c 0080 5d20 0080
000000a0: 6c1d 0000 e71f 0080 741b 0000 741c 0000
000000b0: fc22 0000 7a1b 0000 b22e b186 b21b 0000
000000c0: aa1b 0080 caab 8198 641b 0080 591b 0080
000000d0: dc1e 0000 0220 0080 df1b 0000 d50a 0280
000000e0: 581b 0000 1022 0000 901b 0080 d11d 0080
000000f0: e721 0080 641b 0080 291c 0000 9c1b 0080
00000100: 9b1c 0000 661b 0000 6320 0000 451c 0000
00000110: 1e1f 0000 601b 0000 f71b 0080 ba1c 0000
00000120: 5a1b 0080 821b 0080 5d1b 0080 8e1e 0000
00000130: d21b 0080 701f 0000 5c1b 0000 881b 0000
00000140: 6e1d 0000 be1d 0000 cb1b 0080 ba22 0080
00000150: ce1d 0000 7a21 0000 3322 0000 171d 0000
00000160: e21b 0080 061d 0080 2f1e 0000 9a1d 0000
00000170: b51b 0000 2a1c 0000 e51b 0080 6a1b 0000
00000180: 7e1b 0000 641b 0000 171d 0080 8521 0000
00000190: 791b 0080 e01e 0080 4420 0000 031f 0080
000001a0: aa1f 0000 931b 0000 3b1c 0080 4120 0000
000001b0: 6820 0000 d51d 0080 6e1c 0000 291c 0080
000001c0: 941e 0080 d71b 0080 9a1b 0080 a21b 0000
000001d0: af1f 0080 dd1b 0080 821b 0000 721b 0000
000001e0: cb1b 0000 3922 0080 5f1c 0080 dc1e 0000
000001f0: d11e 0080 941b 0000 e91b 0080 9e1c 0080
00000200: c5d9 d1bc 7b6c 9ebb 22d3 2839 4070 0dbc
00000210: 9d48 cfbc df66 67b7 9207 a3bc a61b 0080
00000220: d370 0b3d c538 943b e1a8 e73b 84d8 8f25
00000230: 78d2 07bc db1e 0000 1c77 08b5 ad98 163c
00000240: 3b1c 0080 da1b 0080 79e9 c7bb 51b4 433d
00000250: 827e 5837 4270 a7b8 8e6f 8ebb 4683 14b4
00000260: 7092 bfbc 1374 c13c 3496 bf3b a90d 972b
00000270: fd55 8b3b 84cf c0bb 1237 8436 499b 0cbc
00000280: 5327 5837 e320 0000 f2f5 72bb a72a c73c
00000290: a623 1f3d 8ef1 0fbb 601b 0080 6d1b 0000
000002a0: 0e31 3c3b 171d 0080 d165 6134 26d0 9e3c
000002b0: 539c f035 2663 6bbb e3cd 343c eb68 4539
000002c0: 289f 0d3a 0121 473d ed40 323c 361e f0bb
000002d0: 3f1f 0000 9b43 b43c 1c97 ad3b cad2 563c
000002e0: c76a 1ebc 9681 5b3b 2267 d7ba 621c 0000
000002f0: b12c dfb8 6856 debb 78a0 81b6 94e3 59bb
00000300: 4ded ab3b 37a3 393c 8023 0d38 0c24 8f3c
00000310: 434c 093c 5a3e 2d38 fd77 be3c db22 0000
00000320: 9bc2 e63c 5e65 16ba 392e 8f3c 0327 2125
00000330: c7c6 cb3c 921e 0000 7d04 f936 8f11 043c
00000340: 5b1b 0000 ce1f 0000 1a04 593c 7415 b33c
00000350: a733 4c36 7816 cbb7 56a0 21b8 043b 27b6
00000360: 3488 8a3c b582 c4ba 5036 8cba c3f5 d92b
00000370: 8c55 19bb 0c32 ac3a 4766 9235 ec0a c53b
00000380: ace1 8bb6 e91b 0000 0f8d 593c d58f 943c
00000390: ae22 a23c 2c0e 653b 5a1b 0080 1c1d 0080
000003a0: a949 59b9 7a1b 0000 0db3 2b35 8243 083d
000003b0: 3513 1b36 f2c7 c43b 4bd4 5a3c df73 4f38
000003c0: ff6c c5b9 5698 a73c b5a7 c63c 4052 983c
000003d0: 581b 0000 bd97 973c 366f 983c 821c 963c
000003e0: b36f e03c 8936 e038 ddfb af3c d31b 0000
000003f0: e450 1e39 e47a d83c 768f d037 ebb9 f03c
-9.826e-42 -1.0260467e-17 -9.812e-42 -9.962e-42 1.046e-41 -1.031e-41 9.882e-42 -9.914e-42
9.857e-42 9.988e-42 -1.0416155e-27 1.1394e-41 -9.981e-42 1.118e-41 9.949e-42 1.2987615e-36
-9.81e-42 1.1917e-41 -3.9647413e-16 -1.1716e-41 -1.151e-41 -9.827e-42 -1.0228e-41 1.0988e-41
9.911e-42 1.0203e-41 1.1663e-41 1.0311e-41 -9.832e-42 9.923e-42 -1.0567e-41 3.8818737e-22
-1.2033e-41 -1.023e-41 -9.855e-42 1.0587e-41 -5.2304814e-12 1.0141e-41 -1.033e-41 -1.161e-41
1.0555e-41 -1.1444e-41 9.848e-42 1.0207e-41 1.255e-41 9.857e-42 -6.664861e-35 9.935e-42
-9.924e-42 -3.351918e-24 -9.826e-42 -9.81e-42 1.107e-41 -1.1482e-41 9.998e-42 -1.87557e-40
9.809e-42 1.222e-41 -9.888e-42 -1.0696e-41 -1.2162e-41 -9.826e-42 1.0102e-41 -9.904e-42
1.0262e-41 9.829e-42 1.1618e-41 1.0141e-41 1.1163e-41 9.82e-42 -1.0032e-41 1.0305e-41
-9.812e-42 -9.868e-42 -9.816e-42 1.0961e-41 -9.98e-42 1.1278e-41 9.815e-42 9.876e-42
1.0557e-41 1.067e-41 -9.97e-42 -1.2458e-41 1.0692e-41 1.2009e-41 1.2268e-41 1.0435e-41
-1.0002e-41 -1.0412e-41 1.0828e-41 1.0619e-41 9.94e-42 1.0103e-41 -1.0007e-41 9.834e-42
9.862e-42 9.826e-42 -1.0435e-41 1.2025e-41 -9.855e-42 -1.1076e-41 1.1575e-41 -1.1125e-41
1.1359e-41 9.892e-42 -1.0127e-41 1.157e-41 1.1625e-41 -1.0702e-41 1.0199e-41 -1.0102e-41
-1.097e-41 -9.987e-42 -9.902e-42 9.913e-42 -1.1366e-41 -9.995e-42 9.868e-42 9.846e-42
9.97e-42 -1.2277e-41 -1.0178e-41 1.107e-41 -1.1055e-41 9.893e-42 -1.0012e-41 -1.0266e-41
-0.025616536 -0.004834709 0.00016100382 -0.0086327195 -0.02530318 -1.37926245e-05 -0.01990107 -9.918e-42
0.034043144 0.004523369 0.0070696925 2.4953262e-16 -0.008289926 1.1069e-41 -5.0837275e-07 0.009191674
-1.0127e-41 -9.991e-42 -0.00610083 0.047779385 1.2904058e-05 -7.98409e-05 -0.0043467944 -1.3831331e-07
-0.023385257 0.023614919 0.005846763 1.0732987e-12 0.004252194 -0.005884113 3.9403176e-06 -0.008581945
1.2883759e-05 1.1798e-41 -0.0037072864 0.02431233 0.038852356 -0.0021964046 -9.82e-42 9.839e-42
0.0028715762 -1.0435e-41 2.0991799e-07 0.019386362 1.792689e-06 -0.0035917251 0.011035415 0.00018826469
0.0005402439 0.04861546 0.010879737 -0.00732782 1.1209e-41 0.022004893 0.0052975547 0.0131117795
-0.009669012 0.0033493987 -0.0016433934 1.0182e-41 -0.00010641793 -0.006785203 -3.8631806e-06 -0.003324722
0.0052467943 0.011330417 3.365008e-05 0.017473243 0.008379999 4.1304484e-05 0.023250574 1.2504e-41
0.028168967 -0.0005737151 0.017478095 1.3977742e-16 0.024875058 1.0967e-41 7.421301e-06 0.008060827
9.813e-42 1.141e-41 0.013245607 0.021860816 3.0428434e-06 -2.4209949e-05 -3.8534716e-05 -2.491929e-06
0.01691065 -0.0014992567 -0.0010697339 1.548699e-12 -0.0023396937 0.0013137474 1.0907614e-06 0.006013265
-4.1687945e-06 1.0012e-41 0.01327826 0.01813499 0.019791927 0.0034951074 -9.812e-42 -1.0442e-41
-0.00020722173 9.857e-42 6.396302e-07 0.033267505 2.310798e-06 0.0060052807 0.013356279 4.946056e-05
-0.00037655976 0.020458382 0.02424989 0.018593907 9.809e-42 0.018504972 0.018607717 0.01832414
0.027397012 0.0001069131 0.021482402 9.981e-42 0.00015098188 0.026425786 2.4862336e-05 0.029385528

causal_fusion.bias f4 [64]
00000000: 47f3 299e 652a 9c3c 2cbf 25be 055d 6a9f
00000010: 6750 4db0 4c1c e83b e4ed 913d a1b4 1ab7
00000020: d549 b2bb 9790 a4bd a962 3abc 0244 689e
00000030: 7a39 02b5 61a2 7d3d ea23 5db2 3fb6 9eb3
00000040: 46d4 f9ba 2895 5cbc 9fdb 5138 f060 6dbb
00000050: 88fe 1caf 831a e2b8 d108 abbc 2ef0 3d3d
00000060: 99f7 f8ad c2e4 19b3 e248 6abb 5003 a7bc
00000070: 1253 8eb8 49be fe3c e52f d7bc befe 089d
00000080: a730 23a4 9f77 9a96 f5f9 10bb 2438 8eb9
00000090: 3514 533e b13c 79ba 578e 3bbd b7fd 7cbd
000000a0: aa94 17b0 8f6f 9e3e d170 d0b8 09d0 f5a2
000000b0: b68a 06be f844 0b3e 9443 f9b4 c3f6 cbb5
000000c0: 7be4 69bb 2be9 acb8 32fc deb5 d80b c6b4
000000d0: 1bec b23d d83c 17ba 4afd 4d3e 5e7d 0cbe
000000e0: f2ba 6ab5 f63f 91ba 3c04 d03c 04e5 11b6
000000f0: ab94 9b3e 76e9 1b3f d2c6 b0bb 8c7c 3ea9
-8.997094e-21 0.019063184 -0.16186208 -4.962837e-20 -7.4692824e-10 0.0070834514 0.07125452 -9.221171e-06
-0.0054409304 -0.08035391 -0.0113760615 -1.22960414e-20 -4.8512413e-07 0.061922435 -1.2872059e-08 -7.390599e-08
-0.0019060455 -0.013463296 5.003402e-05 -0.003622111 -1.4278545e-10 -0.00010781458 -0.020878227 0.04637163
-2.8304291e-11 -3.5831142e-08 -0.0035749008 -0.020387322 -6.786561e-05 0.031096594 -0.026267955 -1.8131149e-21
-3.53862e-17 -2.4955533e-25 -0.0022121642 -0.0002712618 0.20613177 -0.000950764 -0.045790043 -0.0617654
-5.5144744e-10 0.30944487 -9.9392266e-05 -6.662765e-18 -0.13138852 0.13600528 -4.6429034e-07 -1.5196496e-06
-0.0035689163 -8.24503e-05 -1.6613687e-06 -3.688899e-07 0.0873644 -0.00057692593 0.20116153 -0.13719699
-8.7443834e-07 -0.0011081684 0.025392644 -2.1739988e-06 0.30386862 0.6090311 -0.005394795 -4.2296502e-14

gcn_layers.0.bias f4 [64]
00000000: 4e7a c4b8 7db2 0bb9 95a3 0238 867f d6b7
00000010: 7773 37b9 9e8c 6f38 d664 2639 8a0b 5038
00000020: 8f49 3338 73f6 86b7 adc8 8638 3d6e 3638
00000030: a2b5 3339 4837 7838 bb69 1db8 6bc2 2139
00000040: d052 03b8 5a0b eab8 cd9c b7b8 ff62 65b9
00000050: 9079 1a38 d79b 1eb9 6dc0 4739 3a94 24b8
00000060: 6ce7 60b3 d908 6938 a029 6c38 c26e 7c38
00000070: 5289 0236 9b23 8738 451d 6437 80a7 df37
00000080: 8e82 22b7 8447 abb6 f37e 6ab8 7635 3db8
00000090: bc3f 4d39 2f7b 0339 48a0 3e39 b7b1 bdb7
000000a0: 8c44 cfb8 4865 b238 dcc9 2e39 85f9 7538
000000b0: 3f99 0ab7 1a66 8038 3466 9c37 e1dc 2e39
000000c0: a29e 11b9 f628 88b8 0d14 7b38 4edf 4838
000000d0: 7f34 82b6 43fc 5737 0e87 84b8 07ec 3e38
000000e0: 8051 a037 855c 9437 e6f0 2339 26d3 c238
000000f0: fbca 9bb8 e113 19b8 0444 afb7 e198 3638
-9.368789e-05 -0.00013322565 3.1146763e-05 -2.557017e-05 -0.00017495254 5.7113e-05 0.00015868558 4.960181e-05
4.2745432e-05 -1.6088807e-05 6.426997e-05 4.349485e-05 0.00017138434 5.9179292e-05 -3.7530186e-05 0.00015426583
-3.130996e-05 -0.00011160104 -8.7553264e-05 -0.00021876021 3.6829675e-05 -0.00015126109 0.00019049803 -3.9238694e-05
-5.236454e-08 5.555977e-05 5.630555e-05 6.0184633e-05 1.945144e-06 6.443934e-05 1.3596674e-05 2.666167e-05
-9.68635e-06 -5.1045226e-06 -5.590818e-05 -4.51109e-05 0.00019574066 0.00012539023 0.00018179521 -2.261331e-05
-9.883297e-05 8.5065665e-05 0.00016669132 5.8644935e-05 -8.261121e-06 6.1225335e-05 1.8644241e-05 0.00016676217
-0.00013887373 -6.492615e-05 5.9861737e-05 4.7891685e-05 -3.8804133e-06 1.2873733e-05 -6.3194064e-05 4.5519348e-05
1.9111438e-05 1.7686058e-05 0.00015634633 9.28997e-05 -7.428784e-05 -3.6496556e-05 -2.0893298e-05 4.353456e-05

gcn_layers.0.lin.weight f4 [64, 64]
00000000: fc1b 0080 3db7 90bc 26fe b9bd 72bd b609
00000010: 79aa 9723 0254 14bc 0cb8 9dbb 961b 0080
00000020: 57b2 19b7 52e6 9c3c 5e8b 1732 e1de 0a8c
00000030: 811b 0000 6278 dabc 4222 1a9b a1ec d109
00000040: 845c 8888 e6f2 ac32 9e64 0a3d a5c3 4d28
00000050: 8a1b 0080 661b 0080 d0b9 c4ba 8972 babc
00000060: a01f 0080 e388 3a21 e81d af36 5394 02b0
00000070: 681b 0080 71b9 ccbb 22af deb5 611b 0000
00000080: 751b 0080 a91b 0080 2a33 e0ae 5ff3 5700
00000090: 961e e33a 4443 a60a d15d 393c 1657 843a
000000a0: 861b 0000 e993 89bc 9f3c 3334 1b1c 0000
000000b0: 1c9f 20bd d80d 9b3a 9e1b 0000 ab1b 0000
000000c0: a87b 6437 2077 2eb1 12bc b22c aa1b 0080
000000d0: f391 e23a cd1b 0080 df5a 043d ec1c b23e
000000e0: 7b93 0d12 266d b732 f7d9 6e3c 3c1c 0080
000000f0: db21 1a3c f092 dabc bd1b 0080 531f 0080
00000100: 6421 0000 b289 2abd 6dd7 97be ad1b 0000
00000110: 38a1 d80b 41ab 12bd 04e7 efbd 2cef 3ea8
00000120: 1ef5 4a3a 90e5 c1bc a6d9 11b6 d634 278b
00000130: 4b57 8fbc dca4 0bbd deb1 492b 88cb 4aad
00000140: 7fbd 5335 5ac8 4338 cfe2 d33e 0951 5135
00000150: 861b 0080 ff01 0000 1ae2 713b 5672 abbd
00000160: 8519 d081 5b78 9322 739e c63a a3d8 1e3b
00000170: 5a1b 0080 267e b33d af67 633b 8c1b 0000
00000180: 641b 0080 621b 0000 cf57 faa2 1cc1 0a34
00000190: 749f f8bc 788f 8a92 7551 4ebd 3049 0e3e
000001a0: e723 8691 22da 053e 001a 8d36 4900 c904
000001b0: ca4e 3c3c f322 9bbd e349 3f80 a927 0080
000001c0: cd78 b93b ac83 b19e 2d78 0f33 9f95 0f2d
000001d0: 3eec 48bc c0ce 7eaf dc0d 803d 3a5d 10bd
000001e0: 4099 a927 60db e5ac 2f39 c7bd 3d2c af8a
000001f0: 0215 a5bd a184 49bc d6b4 4439 ed1c 0000
00000200: 5c1b 0080 7900 0dbd 7152 26bc 7c1b 0080
00000210: 5978 9325 3603 92bd 0913 743d 661b 0080
00000220: 18cf d1b4 d06f 923b 5d2a d530 f6de b90a
00000230: 1659 c73a df2c b9bc 7f1b 0000 f28c d91f
00000240: 5d19 9c2d 5575 5825 8e73 8ebc 39cc 1135
00000250: b71b 0000 9f1b 0000 ae22 6422 56f1 1fbd
00000260: 5e1b 0000 c6d1 8eab b8c4 de39 e063 6736
00000270: adfa 761f 9e57 423d ce29 0835 db1b 0080
00000280: 5d1e 0080 017c 7821 ef43 7a31 31d7 9981
00000290: 447a f839 ba1b 0080 3eeb 99b6 d2e7 c1bc
000002a0: a11b 0000 3d28 26be 911d 8bb3 9e1b 0000
000002b0: 2fe9 df3c 23df 26bd 861b 0000 af1b 0000
000002c0: b012 0d33 bf56 929d 57b8 f6b1 901b 0080
000002d0: 91bc b93c 5a1b 0080 2017 debd f610 203d
000002e0: a5a6 ff3a 9254 412d 164a 3a3d 7d1b 0080
000002f0: d061 b3bd eb0f e23d a327 458c d71b 0000
00000300: 5e1b 0000 bbe6 06bc 9d9a 68bc ed03 0000
00000310: 631b 0000 1425 b83b caa7 d13b 931b 0000
00000320: b70d a8b8 6318 60bb d399 73ac 6b3a 8b0b
00000330: 0a82 cbb1 ac7e 493d a01b 0000 478b 1e1e
00000340: ca7e 54b2 e687 c8b1 cd16 d13d cdd9 d0b4
00000350: 660e 0301 6aef 9c21 2b78 a2ba a2b5 54bd
00000360: 891b 0080 ef97 1ca5 5a6d 69ba 5d17 1e38
00000370: afb5 45a0 7e83 683c c46d a6b8 971b 0080
00000380: 8d1b 0000 559f ee06 fea8 d8b1 ba8f c102
00000390: 9b22 93bc 881b 0000 19e4 9b3b 9cb2 083e
000003a0: 851b 0000 4b19 013d 29f5 c2b4 a31b 0080
000003b0: 4928 09be 96ab 4c3c 09d4 3092 5e4f 7500
000003c0: cd1e 9c39 a0cb 981e 0c9b feaf 6a1b 0000
000003d0: 4081 99bd 761b 0080 0963 f1bc 5cda aabc
000003e0: 1b1d eda8 670b 96b0 1b58 b3bd 9be1 412a
000003f0: 47a1 7fbe de5a 86bd a5e4 fb20 7c1b 0080
-1.0039e-41 -0.0176655 -0.09081678 4.399306e-33 1.644365e-17 -0.009053232 -0.0048132 -9.896e-42
-9.161034e-06 0.019152794 8.821045e-09 -1.0698203e-31 9.867e-42 -0.026668731 -1.2749651e-22 5.0537445e-33
-8.206953e-34 2.0133893e-08 0.033787362 1.142221e-14 -9.879e-42 -9.829e-42 -0.001500899 -0.022759693
-1.1345e-41 6.320042e-19 5.218888e-06 -4.7504506e-10 -9.832e-42 -0.0062476923 -1.6591259e-06 9.822e-42
-9.85e-42 -9.923e-42 -1.0195429e-10 8.076993e-39 0.0017327841 1.6010521e-32 0.0113138715 0.0010096754
9.874e-42 -0.016794162 1.6692728e-07 1.0082e-41 -0.03921424 0.0011829687 9.907e-42 9.925e-42
1.361865e-05 -2.5388047e-09 5.0799443e-12 -9.924e-42 0.0017285928 -9.973e-42 0.032313224 0.3478769
4.467354e-28 2.1353639e-08 0.014578334 -1.0129e-41 0.009407486 -0.026681393 -9.95e-42 -1.1237e-41
1.1978e-41 -0.041635223 -0.29656544 9.928e-42 8.344275e-32 -0.03580785 -0.117139846 -1.0598981e-14
0.0007742214 -0.023669034 -2.1733372e-06 -3.220278e-32 -0.01749768 -0.03409277 7.1656385e-13 -1.1527564e-11
7.887938e-07 4.6678215e-05 0.4138398 7.797649e-07 -9.874e-42 7.16e-43 0.0036908449 -0.08371417
-7.644375e-38 3.997186e-18 0.0015153423 0.0024238012 -9.812e-42 0.08764295 0.0034699251 9.882e-42
-9.826e-42 9.823e-42 -6.7855607e-18 1.2922504e-07 -0.03034947 -8.744392e-28 -0.050370652 0.13895106
-2.1163599e-28 0.13071492 4.2051543e-06 4.7255135e-36 0.011493394 -0.075750254 -5.812142e-39 -1.4227e-41
0.0056601525 -1.8795062e-20 3.340408e-08 8.1618315e-12 -0.012263356 -2.3174618e-10 0.062526435 -0.035245158
4.7073077e-15 -6.532927e-12 -0.09727704 -1.6868528e-32 -0.080606475 -0.012299688 0.00018759383 1.0377e-41
-9.815e-42 -0.03442428 -0.0101514915 -9.86e-42 2.5581986e-16 -0.07129519 0.059588466 -9.829e-42
-3.9079964e-07 0.0044688955 1.550983e-09 1.789872e-32 0.0015209045 -0.022604404 9.864e-42 9.213625e-20
1.774641e-11 1.8774767e-16 -0.017389085 5.431389e-07 9.942e-42 9.909e-42 3.0918121e-18 -0.039048515
9.817e-42 -1.0147931e-12 0.00042489707 3.4479817e-06 5.229988e-20 0.04744684 5.072478e-07 -9.993e-42
-1.0892e-41 8.4189786e-19 3.6418404e-09 -5.651211e-38 0.0004739334 -9.946e-42 -4.587141e-06 -0.02367011
9.911e-42 -0.16226287 -6.47807e-08 9.907e-42 0.02733287 -0.040740144 9.874e-42 9.931e-42
3.2846117e-08 -3.873557e-21 -7.1804993e-09 -9.888e-42 0.022672923 -9.812e-42 -0.108442545 0.039078675
0.001950462 1.0989558e-11 0.04548081 -9.861e-42 -0.08758891 0.11038192 -1.5188256e-31 9.987e-42
9.817e-42 -0.008233721 -0.014197019 1.408e-42 9.825e-42 0.0056196544 0.006398176 9.892e-42
-8.013419e-05 -0.0034194223 -3.4617767e-12 5.362875e-32 -5.9228613e-09 0.04919307 9.91e-42 8.393252e-21
-1.2368853e-08 -5.836216e-09 0.10209427 -3.890149e-07 2.407123e-38 1.0634344e-18 -0.0012395432 -0.05193103
-9.878e-42 -1.358232e-16 -0.0008904539 3.7691894e-05 -1.6746663e-19 0.014191506 -7.935942e-05 -9.897e-42
9.883e-42 8.975977e-35 -6.3056396e-09 2.8441296e-37 -0.017960837 9.876e-42 0.004757416 0.13349384
9.872e-42 0.031518262 -3.6313693e-07 -9.914e-42 -0.13394274 0.012492081 -5.579716e-28 1.0773225e-38
0.00029777587 1.6177843e-20 -4.6312498e-10 9.834e-42 -0.074953556 -9.851e-42 -0.029466169 -0.020856075
-2.6324908e-14 -1.0917177e-09 -0.08757039 1.7220116e-13 -0.24963866 -0.065603 4.2672358e-19 -9.86e-42

gcn_layers.1.bias f4 [64]
00000000: 9856 d836 1d0a df37 da57 4235 34fd a0b8
00000010: c772 d8b8 dc39 a5b8 a05c dbb8 2efa c8b3
00000020: b4df 09b7 909a 5232 6db0 26b2 b683 dab0
00000030: 23c8 3e37 7e02 dcb7 0ff1 f9aa 559b b5b8
00000040: 23f2 0f39 ff73 d538 ad22 f0b7 dbbf 0f38
00000050: b576 d237 2613 39b8 8674 7a38 7c04 6734
00000060: 7728 80af 62d4 bc38 57b2 4d38 5825 1cab
00000070: e26b d736 a00f 152f 9270 92b3 40f3 3738
00000080: e1c5 06b0 8035 d4b8 064d f6b2 17bf b1b9
00000090: 94fb c938 10e8 0ab4 c9bf 2135 02a0 2cb8
000000a0: 9e1b cf36 52bc cfb8 5d8e e1b8 69de 00b0
000000b0: c425 5f36 1508 3e38 e616 f8ae 926a 0b39
000000c0: 7615 2836 2953 5db2 7697 ebb7 af51 a833
000000d0: 4b44 982f 1e15 9aaa 07b5 5837 3c72 b3ae
000000e0: b24f 60b9 351a 7e36 f38d d0b7 d679 c4b7
000000f0: 83f3 2f39 5aa5 a832 fb0c 212e 628a 94b7
6.4473825e-06 2.6588381e-05 7.239847e-07 -7.676557e-05 -0.000103210616 -7.87859e-05 -0.000104599865 -9.358733e-08
-8.217921e-06 1.2258752e-08 -9.702586e-09 -1.5899022e-09 1.13714805e-05 -2.6227204e-05 -4.4398553e-13 -8.6596854e-05
0.00013727746 0.000101782374 -2.8626377e-05 3.4272536e-05 2.5089228e-05 -4.412527e-05 5.9713166e-05 2.1515183e-07
-2.3311816e-10 9.004098e-05 4.90419e-05 -5.547416e-13 6.4200585e-06 1.3557022e-10 -6.819131e-08 4.3857144e-05
-4.903012e-10 -0.00010118913 -2.8673195e-08 -0.00033902444 9.631287e-05 -1.2936675e-07 6.025626e-07 -4.1157014e-05
6.172296e-06 -9.9056066e-05 -0.00010755353 -4.688219e-10 3.3251572e-06 4.5307057e-05 -1.1281802e-10 0.00013295774
2.5046443e-06 -1.28828015e-08 -2.8084713e-05 7.837968e-08 2.7697164e-10 -2.7370548e-13 1.2916752e-05 -8.16027e-11
-0.00021391994 3.7864204e-06 -2.4861632e-05 -2.3421755e-05 0.00016780016 1.9632967e-08 3.661869e-11 -1.7707414e-05

gcn_layers.1.lin.weight f4 [64, 64]
00000000: 64ec d1a0 28c1 76a1 0394 9a22 a98d 5fa2
00000010: ef62 6223 2434 0923 ce6c cea1 a4c7 8822
00000020: bf6a 31a3 c9cc ea21 ce1e d7a1 88fa bfa1
00000030: 53e5 d6a2 41e6 8ca3 b094 8622 b1ae 1522
00000040: f5b8 8421 4edb d622 c5a9 37a1 7148 fca2
00000050: 095a 02a3 8d31 df22 47a4 6fa3 967f 7522
00000060: 701b 0000 4c62 66a1 da9f f721 cf2c 8721
00000070: bffa 1d22 4bf6 2322 b04c 4fa1 4365 9f21
00000080: 1a0b ec22 7ccd 74a2 a761 e622 63a3 42a2
00000090: 30de 94a2 ad4d b9a2 785a 3b1f fb54 6221
000000a0: 05d0 9d21 c3f5 0822 9b86 dfa1 3651 b6a2
000000b0: 55a6 9fa2 13e2 72a2 5624 2b21 8ee1 faa0
000000c0: 128d fda0 06f7 9120 4004 ff21 ae72 9522
000000d0: af88 8622 170c f321 7c96 6022 c15d 73a0
000000e0: 3af1 1820 d2da f2a2 c53a 7221 ba55 f2a1
000000f0: c00f b0a2 52fd 9022 64e9 a3a0 3a33 f122
00000100: 810e 253d 8fd0 a0bc 74d2 b43d c071 623d
00000110: 5bd2 433d e9c3 8ebb dcfe e93c 3e50 e83d
00000120: 1528 fdbc c25f cc3c d204 9dbc b623 4bbc
00000130: 2b56 2d3d f0c8 f33a 1a5c 013b f4a2 34bd
00000140: 9e36 1a3d dcab 38bc b3d6 9a3d dd3a 6c3d
00000150: 55d9 a9bc 5067 ec3d f02d cfbd c2da 2abd
00000160: fdbe efba e7fd 4ebc 95c8 803d 22de 3f3e
00000170: c878 a9bc ccc9 cb3b 6b38 75bc b420 0c3d
00000180: be87 863d 4873 ecbc cb3b 0e3d 5694 ac3c
00000190: 2a34 a03d f8d8 ed3c d239 e43d 5505 b4bd
000001a0: 2504 adbc cfa0 ea3a 9d90 703c 3fb9 693d
000001b0: 0589 f43d c855 c93c 81f2 1a3e 2d61 39bd
000001c0: f0e4 513e 483a 44bc 9537 16bd 3ca5 693c
000001d0: 87a4 093e 98a6 823d 4e0f a23d 31cd 283d
000001e0: 59c5 84bd e744 98bd b2c0 1e3c e4b8 2abb
000001f0: 812e 173b 7031 b13c 5112 0d3e 8142 773d
00000200: bb9e 8096 6646 7a18 4f74 5397 3883 2b96
00000210: e667 f818 8510 1917 5a0e 7b18 9e77 3699
00000220: 9605 1f18 ab79 0219 7daf 6318 9f75 1e17
00000230: 2e80 b298 d308 2f97 ed60 1a99 30ef b417
00000240: c2e5 4918 8936 1d17 4ed3 b796 b3a9 5018
00000250: bb39 e897 ef6e 0599 900a 6499 8388 bb97
00000260: 2a20 0080 666c 9898 04a8 5397 5f40 2197
00000270: 8df7 8098 8405 dc97 d6d9 3f96 3407 0899
00000280: 8f09 e198 8f02 2d96 029e 4f18 59d6 0c18
00000290: 354e 5497 d8af e918 5eb4 3397 584a af96
000002a0: 7233 ea98 28c9 6e98 9af0 f696 53de e517
000002b0: 28a7 0099 d17b 9818 92a8 dc16 91cb bd17
000002c0: 9678 8998 b27e 8a18 507b 8399 8c66 b498
000002d0: d1a7 ab97 7556 c217 406b 2399 1af2 9298
000002e0: 225b 5299 0995 1799 9b1c 8597 24a3 2918
000002f0: 9202 0e98 d143 0918 5e18 7418 00e1 c598
00000300: 84c0 95bd 039e 2ebd 31fb 5abd 4885 2abd
00000310: 812d c5bc 4465 4a3d 1e52 a7bd 54bc 423a
00000320: 85e3 89bd d0e9 2abd b60e 983c e1d5 86bd
00000330: 1b12 683d b9a6 afbc 5a27 f43d 955f 943c
00000340: dac9 54bd abb3 fa3d 39c4 1bbd 4f15 c2bc
00000350: 0221 e7bd 2649 a43d eebd ddbb 0ead 6dbd
00000360: e4c6 e5b7 e43c eebd 94a3 dc3c 0fb3 47bb
00000370: 5865 bebd 2345 2a3d c666 b1bd be46 2a3d
00000380: 49a4 abbc 70f0 0abd 2865 9bbc d415 1b3e
00000390: fad7 5bbd b459 433e ce12 93bc 5bff a6bc
000003a0: 0280 1e3d 0ede 3dbd 0187 9ebb 9f5c 0abd
000003b0: de95 14bd e2bf 1bbd 60e3 9fbd 4495 70bd
000003c0: 2a76 303d 90a4 d0bc 507c 563d 9702 f0bd
000003d0: d233 d33d a89a 6dbd ea99 1fbc 020a d03d
000003e0: b1f7 2e3d d7c9 3a3e 6714 4abd 4482 8dbc
000003f0: 2763 203c 879a 403c 9b13 debc e8a5 52bc
-3.5562407e-19 -8.360368e-19 4.1898497e-18 -3.029713e-18 1.22724346e-17 7.437826e-18 -1.3987903e-18 3.707425e-18
-9.617794e-18 1.5910663e-18 -1.4577121e-18 -1.3008979e-18 -5.8247623e-18 -1.5276347e-17 3.64782e-18 2.0285746e-18
8.993626e-19 5.8237014e-18 -6.22275e-19 -6.8381437e-18 -7.06638e-18 6.0496735e-18 -1.2991003e-17 3.3271235e-18
9.843e-42 -7.8057126e-19 1.6779683e-18 9.159817e-19 2.1410212e-18 2.2221006e-18 -7.0235823e-19 1.0801063e-18
6.3979682e-18 -3.3176949e-18 6.244502e-18 -2.6378399e-18 -4.035073e-18 -5.0226593e-18 3.9673624e-20 7.668425e-19
1.0693796e-18 1.8561542e-18 -1.5146698e-18 -4.9417184e-18 -4.3273147e-18 -3.2916798e-18 5.7985144e-19 -4.2500907e-19
-4.295322e-19 2.4727422e-19 1.7280597e-18 4.0507953e-18 3.6465492e-18 1.6469521e-18 3.0437327e-18 -2.0613921e-19
1.2954716e-19 -6.5825916e-18 8.207057e-19 -1.642125e-18 -4.772157e-18 3.929949e-18 -2.776772e-19 6.537742e-18
0.040297035 -0.019630698 0.08829203 0.05528426 0.047808032 -0.0043568504 0.02856391 0.1134343
-0.030902902 0.024948005 -0.019167338 -0.012398651 0.042318504 0.0018599313 0.0019738735 -0.044100717
0.037649743 -0.011271443 0.07560482 0.057673324 -0.020733515 0.11543143 -0.10116184 -0.04171253
-0.0018291172 -0.012633777 0.06288258 0.1873708 -0.020687476 0.0062191244 -0.014967064 0.034210876
0.065688595 -0.028863564 0.03472499 0.021066826 0.078224495 0.029034123 0.11143841 -0.087900795
-0.02112014 0.0017900708 0.014682916 0.05706143 0.11940197 0.024577036 0.1513157 -0.04525869
0.20497489 -0.011976786 -0.0366741 0.014260586 0.13441668 0.063794315 0.079130754 0.04121131
-0.064829536 -0.07435017 0.009689497 -0.0026050145 0.002306849 0.021630019 0.13776518 0.060366157
-2.0779688e-25 3.2347285e-24 -6.832458e-25 -1.3854675e-25 6.421141e-24 4.9457817e-25 3.2448235e-24 -9.433336e-24
2.0553089e-24 6.745413e-24 2.9427661e-24 5.120101e-25 -4.614135e-24 -5.6556687e-25 -7.9811874e-24 1.1692607e-24
2.609464e-24 5.079827e-25 -2.9698597e-25 2.6969046e-24 -1.5007222e-24 -6.898342e-24 -1.1789457e-23 -1.2119052e-24
-1.1538e-41 -3.9400534e-24 -6.8389843e-25 -5.2103153e-25 -3.3337187e-24 -1.4218559e-24 -1.5497594e-25 -7.03249e-24
-5.817079e-24 -1.3975636e-25 2.6833896e-24 1.8202794e-24 -6.8599606e-25 6.0406645e-24 -5.8065675e-25 -2.8319692e-25
-6.053953e-24 -3.0862337e-24 -3.9895284e-25 1.4854901e-24 -6.651202e-24 3.94161e-24 3.56493e-25 1.2265226e-24
-3.553543e-24 3.5800093e-24 -1.3594888e-23 -4.6632455e-24 -1.1092979e-24 1.2558781e-24 -8.4485615e-24 -3.7984576e-24
-1.087515e-23 -7.8366144e-24 -8.602145e-25 2.1925103e-24 -1.8354368e-24 1.7741074e-24 3.1548563e-24 -5.11505e-24
-0.0731211 -0.04263116 -0.05346221 -0.041631013 -0.02406955 0.04941298 -0.081699595 0.0007428576
-0.06732849 -0.041726887 0.018561702 -0.06583763 0.05665789 -0.021441804 0.11921568 0.018111983
-0.051950313 0.122413 -0.03802893 -0.023691801 -0.112855926 0.080217645 -0.006767026 -0.058026366
-2.7391543e-05 -0.11632708 0.026933469 -0.0030471717 -0.092966735 0.04156984 -0.086621806 0.04157137
-0.02095236 -0.033920705 -0.018969133 0.15145046 -0.05367277 0.19077188 -0.017953303 -0.020385435
0.038696297 -0.046354346 -0.004837871 -0.033779737 -0.036275737 -0.03802479 -0.0780704 -0.0587361
0.04308144 -0.025469095 0.052364647 -0.11719244 0.10312618 -0.05800882 -0.009741286 0.10158159
0.042716686 0.18241058 -0.049335863 -0.01727403 0.009789265 0.011755592 -0.027108958 -0.012856938

bn_layers.0.module.weight f4 [64]
00000000: 242e c83d 0dd0 273e 4ae0 573d 7317 ae3d
00000010: 7340 983d 6ee4 a03d 8762 be3d 7cff 243e
00000020: d69c 8f3d afa9 d73d 5ca8 073e e27a b23d
00000030: 232f f43e caa2 3e3d 137c c23e 975c 913d
00000040: 9967 813d d236 323e 9a34 293e 4aba c23d
00000050: f8d9 093e a197 dc3d c3d6 d33d ba9f 7b3d
00000060: d5f2 4e3a 260f c23d 1e6c 9e3d 46d9 ee3d
00000070: 4cad ba3d afca 093e 6785 a73d 038e ec3d
00000080: c9e2 783d 3ca6 803d f3ae 5a3d 1535 af3e
00000090: 6737 283e 8f74 253f 9f80 993d be3a 083e
000000a0: 897d e73e 4bcb c53d 74b7 683e 7c1b e83d
000000b0: 80b6 f63d 4df9 853d c339 8c3d b28a da3d
000000c0: 54b2 5a3e 9bd6 af3e 7a7a 8c3e 5b80 8b3d
000000d0: 8b75 903e 0891 643d e7fd 123d bf8a 2a3e
000000e0: f6bf 133e c9ac e13e 8572 603d 7144 f03d
000000f0: fc67 e23d 9577 9f3d 34a3 803d bc18 1d3e
0.097744256 0.16387959 0.052704133 0.08500566 0.07434168 0.078560695 0.09296136 0.16113085
0.07012336 0.105304115 0.13247818 0.08714844 0.47692212 0.046541966 0.37985286 0.07097738
0.06318588 0.17403725 0.16523972 0.09508188 0.13462055 0.107711084 0.10343697 0.061431624
0.0007894461 0.094755456 0.077354655 0.11662535 0.09115085 0.13456224 0.08179741 0.11550524
0.060763154 0.06281707 0.0533895 0.34220186 0.16427384 0.6463098 0.07495236 0.13303658
0.45212963 0.09657916 0.22726232 0.11333367 0.12046528 0.06541691 0.06846955 0.10670985
0.2135709 0.34343418 0.27437192 0.06811591 0.28214678 0.055802375 0.03588667 0.1665449
0.14428696 0.44077137 0.054796714 0.11731804 0.1105499 0.0778648 0.062811285 0.15341467

bn_layers.0.module.bias f4 [64]
00000000: c334 f6be 2241 4ebd f6f9 b7bd eda4 8bbd
00000010: 47a9 6d3c aaa2 013e b2f6 8fbd ec7f e73d
00000020: dcb1 6fbd a7fa ac3c 6390 94bd 8d0c 8f3c
00000030: 30f0 66bc d629 98bd b82d 91bd 657a fd3d
00000040: af4a a7bd e2c4 ad3d c026 0cbd df38 663d
00000050: a553 443d 6489 0b3e c3d5 9d3d 5f72 1ebd
00000060: c4d7 5abd d290 1fbc 5a02 083e 093a dfbd
00000070: c374 833c 3ae8 f53c b532 86ba 65a8 58bd
00000080: 52c7 013e 31a6 49bd b20e 873d 4d0c 7d3d
00000090: c3e0 93bb 5c87 72bd 9567 7cbd 29ae 853d
000000a0: c3bf b4bd c824 6dbd fdce 843d 790b ab3c
000000b0: 5fa2 e93c a79f 7e3d 84ed ebbc 16fe 273c
000000c0: 9968 c0bc 775b 16be 7786 7abd 4b27 9c3c
000000d0: 3971 00bc 76ce d53d 2d8e e53d b4e6 30be
000000e0: bb91 a73e 8290 0fbd 46d4 afbd db71 1abf
000000f0: 5770 38bd fa87 633d 4e31 95bd a3a1 cb3d
-0.4808713 -0.050355084 -0.08983223 -0.068185665 0.014505691 0.12659708 -0.07029475 0.11303696
-0.05851923 0.021115614 -0.07254102 0.01746204 -0.014095351 -0.074298546 -0.07088798 0.123768605
-0.08168542 0.08484818 -0.034216642 0.05620658 0.047931332 0.13626629 0.077067874 -0.03868329
-0.053428426 -0.009739118 0.13282147 -0.10899741 0.016046887 0.03001796 -0.00102385 -0.05289497
0.12673691 -0.049230758 0.065946 0.06177931 -0.0045128777 -0.05921112 -0.06162222 0.06527359
-0.08825638 -0.057896405 0.064847924 0.020879494 0.028519807 0.062163975 -0.02879978 0.01025345
-0.023487376 -0.14683329 -0.061163392 0.019061705 -0.007839494 0.1043977 0.112087585 -0.17275506
0.3272837 -0.035049923 -0.0858541 -0.6032998 -0.04502901 0.0555496 -0.07284795 0.09942939

bn_layers.0.module.running_mean f4 [64]
00000000: b5fd 9abc 0393 b23c d5e1 48bd 5970 f2bd
00000010: 0100 8e3d 04c9 983d ec3b 9a3d 0380 d33d
00000020: 3cea 4a3d f1cc 583c 5f89 843e 9be1 3cbd
00000030: a373 5cbd 54e9 b53c cc78 0f3a 3259 bf3d
00000040: 80fa 44bc cefe b33c dd68 5ebe 2806 573d
00000050: 0071 d33c 04a3 f03d 058d e83c d6be 5f3a
00000060: 1967 83bb 88d7 b3bc 33e3 173e 1f7a 61be
00000070: e316 c93c 8211 45bd 2d07 6ebd 1df9 34bc
00000080: a546 963d e13a 4bbd dc47 963c 1660 9cbc
00000090: 249f a2bc 068d 50bd c432 91bd 4492 1cbd
000000a0: 8aca 08be 1df3 34bc 638c 8c3c 8378 473d
000000b0: 963e ac3c ee69 92bb cdf7 a03b f88c 7cbd
000000c0: ac0b 11be 2fbd 773e 3a10 dcbd 27eb 04bd
000000d0: c86a dbbd 6e91 e83d 19db 28bd 6cc6 cabd
000000e0: 5ec6 46bc 8a53 d7bc 1515 08bd 37db 7b3c
000000f0: c1bc 07bc 6dbd 323d 7720 88bd 1875 a73a
-0.018919805 0.021798616 -0.049043495 -0.11837835 0.069335945 0.07460216 0.075309604 0.10327151
0.04953979 0.013232456 0.25886056 -0.04611359 -0.053821217 0.022205986 0.0005473017 0.093431845
-0.0120226145 0.021972086 -0.2171969 0.052496105 0.025810719 0.11749843 0.028387556 0.00085352117
-0.004010093 -0.02195336 0.14832763 -0.22019242 0.024547046 -0.0481124 -0.058112312 -0.011045721
0.07337693 -0.0496167 0.018344812 -0.019088786 -0.019851275 -0.05091574 -0.07089761 -0.038225427
-0.13358513 -0.011044291 0.017156785 0.048698913 0.021025937 -0.004468194 0.0049123527 -0.061657876
-0.14164609 0.24193262 -0.107452825 -0.03245082 -0.10713726 0.113558635 -0.041224573 -0.09901127
-0.012132255 -0.026284952 -0.03322323 0.015372089 -0.0082847485 0.04363768 -0.06646817 0.0012775986

bn_layers.0.module.running_var f4 [64]
00000000: f22b ee39 5099 f339 4140 2f3a f60b 233a
00000010: cb3b 993a f750 713a 0032 843a 485d 613a
00000020: 8ede 363a 5a3d 943a da94 6f3a 5463 3b3a
00000030: 9607 913a d198 d739 5627 4d3a bffb ff39
00000040: b989 ea39 4a03 0c3a 51d6 383a 2ee5 f839
00000050: eb15 113a b9ce 483a aa94 023a 49dd 103a
00000060: 18eb 0e38 9223 1c3a e696 003b f807 953a
00000070: 0ce1 293a 85d2 dc39 fab5 173a 4545 cb39
00000080: d8dc 963a 2f17 9739 252f 223a a8ca 673a
00000090: d972 883a 9801 c13a 65e4 e039 df14 ac39
000000a0: ed39 6c3a 68e3 5e3a 0db5 063a 2c27 903a
000000b0: 0197 433a 67e8 ce39 ba8d 0a3a a898 2b3a
000000c0: bed1 4c3a c0d4 ce3a f316 f739 7e21 5c3a
000000d0: e0fa a73a f297 d13a 8830 523a 8a99 163a
000000e0: 9c08 983a 0e5b 993a a8bf 403a 4d6b 463a
000000f0: fa3d 7839 3c5f d039 2a6d 373a 3713 053a
0.0004542764 0.00046462798 0.0006685295 0.0006219739 0.0011690793 0.0009205485 0.0010085702 0.0008596969
0.0006975912 0.0011309788 0.0009139307 0.0007148285 0.0011064883 0.00041121853 0.0007825991 0.00048824956
0.0004473457 0.0005341066 0.00070509786 0.00047472998 0.0005534577 0.00076601986 0.0004981259 0.0005526138
3.4074386e-05 0.0005956228 0.0019621192 0.0011370173 0.0006480373 0.0004211852 0.00057873095 0.00038770787
0.0011509908 0.00028818237 0.00061868347 0.0008842149 0.0010410204 0.0014725206 0.00042894777 0.00032821947
0.0009011317 0.0008502514 0.0005138673 0.0010998002 0.0007461161 0.00039464535 0.0005285401 0.000654588
0.00078132364 0.0015779957 0.0004712861 0.0008397325 0.0012815855 0.0015990718 0.0008018096 0.0005744925
0.0011599245 0.001170011 0.0007352778 0.00075690896 0.00023674211 0.00039743807 0.0006997163 0.00050764106

bn_layers.1.module.weight f4 [64]
00000000: 0d45 3e2d 31df 603e cb45 c220 dfd4 663e
00000010: e4d5 ca3e e734 a23e eb88 8c3e 781b 0000
00000020: 1820 b43c 1c5d 733c 4827 df39 2960 8f3a
00000030: 9f52 553e 1841 0ead f81b 0000 d382 ac3e
00000040: d0bf 8699 327b 9e3e e50f b03d edac da3e
00000050: abc0 433e 7d05 1f3e d3ff 0b3e 7c1b 0080
00000060: cad4 973b 9cb4 a53e 8bd2 c93e 6d1b 0000
00000070: e79a 0c26 7a1b 0000 2948 1632 981b 0000
00000080: 961b 0000 507f d73e 0763 0221 f48f 8f3e
00000090: 0f4e b63e 7ae0 da3b c035 3e3f 31ba 0a3f
000000a0: 9816 82bc 33c5 993f 130a ef3e 5812 403a
000000b0: 7b97 151a dc74 fc3e ea82 2919 9879 ae3e
000000c0: d2d9 8c3e 2b33 0ca4 67bb bd3e 729f 033c
000000d0: 885a a215 0d3a 08a5 c0ab 4a3e 0b07 bdac
000000e0: fd8f 083f 91a2 93bb e648 93b9 3475 8d3e
000000f0: ad0c 3f3e 5a55 9cb6 6edd a79f a89d 4592
1.0815582e-11 0.21960141 3.2911063e-19 0.22542141 0.3961631 0.31680986 0.2744821 9.854e-42
0.02198796 0.014853742 0.0004256314 0.0010938692 0.20832299 -8.086219e-12 1.0033e-41 0.3369356
-1.3932748e-23 0.30953366 0.08596782 0.42710057 0.19116466 0.15529437 0.13671808 -9.86e-42
0.0046335207 0.32364357 0.39418444 9.839e-42 4.878219e-16 9.857e-42 8.7475565e-09 9.899e-42
9.896e-42 0.4208932 4.4176775e-19 0.28039515 0.3560643 0.0066795917 0.74300766 0.54190356
-0.015879914 1.2013305 0.46687374 0.0007326952 3.0934843e-23 0.49307907 8.763533e-24 0.34077144
0.27509934 -3.0401002e-17 0.3705704 0.00803362 6.557411e-26 -1.1815788e-16 0.1979208 -5.372485e-12
0.5334471 -0.0045054634 -0.00028092338 0.2762848 0.18657179 -4.6590985e-06 -7.1093576e-20 -6.2356566e-28

bn_layers.1.module.bias f4 [64]
00000000: 0c1a 28b2 0373 a5be 8608 53b2 8cda a53e
00000010: acc7 0fbf 05be 1f3c f60d 223e 801b 0080
00000020: 4504 83bd f66a f9bc 3129 c7ba 1407 9eb5
00000030: 89a2 8bbe 357d b9a0 7f7f e693 d3e9 4cbe
00000040: 8244 60b3 2ed8 693e 092d 75bd e046 a8be
00000050: 4c14 acbe 0926 d5bd 134b c1bd fb22 0080
00000060: 53a6 8abb e2cf 34be cf2a 72bd e921 0080
00000070: 104e b698 8a1b 0080 80c7 13a4 7f1b 0080
00000080: 0cdc 32ac 26ed 97bd e9a3 a9b3 4d48 e4be
00000090: 212c a0be fef1 e2bc a8df 1bbf f06d 89be
000000a0: 74bd c6bd 04c3 643e 244c d43d 637b 2cb9
000000b0: 37ba 0b96 d80e c43e 1109 f0b1 4a14 77be
000000c0: 9bdd c4bc 1cb7 25a4 6c96 2ebe 9594 70bd
000000d0: 8d96 37b0 a0aa aca3 3132 05be 3cc9 a9bd
000000e0: ec08 3dbf 604e e7b9 2bed a4bb 0daf bcbd
000000f0: 47e4 2abf 3c99 beaa 71ce c2b9 b8f1 d3af
-9.784809e-09 -0.3231431 -1.22837545e-08 0.323933 -0.5616405 0.009749894 0.15825638 -9.865e-42
-0.06397299 -0.03044651 -0.0015194771 -1.1773977e-06 -0.27272442 -3.1423074e-19 -5.8185883e-27 -0.20011072
-5.221637e-08 0.22836372 -0.059857402 -0.32866573 -0.33609235 -0.10407645 -0.094381474 -1.2549e-41
-0.004231253 -0.17657426 -0.059122857 -1.2165e-41 -4.712472e-24 -9.879e-42 -3.2044527e-17 -9.864e-42
-2.5417472e-12 -0.07418279 -7.899491e-08 -0.4458641 -0.31283668 -0.027703281 -0.6088815 -0.26841688
-0.09704104 0.22340018 0.10366085 -0.00016449163 -1.128709e-25 0.38292575 -6.98595e-09 -0.24128833
-0.024031451 -3.593377e-17 -0.17049569 -0.05873545 -6.678896e-10 -1.872054e-17 -0.13007428 -0.082903355
-0.7384174 -0.00044118147 -0.0050331554 -0.09213076 -0.66754574 -3.3857108e-13 -0.00037156374 -3.8552428e-10
